model.pth (torch, 378536 bytes, 8 tensors)

conv1.weight f4 [32, 1, 3, 3]
000000 3e 50 11 3d 17 53 25 3e 18 62 2d 3e 82 e0 87 3d
       0.035476916 0.16144978 0.16931951 0.06634618
000010 70 e0 72 be 78 5b 6c 3e 1b 06 e5 3d 0f 8a d4 3d
       -0.23718429 0.23081768 0.11182805 0.10377895
000020 d8 c8 b7 3b 72 c9 30 3e 26 75 a7 3d 19 13 19 bd
       0.0056086592 0.17264345 0.08176641 -0.03737173
000030 00 a1 4b be e6 46 88 bc e3 e0 a6 3e 7d 21 a2 3d
       -0.19885635 -0.01663537 0.3259345 0.07916544
000040 66 69 73 be c9 d7 cb 3d 89 7e 3e 3d 1e 67 6b be
       -0.23770675 0.09953267 0.046507392 -0.22988555
000050 b3 1c 1e bf af e4 02 3e 67 98 69 3e 7d b1 05 be
       -0.6176254 0.12782548 0.22812043 -0.13055988
000060 31 a9 ed bc 21 33 07 3f 57 06 6e 3d c0 6a 64 bd
       -0.02901134 0.5281239 0.058111515 -0.055765867
000070 c3 10 0d 3e e7 59 b9 3e ea c7 77 be 3b 13 bc 3d
       0.13775925 0.36201403 -0.24197355 0.091833554
000080 8c 41 2e be 15 7d a0 be d5 9f b3 bc 4b 3c 16 3e
       -0.17017192 -0.3134543 -0.0219268 0.14671437
000090 a7 4b 18 3c bc 3a 24 bd 13 04 b1 3d b5 7f db 3d
       0.009295381 -0.040095076 0.08643355 0.107177176
0000a0 89 44 8d bd f4 ff a5 be 0f 41 77 3e f9 dd ac be
       -0.06897838 -0.3242184 0.24145912 -0.33763102
0000b0 6b 87 91 3e 13 e5 84 be 2e 1c 8d be bb 46 d2 be
       0.28423628 -0.2595602 -0.27560562 -0.41069588
0000c0 73 e7 ad 3e 72 c3 fc 3d f2 e5 e0 3e 46 ec 3a 3b
       0.33965644 0.12341966 0.43925434 0.0028522178
0000d0 64 06 ce 3d 31 12 bc bd 82 f8 86 be 73 ce 0a bd
       0.10059813 -0.09183157 -0.2636147 -0.03388829
0000e0 c9 55 8a 3d 85 1d 0f 3d 97 c0 a1 be 06 f8 27 3e
       0.067546435 0.03494026 -0.31592247 0.16403207
0000f0 cf 1f c0 be a5 4b 52 be f5 53 05 3f 12 e9 00 3f
       -0.37524268 -0.20536669 0.52081233 0.5035564
000100 63 eb 8c 3d e0 ea 2f bf d3 7c 95 3c 12 8f 08 bf
       0.06880834 -0.68717766 0.018247997 -0.5334331
000110 55 6a f7 be c3 dc 33 bf c9 1d f9 be 22 a8 96 3a
       -0.48323312 -0.7025873 -0.48655537 0.0011494199
000120 40 ff 50 bc 49 d3 b2 be d3 84 74 3e c1 5a 0d bd
       -0.012756169 -0.34926823 0.23878793 -0.034510378
000130 c6 a5 27 be c5 fc 82 3e a1 b9 99 bd c3 a3 43 3d
       -0.16371831 0.25583473 -0.07506109 0.047763597
000140 29 19 74 3d 6e d9 bd be 86 c0 ea be e3 cc 5b be
       0.059594307 -0.37079948 -0.4585001 -0.21464877
000150 9a 52 dd 3e f7 54 f9 be 76 17 22 be a9 95 00 3f
       0.43227082 -0.48697636 -0.15829262 0.50228363
000160 9c 01 37 be 13 4b 22 bf cc 9c c3 3c b2 91 cc 3d
       -0.17871708 -0.63395804 0.023878478 0.09988727
000170 a6 c8 6d 3c 14 c9 d7 be 1f be ce be c3 07 7b be
       0.01451317 -0.42145598 -0.40379426 -0.2451468
000180 72 64 80 be 27 7c d9 3e 63 f7 b4 3e c5 80 a8 bd
       -0.25076634 0.42477533 0.3534499 -0.08227686
000190 c3 7b 82 be 91 d7 f9 3d b3 dc 6c 3e 37 47 89 3e
       -0.25485048 0.12199319 0.23131065 0.26812145
0001a0 87 5f e2 be 53 99 68 3e 27 13 a0 3e 15 fe 13 bf
       -0.44213507 0.22714739 0.31264612 -0.57809573
0001b0 b3 70 d9 be 11 ae f9 3d 28 31 10 3e 41 17 47 be
       -0.42468795 0.12191404 0.14081252 -0.19442464
0001c0 4f 49 8a be e4 46 44 3e 3b 4a 43 3e c5 a6 53 3e
       -0.27009055 0.19167668 0.19071285 0.20669086
0001d0 e3 77 79 3e ed 31 21 3e 18 13 0b 3e 10 0c 4e 3e
       0.2436214 0.15741701 0.13581502 0.20121789
0001e0 e3 39 46 be 1a 7b 78 3e c4 4a db 3e 53 ae 17 be
       -0.1935802 0.2426571 0.4283048 -0.14812593
0001f0 90 0b 13 bf ab 07 bd be aa 36 c0 bd b4 76 fe 3a
       -0.5743952 -0.36919913 -0.09385426 0.0019414038
000200 73 32 b2 3d 59 5a 0c 3d d9 65 e5 bd c2 ca 9b 3e
       0.08701029 0.03426585 -0.112010665 0.3042813
000210 8a 9d a9 be 3e c1 22 3e 77 b5 23 3e 21 a8 d3 3d
       -0.33128005 0.15894029 0.15987192 0.103348024
000220 0f e6 52 3e 1b cb 62 3e ae ce 00 3e e6 3f 3a be
       0.20595573 0.22147791 0.12578842 -0.18188438
000230 08 25 17 be a8 59 d3 be 3f 7b 37 3e ac 32 11 3b
       -0.1476022 -0.4127934 0.17918108 0.0022155447
000240 8c 92 c9 3e 99 0a b1 3e 35 57 df 3e 52 a4 6f be
       0.3936962 0.34578398 0.4362122 -0.23402527
000250 ef 79 17 3e fc 24 61 be 2c 0e d8 be 96 df 09 bf
       0.14792608 -0.21986765 -0.42198312 -0.5385679
000260 2f 67 eb be 70 73 73 be 23 50 c3 bc c6 38 bd be
       -0.4597716 -0.23774505 -0.023841923 -0.36957377
000270 74 4e c0 bd 6f 18 5c bc 27 41 21 3e be f9 92 be
       -0.09389964 -0.01343356 0.1574751 -0.28706163
000280 f8 8d ad 3e b7 9c c5 3e e9 7d ce 3d 77 2a 25 3e
       0.33897376 0.38596126 0.10082609 0.1612948
000290 38 6c 48 3e 5a 15 ed bc 57 88 d2 3e c4 d7 53 bd
       0.19572532 -0.028940845 0.41119644 -0.051719442
0002a0 8c ef 97 3e bb 43 4d bd 44 46 39 bf 79 7f 94 bd
       0.29674947 -0.05011342 -0.7237284 -0.07250876
0002b0 e5 ae 4d be 08 ab 04 3e 1d 4d af 3d 65 03 5e bd
       -0.20086248 0.12955868 0.0855963 -0.054202456
0002c0 d7 74 d2 be 26 0b af 3d 47 82 93 3e ea 08 fd bd
       -0.41104767 0.08547048 0.2881033 -0.12355216
0002d0 a2 34 96 bd 8c db d8 be e3 77 53 be 5f e7 86 3e
       -0.07334258 -0.42355 -0.20651202 0.26348397
0002e0 df 7b 55 3d 84 d3 ae be 7a 84 95 3e f0 9a 9e 3e
       0.052120086 -0.3414575 0.29202634 0.30977583
0002f0 e3 98 21 3e 08 7a 1d 3e 60 ed 80 3c 67 25 0a bd
       0.15780978 0.15378582 0.01573819 -0.033727076
000300 38 09 42 3e aa 32 96 3d 56 dc ce be 44 a4 22 3e
       0.18948829 0.07333882 -0.40402478 0.15882975
000310 a0 b8 ed bb f4 f0 86 bc 9a 88 8f 3e b5 8f 57 be
       -0.007254675 -0.016472317 0.28033906 -0.21050914
000320 da 3d 5a bd 25 99 64 3d 1d 7d ca be b7 11 29 3e
       -0.053281642 0.055810113 -0.3954858 0.16510664
000330 3a 3e f1 3e f9 72 28 3e 08 98 19 bf 7d 70 24 3c
       0.47117788 0.16450109 -0.59997606 0.010036585
000340 a7 55 76 3e f2 39 b0 be 9b 0f 3e bc ec 5a 7e 3e
       0.24056111 -0.3441921 -0.0116004 0.24839371
000350 be 8a 2a bb b9 17 09 bd 78 5a d6 b9 f3 4d 89 3e
       -0.0026022638 -0.03346989 -0.00040884665 0.26817283
000360 e4 84 1f bd ff 4c e0 3d cb 99 3e 3e 6a b7 20 3e
       -0.038945094 0.10952186 0.18613355 0.15694967
000370 16 b6 fa 3d da aa 29 3d 74 00 9e 3d 02 13 59 3e
       0.122417614 0.041422702 0.0771493 0.21198657
000380 df 3e 5f be c2 0c 35 3d 95 3a 0a bf d2 33 a3 be
       -0.21801327 0.04420162 -0.5399564 -0.31875473
000390 eb 1f 30 be c9 28 79 be 19 78 4b 3e 44 80 a3 3e
       -0.17199676 -0.24331965 0.19870032 0.31933796
0003a0 01 21 94 3e 21 98 f1 3e ec d6 52 3d ed c9 75 3e
       0.2893143 0.47186378 0.051474497 0.2400281
0003b0 9f f9 30 3e 08 1b bf bd 28 5d 4d 3e 39 70 26 be
       0.17282723 -0.09331328 0.20055068 -0.16253747
0003c0 ed 66 3c 3e 75 b0 84 3e 6b 03 90 bb f3 f2 a2 be
       0.18398638 0.25915876 -0.0043949387 -0.3182598
0003d0 93 86 e5 be e9 10 c9 3e 55 41 47 3e 94 9f 90 be
       -0.44829234 0.39270714 0.19458516 -0.28246748
0003e0 61 b9 39 be e8 9d b8 bc 45 8e cd be d0 67 ff bd
       -0.18137123 -0.022536233 -0.40147606 -0.124709725
0003f0 93 19 19 be 95 e4 07 bf ec e1 2f be 21 5d eb bd
       -0.14951162 -0.53083163 -0.17176026 -0.11492372

conv1.bias f4 [32]
000000 4f e1 a7 be 03 1e 24 3e de 6b 5c 3d 8e a3 26 bd
       -0.32789084 0.16027074 0.053813808 -0.04068332
000010 62 95 18 bd e4 7b 27 be 39 be 29 be d3 34 ca 3e
       -0.037251838 -0.16355854 -0.1657647 0.39493427
000020 5e fa be 3c 74 b5 93 bd 03 22 43 be 1e f3 3a bd
       0.023312744 -0.07212344 -0.19055943 -0.04564201
000030 8c a7 04 3e 6b 3d 22 bc ac e6 3b be de b7 d5 be
       0.12954539 -0.0099023385 -0.18349713 -0.41741842
000040 dd f8 00 be 1f c3 97 3d 13 29 bf be 87 1b 55 bb
       -0.12594934 0.07410263 -0.37336025 -0.0032517628
000050 d0 60 51 3d 82 aa 8d bd f8 91 3c bd 4b 56 76 be
       0.05111772 -0.069172874 -0.046037644 -0.24056356
000060 bf 98 9f be f0 ee 2a 3d 6a 42 e3 be 48 83 25 bd
       -0.31171224 0.041731775 -0.44386607 -0.040408403
000070 dc c0 7f bd d7 60 1f 3e f0 b3 c5 3e 77 40 06 3e
       -0.062439784 0.15564285 0.38613844 0.13110529

conv2.weight f4 [64, 32, 3, 3]
000000 aa 2e 90 3d aa 4f 24 bc 17 73 3f bd 0a c1 93 3d
       0.070401505 -0.010028759 -0.046740618 0.07214554
000010 66 00 d7 bd c7 03 08 bd d8 ef ff bd fc 1c f7 bd
       -0.10498123 -0.033206727 -0.124969184 -0.12066075
000020 87 12 e5 bb fe 86 2e 3d 26 09 22 bd 10 a3 e2 bd
       -0.006990734 0.042609207 -0.039559506 -0.11066258
000030 d0 d0 eb 3c 1f 46 cb bd f7 15 21 3c ec 38 37 be
       0.028786093 -0.09925484 0.009831897 -0.17892808
000040 10 01 c1 bd 35 34 db 3c 71 f2 c2 3d e1 36 9a 3d
       -0.09424031 0.026758293 0.09518898 0.075299986
000050 3c 4e 04 be 41 c4 95 bd 79 2a 3a be ef 5a b8 bd
       -0.12920469 -0.07312823 -0.18180265 -0.09001719
000060 c3 db 0f be 11 7c 82 be ed 80 39 be b2 6f 21 3d
       -0.14048676 -0.2548528 -0.18115588 0.03941316
000070 d5 75 eb 3c 3c da e0 bd 14 6c 08 3e e5 55 96 bd
       0.02874271 -0.10979125 0.13322479 -0.07340602
000080 63 ae 14 bd da 5d af bd 2a 1c c2 3c e7 2f 89 3c
       -0.03629912 -0.08562823 0.02369507 0.016746474
000090 30 f8 9b 37 62 59 98 3d bd 5f 38 3e 97 87 9a bc
       1.8593011e-05 0.074389234 0.18005271 -0.018863482
0000a0 fd d7 9d 3d f3 01 d4 bc ec 34 34 bd 10 ce d2 bd
       0.07707212 -0.025879836 -0.043995783 -0.102932096
0000b0 ee d5 4f bc 9f b3 9d bd fe 6a 4e bd 16 b1 2d be
       -0.012685282 -0.07700276 -0.050395004 -0.16962084
0000c0 4b 38 a5 3d e8 4a c6 bd c6 fd 63 3d 5e cf 46 bd
       0.08067378 -0.09682256 0.05566194 -0.048537605
0000d0 32 41 f2 bc df 7e 70 bd 4b 8b 31 3e 6a 1b 75 bd
       -0.029572103 -0.058714744 0.17338292 -0.059840597
0000e0 81 39 14 bc c8 e6 34 bd fa b5 2a 3e 95 9e 22 3d
       -0.009046913 -0.044165403 0.16670981 0.039702017
0000f0 82 74 21 bd ab cc d6 3d 32 20 ef 3c 6d c4 e2 bd
       -0.03941775 0.10488256 0.029190157 -0.110726215
000100 fc cf 22 bd 41 79 9c 3d fa b4 c2 bd c5 60 1b 3e
       -0.03974913 0.07640315 -0.09507175 0.15173633
000110 64 4a be 3d 3f 28 34 3d 43 c6 5b 3d ab b0 18 be
       0.09291533 0.043983694 0.053655874 -0.14911143
000120 8b 94 36 3d 96 49 59 bc 64 ca 69 bd a1 17 aa bc
       0.044575255 -0.013262173 -0.05707778 -0.02076322
000130 2a 03 bb bd b5 f5 93 3d 0a 90 df bd fb 46 92 bc
       -0.09131463 0.07224599 -0.10916145 -0.017856112
000140 bd 09 14 3d 76 b5 18 3d 34 36 84 3d e1 8b bc 3b
       0.0361421 0.03728243 0.06455651 0.0057539796
000150 49 57 3b bc 4d 05 b0 bd 2c 2a 37 be b4 0a 22 bd
       -0.011434385 -0.08594761 -0.17887181 -0.03956099
000160 ab 48 1a be 69 6d a1 be 2b ea 29 3e e1 2d 03 3d
       -0.15066783 -0.31528786 0.16593234 0.032026175
000170 2a 84 a9 3d 20 31 ba bd af 43 be 3d 85 4b 7d 3d
       0.082771614 -0.09091401 0.09290253 0.0618396
000180 2e af 89 3c aa c4 20 bd a1 df 5e 3b 33 e7 71 3d
       0.016807165 -0.039250053 0.0034007805 0.05905838
000190 78 67 46 3e 60 4b c7 bd 3e c9 bd bb 93 0e 26 3d
       0.19375408 -0.097311735 -0.005791812 0.040541243
0001a0 f5 5b 71 be cd 4b cb bd 71 55 5e be 95 59 a6 bd
       -0.23570235 -0.09926567 -0.21712281 -0.08122555
0001b0 9e 16 4f 3d 81 26 94 3c 8a 2a e5 bd 76 d2 0f bc
       0.05055868 0.018084766 -0.11189754 -0.008778205
0001c0 03 93 00 be f5 7e 2d 3d 4b 70 e6 bd c9 ec 2c bd
       -0.1255608 0.042357404 -0.11251887 -0.042218003
0001d0 95 3f 85 3d bb 6a be 3c bc 2d c6 ba 0d c7 0b be
       0.06506268 0.023244252 -0.0015119831 -0.1365015
0001e0 2d 81 fb 3d fa 64 e7 bd 33 1f 70 be 4e 4e f3 3b
       0.12280498 -0.112985566 -0.23449402 0.007425106
0001f0 f9 34 49 be fa 6d 38 bd 7f e9 de 3d 59 0d 89 bd
       -0.19649114 -0.045026757 0.108843796 -0.06691999
000200 0c 05 9f bd d7 9b 37 bc d5 50 e6 bd 04 0f de 3d
       -0.077646345 -0.011206589 -0.11245886 0.10842708
000210 5b 62 5d be 4c b5 40 3d 51 44 cb 3d 35 68 95 3b
       -0.21619551 0.0470479 0.0992514 0.0045595416
000220 a3 da 2b bd 70 ac 45 bc 32 55 f8 3c cb ab 32 3d
       -0.041956555 -0.012065038 0.030314062 0.043620866
000230 7a 25 0b be a2 a8 d9 bc 5c 80 31 be 92 2f 94 3d
       -0.13588515 -0.026569668 -0.17334121 0.07235636
000240 6d 83 df bc 32 db 89 3d 9a f5 00 3d f7 14 7d 3e
       -0.027284348 0.06731261 0.031484224 0.24715029
000250 33 be 7b 3d 79 f3 a7 be 23 27 71 3e 53 40 b2 bd
       0.061460685 -0.32802942 0.23550086 -0.08703675
000260 e2 a7 01 be dc d4 e7 3c 26 c4 98 bd 82 8a 50 bd
       -0.12661698 0.028299741 -0.07459287 -0.05091334
000270 1d e4 a2 bd f3 db 3f bd 8e d9 07 3e 38 2a d5 bd
       -0.079536654 -0.04684062 0.13266584 -0.10408443
000280 01 86 8d 3d aa f8 67 3d e8 1a 07 3d 10 43 eb 3c
       0.06910325 0.05663363 0.032984644 0.028718501
000290 02 9f d7 bd cc c7 1a 3d 64 63 f9 3c b6 56 b1 bc
       -0.10528375 0.037788197 0.030442901 -0.021647792
0002a0 ac 8a 6f bd c7 5a 26 be 66 1c 57 3d 37 51 3a 3d
       -0.058481857 -0.16245566 0.052517317 0.04548761
0002b0 72 b5 9b 3d d1 df 8b bd 21 a5 a1 bd dd 9e 4f be
       0.07602967 -0.06829799 -0.07892824 -0.20275445
0002c0 e8 e6 19 be 7e a4 fc bd e8 48 2e be 7c 38 8b bd
       -0.1502949 -0.12336062 -0.17019999 -0.06797883
0002d0 54 fb 96 3d e9 32 0d 3e a9 b4 18 be 31 20 51 bd
       0.07372156 0.13788952 -0.14912666 -0.05105609
0002e0 c0 03 28 be f0 c5 fb bd 79 ff 08 be 84 cb 48 be
       -0.1640768 -0.12293613 -0.13378705 -0.19608885
0002f0 1f 09 04 be 24 6a 19 3d 80 5f 89 3d 85 2a 11 3c
       -0.12894104 0.03745474 0.06707668 0.008860235
000300 fd f8 e6 3b 82 ff 65 bd 47 29 f7 bd c4 c8 d3 bd
       0.0070487247 -0.056151874 -0.1206842 -0.103410274
000310 93 7f 34 be 4d 1c 9a 3d 5b ad 48 3d 1e 6f d7 3c
       -0.1762679 0.07524929 0.04899345 0.026298102
000320 aa 0a bb bc 1b 2b 66 bd 75 69 2f bd 2b 5d 05 be
       -0.022832233 -0.056193452 -0.04282518 -0.13023822
000330 71 64 08 be 70 d9 df bd 84 24 a4 bd a6 aa 96 3d
       -0.13319565 -0.10930145 -0.08014777 0.07356767
000340 ca ac 80 3c 79 df 37 be c0 da be ba 33 c5 08 be
       0.015707392 -0.17956342 -0.0014561042 -0.13356476
000350 bc 25 27 bc 7e 85 3b be 8d 2b 30 be fb e2 0f bd
       -0.010201868 -0.18312642 -0.17204113 -0.035128575
000360 9c 50 24 3c d7 5c 96 3d 2c e8 f4 bd 50 bd 8f 3c
       0.010028984 0.073419265 -0.11958346 0.017546326
000370 cc 3b 8f bd a0 31 99 bd f1 16 91 bd e2 3a a1 bd
       -0.06993827 -0.07480168 -0.07084454 -0.07872559
000380 73 28 8e 3d dc bf 38 3c 91 54 33 bd 1e f5 85 bc
       0.06941309 0.011276212 -0.04378182 -0.016352233
000390 37 32 3d bc 5f 7e 3a 3d 2d 48 0e 3e 04 51 92 bd
       -0.011547617 0.045530673 0.1389472 -0.07144359
0003a0 8b 7c 80 bd eb a4 04 3d f5 ca a3 3d 4c 6f 13 3d
       -0.06273755 0.03238384 0.07997695 0.035994813
0003b0 47 ef 0c be 9d d2 30 3d 63 7e 2d bc 8a e8 56 bc
       -0.13763152 0.043169606 -0.010589215 -0.013116965
0003c0 b0 49 c6 bd 9a ca aa bd c3 4f 8d 3d c6 a2 aa ba
       -0.096820235 -0.083394244 0.06899979 -0.0013018481
0003d0 10 ca 25 3d f2 3e b3 bc 17 a2 35 bd 86 0a fe bd
       0.040475905 -0.0218806 -0.044344034 -0.12404351
0003e0 8a b9 a8 bd a9 6d 0f bd 4a 8e 88 bc c2 0b f5 bd
       -0.08238514 -0.03501669 -0.016669411 -0.11965133
0003f0 1b 05 91 bd 5d 1d 8d bd 95 90 30 bd 08 84 97 bc
       -0.07081052 -0.06890366 -0.043106634 -0.018495575

conv2.bias f4 [64]
000000 0e cf 6b bd 8b 24 9b bd 19 1d 69 bc 92 f0 8e bc
       -0.05757051 -0.075753294 -0.014228129 -0.017448697
000010 32 9d ed 3c ef b0 1b 3d 19 71 b3 3c 56 b5 f0 bc
       0.02900562 0.038010534 0.021904515 -0.029383343
000020 de 12 3e 3d ad c0 3a bd e9 0d 8f bd 8f 14 95 bd
       0.046404712 -0.045593906 -0.06985075 -0.07279312
000030 e6 c0 7e bd 9a a2 f3 3b 0a 2f 06 3c 42 60 ae bd
       -0.06219568 0.007435155 0.008189926 -0.085144535
000040 c1 45 52 bd 58 b4 24 bd 4e 3a f6 bc 8b 7e 32 3d
       -0.051336054 -0.04021105 -0.030057099 0.043577712
000050 65 0f f1 bc 9b 24 86 bd 55 4e 5b bd 9c 25 7a bd
       -0.029426286 -0.06549951 -0.0535415 -0.061071023
000060 94 b4 a7 3c 4b e2 e6 3c f5 b7 91 bd b4 0a c0 bb
       0.020471849 0.028184077 -0.07115165 -0.005860651
000070 8e 13 75 bd 08 fb c7 bc 8e cd 1c 3b 8e 1c 0b bd
       -0.059833102 -0.024411693 0.002392623 -0.03396278
000080 85 e3 f9 3c 0b 37 a4 3c 58 be 8a bd a2 9d 66 bd
       0.030503998 0.020045778 -0.067745864 -0.056302674
000090 3c a3 0f bc dc 46 a0 3c 13 21 73 bd 8c f7 cd bc
       -0.008766945 0.019565038 -0.059357714 -0.025142454
0000a0 32 ac 70 bd 7e e7 16 bd a6 f7 db bd d0 e0 ab bc
       -0.05875797 -0.036841862 -0.107405946 -0.020981222
0000b0 ce 80 23 3d 1a 91 c5 bd f9 cb a2 bd f8 d1 6d bd
       0.03991776 -0.096468166 -0.07949061 -0.05806157
0000c0 82 11 17 bd 91 2a 39 3d c4 34 62 3b 6d e0 47 3d
       -0.03688193 0.04520661 0.0034516314 0.048798013
0000d0 11 6b 9e bd 0c fa 70 3c 4c f7 32 3c 98 e2 c9 bc
       -0.07735265 0.014708053 0.010923218 -0.024644181
0000e0 bd 43 fa bb 86 88 80 bd 63 4f b1 bd 79 a5 72 bd
       -0.0076374696 -0.0627604 -0.0865772 -0.05923984
0000f0 b2 e2 86 bc 82 a0 80 bc 2e ac 06 3d 16 4e 3c bd
       -0.016465519 -0.015701536 0.032879047 -0.045972906

conv3.weight f4 [128, 64, 3, 3]
000000 ba 2a e9 bc 9b fd 36 3d 9e 06 f3 bc df 78 0e bd
       -0.028462756 0.04467545 -0.029666241 -0.03478324
000010 2b 24 87 bb 3e da 81 3c d8 4b 28 bd a7 5c 2f bd
       -0.0041241846 0.015851136 -0.041087955 -0.04281297
000020 60 fb 01 bd a8 9a 87 bb 69 77 8c bb 33 7b 92 3c
       -0.03173387 -0.0041383095 -0.0042866957 0.017881012
000030 e5 e0 30 bd e9 f2 3d bd 9f b5 c2 bc ac 74 b6 bc
       -0.043183226 -0.046374235 -0.023768244 -0.02227243
000040 d2 b7 3d 3b 6d 9f 30 3c 10 f7 10 3d b0 3f 35 bc
       0.0028948677 0.010780198 0.035391867 -0.011062548
000050 1b 64 d4 3c 10 08 10 bc 25 17 a8 3c 96 4c b1 3b
       0.02592664 -0.008790985 0.020518849 0.005410741
000060 fb 61 58 bc 09 a7 a9 bc c9 92 1d bd b0 f5 78 3d
       -0.013206954 -0.020709531 -0.038470063 0.06078118
000070 b7 f6 cc bc 45 5a d9 bb b1 44 1a bc 8a bf f4 bc
       -0.025019987 -0.0066330754 -0.009415791 -0.02987649
000080 06 e9 62 bd 61 51 12 3d 42 28 09 bd 55 4d a5 bc
       -0.05539801 0.03572214 -0.03348566 -0.020178476
000090 8e 08 b0 bb f7 83 d4 bc 00 64 b7 bc d7 35 fb bc
       -0.0053721135 -0.025941832 -0.02238655 -0.030665321
0000a0 32 65 40 bc 63 a5 58 bc 87 87 a7 bc 55 2d 81 bd
       -0.011742877 -0.013223025 -0.020450367 -0.063074745
0000b0 06 60 31 bd d6 48 24 3d 8a b4 03 bd 8b 7c 1d bd
       -0.043304466 0.040108524 -0.032154597 -0.03844885
0000c0 d0 4d 8a bc 28 51 29 bd 0b 90 99 3b 93 44 cc 3c
       -0.016882807 -0.041337162 0.0046863607 0.024935042
0000d0 ab a5 63 ba 86 d9 1e bd 89 62 94 bb 25 7b c3 3b
       -0.0008684049 -0.038781665 -0.004528348 0.0059656077
0000e0 df 84 38 bb 20 4b d8 3b e9 55 eb 3b 2d d1 68 3c
       -0.002815537 0.0066007525 0.007181872 0.014210028
0000f0 98 1a d3 ba 05 95 14 3c 10 18 3f bd 64 38 4f bd
       -0.0016105948 0.009068732 -0.046653807 -0.050590888
000100 ef 71 8f bc 1d e0 bb bb 20 09 8c 3c 0b ee 41 bc
       -0.017510382 -0.0057335035 0.017094195 -0.011836539
000110 49 ec 17 bd fc 99 06 3d b8 12 ad 3b 5d 06 36 bd
       -0.037090573 0.032861695 0.0052817725 -0.044439662
000120 5b 3e 1f bc 8f 2f e2 bc be 55 f1 bc 18 db 25 bd
       -0.009719457 -0.027610568 -0.02945983 -0.040492147
000130 d4 7a 2f bd 57 d7 46 bd 45 f4 45 bc 98 fc 30 bd
       -0.042841747 -0.048545208 -0.012082164 -0.043209642
000140 66 4e c8 bc 63 29 47 bc 29 37 b5 3c 46 fe 36 bd
       -0.024451446 -0.012155863 0.022121029 -0.044676088
000150 33 b5 1d bd bc f9 05 bc 0e 30 e4 bc 08 81 ed 3b
       -0.038502883 -0.008177217 -0.027854946 0.0072480477
000160 a1 71 11 bc dc 08 ea 3b 33 2b c7 bc e8 e4 04 bd
       -0.008877189 0.0071421694 -0.024312591 -0.032444865
000170 49 a5 f3 bc 56 e5 c7 bb 00 19 94 bc 56 ae 77 bb
       -0.0297419 -0.006100337 -0.018078327 -0.0037793121
000180 97 e1 69 bd 56 fd 89 b8 01 fe 32 bd 4e 67 ca 3b
       -0.057099905 -6.5798566e-05 -0.04369927 0.0061768657
000190 ad df 21 bc 37 31 b4 bb 4f 5a 16 bc 28 bc 50 bc
       -0.009879989 -0.005499031 -0.009176805 -0.012740172
0001a0 07 36 99 3a 6e bd 0b bd 06 21 7a bd 55 b2 29 bc
       0.0011689075 -0.0341162 -0.06106665 -0.010357459
0001b0 63 6a 64 3c 0e b1 c8 bb 8a 1f 78 3d ba 1d be 3c
       0.01394138 -0.006124622 0.060576953 0.023207534
0001c0 e1 31 a7 3c e5 64 e0 bc aa bb 87 3c a3 82 4b bc
       0.020409526 -0.02739186 0.016568977 -0.012421283
0001d0 42 99 c5 3c ae 6e 11 bd 18 97 81 3c 18 f9 05 3d
       0.02412093 -0.035505943 0.015819117 0.032708257
0001e0 56 b5 23 3d ae 09 96 bc de 35 d1 bc a7 e0 05 3d
       0.039967857 -0.018315163 -0.025538381 0.03268495
0001f0 16 2e 6b 3b 96 55 5b bb b6 54 b9 3c 09 f7 1f bc
       0.0035885624 -0.0033467761 0.022623401 -0.009763488
000200 46 65 d5 bc 34 42 6c bc 6f be 91 bb e1 47 df bc
       -0.026049268 -0.014420081 -0.0044477503 -0.027255954
000210 8b 17 15 3c 3f f1 5f bc 88 24 84 3c 38 0d c2 bb
       0.009099851 -0.013668357 0.0161307 -0.005921986
000220 63 e8 4c ba 4b d4 2c bc 79 71 0d bc 00 67 34 bd
       -0.0007816611 -0.010548661 -0.008633011 -0.04404354
000230 63 0b e6 3b 35 3a 02 bd 14 d4 a7 3c 80 ac 9f bc
       0.0070204004 -0.03179379 0.020486869 -0.019491434
000240 12 30 76 bb 01 54 e6 bc 95 85 46 bd 5e 49 09 bd
       -0.0037565273 -0.028116228 -0.048467238 -0.033517234
000250 85 fa 95 ba 77 c1 06 bd 00 4a e7 3b 76 25 3b 3c
       -0.0011442458 -0.032899346 0.007058382 0.011422506
000260 fd 16 de bb 8d 6c 04 bd eb 07 c1 bc e5 38 c1 bc
       -0.0067776428 -0.032330085 -0.023563346 -0.0235867
000270 c1 5a de bb eb ff c0 bb ce 0e 57 3c 3b 51 28 bb
       -0.006785721 -0.005889883 0.013126088 -0.0025683183
000280 8b 98 b5 bc 6e 77 8f bc 52 a7 09 3d 75 ce 6c 3a
       -0.022167465 -0.017513003 0.033606835 0.000903345
000290 bd de 9f bc 79 6c fc 3b 7d b5 26 bd 52 ad ac bc
       -0.01951539 0.0077033606 -0.040700424 -0.02107874
0002a0 ed 77 13 bb 8f d9 6d bd 77 b9 48 3c 7d c9 cf bc
       -0.0022501901 -0.05806881 0.0122512495 -0.025364632
0002b0 36 cd 08 bd c8 1f 39 bd 03 d0 6e bc 79 5b b4 bc
       -0.03339883 -0.045196325 -0.014575961 -0.022016274
0002c0 fe 7c e6 3b d2 56 e3 bc bf f1 13 bd 27 03 17 bd
       0.007033943 -0.02775136 -0.03611922 -0.03686824
0002d0 fb c4 33 3c 83 81 26 bd 2c 8a 9f 3b 9d 62 64 bb
       0.010972257 -0.040650856 0.0048687663 -0.0034848817
0002e0 2f f5 00 bc d2 29 a9 bc d4 f1 a4 3c 7e 75 d8 3c
       -0.007870956 -0.020649824 0.020134844 0.026423212
0002f0 ed c1 9f bc 89 ec 36 bd b5 13 1b 3c 9b aa 73 3c
       -0.01950165 -0.04465917 0.009465148 0.0148722185
000300 0f 60 15 bd 24 e8 64 bd 7c ca 8b bc f7 a9 bb bc
       -0.03646856 -0.05588545 -0.017064326 -0.022908194
000310 b4 6b 92 bc 70 4d a0 3c 32 6c 00 bc 02 42 2d bd
       -0.017873622 0.019568175 -0.007838296 -0.042299278
000320 dd 81 bd bc d8 24 37 bb 30 ba c1 bc 3c d4 e1 bc
       -0.023133213 -0.0027945545 -0.023648351 -0.027567022
000330 2d 8d fb 3c 3b b0 9b bc 77 9b c2 3c 37 8e 66 bd
       0.030706966 -0.019004932 0.023755772 -0.05628797
000340 49 45 77 bc 15 98 74 bd 8e 7e 7d bc 2c d3 6a 3a
       -0.015092202 -0.05971535 -0.0154720675 0.00089578587
000350 03 fd 24 bd ae 5f 5e bd b4 26 ed bc ce 1e 13 3c
       -0.040280353 -0.054290466 -0.02894912 0.008979512
000360 7a 2b 9a 3c 4d be bc 3b 62 fe 1b bc 48 f3 83 3c
       0.01881956 0.0057599903 -0.009521099 0.016107216
000370 91 3e b0 3c e2 35 d6 bc 24 4a 03 bd b0 77 f6 bc
       0.021514209 -0.02614874 -0.032053128 -0.030086368
000380 1b 1d 07 bd 45 c7 ea bb 53 2e 4c 3c 90 00 47 bd
       -0.03298674 -0.007164868 0.012462216 -0.04858452
000390 f0 4c 36 bd 70 4c a8 3b a8 25 67 bd 7b de 98 3c
       -0.044506967 0.005136065 -0.056432396 0.018660774
0003a0 54 ff 4e bd 92 70 3e bd 07 46 13 bc 2f 5d ca 3b
       -0.05053647 -0.046494074 -0.008988864 0.006175659
0003b0 8c ed 29 3d 47 9c 92 bc 30 d2 93 bc 63 df 94 3c
       0.041486308 -0.017896784 -0.018044561 0.018172925
0003c0 e6 87 fb 3b 95 b1 4c bd 18 6d b6 bc 31 cc 62 bc
       0.0076761125 -0.049974043 -0.022268817 -0.013842628
0003d0 6d 57 9f 3b b3 35 fe bb f8 4b 39 bd 6a 2c 30 bd
       0.004862717 -0.0077578663 -0.045238465 -0.043011107
0003e0 0c dc 0d bd d2 90 1d bd bf 68 34 bd 96 61 c0 bc
       -0.03463368 -0.03846819 -0.044045206 -0.023484033
0003f0 d9 96 16 bd 0c a5 33 bd db a7 56 b9 bb 9e 90 3c
       -0.036764953 -0.043858573 -0.00020471161 0.017653814

conv3.bias f4 [128]
000000 c6 4e 65 bd e1 34 98 bc 05 65 9c bd c2 ec 08 bd
       -0.055983327 -0.018579902 -0.076364554 -0.033428915
000010 10 b8 47 bd 38 99 9b bd 0a 8c 86 bd f6 a8 6a bd
       -0.04875952 -0.075975835 -0.06569679 -0.05729004
000020 52 9f 28 bd 4a b3 0a bd 44 aa 9c 3c a8 02 a7 bd
       -0.041167565 -0.03386239 0.019124158 -0.081548035
000030 e2 f5 7d bd 40 12 87 3c 3c a7 02 bd 6b c3 52 bd
       -0.06200207 0.016488194 -0.03189777 -0.051455896
000040 c6 78 18 bc 02 b6 7d bd 8d 6c 3d bd 76 52 e9 3a
       -0.009306138 -0.061941154 -0.0462461 0.0017801065
000050 5c 2b e6 3b ca d9 ae bc 7b 00 2d 3c f8 4f 84 bc
       0.007024212 -0.021344084 0.010559197 -0.016151413
000060 74 11 0b 3d 68 3e 7e bc f2 39 4c bc f6 b2 45 bd
       0.03395219 -0.0155178085 -0.012464987 -0.048266374
000070 b3 6a 3a bd f8 99 27 bd f1 b9 21 bd db 61 44 bd
       -0.045511913 -0.04091832 -0.03948397 -0.047944885
000080 34 74 ae bd 43 2b f7 bc 14 01 ab bc 2f 62 e7 bc
       -0.08518258 -0.030171996 -0.020874538 -0.02824506
000090 a8 b6 03 3d b9 1c 56 bc bf a8 b8 ba 11 ad ec bb
       0.032156616 -0.013068371 -0.0014088376 -0.0072227796
0000a0 93 cd 16 bd 96 d5 fb bc 88 05 06 bd 20 77 48 bd
       -0.036817145 -0.030741494 -0.03272012 -0.04894173
0000b0 49 53 22 3c b4 85 21 bd 3f f6 58 bd 92 74 50 bc
       0.009907552 -0.03943415 -0.052969214 -0.012723105
0000c0 d3 e4 72 bd b5 21 a9 3c 74 72 e3 bd 79 78 63 bd
       -0.059300255 0.020645956 -0.111058146 -0.055534814
0000d0 fa 1d 54 bc 9f cd 3f bc 89 d8 d4 bd bf 2a 49 bd
       -0.0129466 -0.011706739 -0.10392863 -0.04911303
0000e0 20 8d cb bd cc 32 97 bc 5a 9f 9c bc 44 d4 9f 3a
       -0.09939027 -0.018456839 -0.019118953 0.0012193997
0000f0 a0 78 2b bc 5c 84 8a bc d4 ec 92 bd a5 06 13 bd
       -0.010465771 -0.016908817 -0.07174078 -0.03589501
000100 d4 31 a1 bd bd 20 de bc 39 48 48 3c 55 eb 8c bb
       -0.07870832 -0.02711522 0.0122242505 -0.0043005147
000110 c1 71 a0 bd 8b 05 7b bc 98 24 20 bd e2 d3 d5 bb
       -0.07834197 -0.015321146 -0.0390974 -0.0065255025
000120 32 8d 7e bb 59 64 95 bd a4 c6 22 bc 6a fd 9a bd
       -0.0038841483 -0.072945304 -0.009935055 -0.07567866
000130 23 c5 2f bc 01 99 78 bd 12 fa 18 3c a0 9d cc bb
       -0.010728153 -0.06069279 0.009336965 -0.0062443763
000140 18 de 02 bd 25 9f a1 bd 93 68 29 3b 89 55 67 3c
       -0.031950086 -0.078916825 0.0025849685 0.014119514
000150 88 6e 99 bd ed 72 28 bd c4 b0 b9 bc f7 21 27 bc
       -0.07491785 -0.041125227 -0.022667296 -0.010200969
000160 96 38 87 bd 28 4e 01 bd 5e 3f 26 3a 10 55 a9 bc
       -0.0660259 -0.031568676 0.000634184 -0.020670444
000170 23 c2 43 3d c0 7b 01 bd 26 fc 15 bd 0d b0 2f 3d
       0.047792565 -0.031612158 -0.03661742 0.042892504
000180 4c 60 da 3c 2c 84 5d bd 28 eb 8d bc ad 09 aa 3c
       0.026657246 -0.054081127 -0.017324045 0.020756567
000190 8c 1b 2b 3d 15 d0 84 bc 6a 1f a4 bd f4 79 fc bc
       0.041774318 -0.016212502 -0.08013804 -0.03081987
0001a0 3b 78 41 bc 0a 5d 43 bd e0 b7 9b bd b1 9e 99 bd
       -0.01180845 -0.04769615 -0.07603431 -0.07500971
0001b0 da f4 1c bd f5 0d 8f bd 02 ad 82 bd 9a 4b 04 3c
       -0.038319446 -0.06985084 -0.06380655 0.008074665
0001c0 bb 67 de bb e1 cd 9e bc 0e 28 89 bb 22 ea cb bc
       -0.006787268 -0.01938528 -0.004185683 -0.024891917
0001d0 6c 2d 6b bd 63 d8 1a 3b 27 94 0c bd 4b 92 76 bd
       -0.057416365 0.0023627512 -0.034320977 -0.06019811
0001e0 cd e9 82 bd b5 64 f3 bc ad bf ee bc 2b ca 3b 3d
       -0.0639225 -0.029711107 -0.029144133 0.0458471
0001f0 64 2e e6 bc a6 0a f6 3c d3 dd 22 3d 70 a7 3d bd
       -0.028098293 0.030034374 0.03976233 -0.04630226

fc1.weight f4 [10, 128]
000000 0c 42 89 bd f8 fe 5d be 1c d3 a0 3d 95 a7 07 be
       -0.067020506 -0.21679294 0.07852766 -0.13247521
000010 e4 49 67 3c 59 94 b7 3d f6 85 fe bc 34 b0 52 be
       0.014116738 0.08963842 -0.031069737 -0.20575029
000020 61 9b c3 ba 27 3d 16 bc b8 7c 19 be 8e 66 2f be
       -0.0014923626 -0.009169853 -0.14988983 -0.17128965
000030 ab e6 c5 bc 3d 42 1f 3d 9b dc 9c bc 4e c3 e1 3d
       -0.024157843 0.03888153 -0.019148162 0.110235795
000040 bb 0b f7 bc 50 ba b3 bd db c2 8a bd 67 19 b2 bc
       -0.03015696 -0.08775771 -0.06775447 -0.021740628
000050 45 4b 2b bd 46 df f2 bc d1 d4 f5 3d 49 97 8d 3d
       -0.04181983 -0.02964748 0.12003482 0.06913621
000060 64 94 c8 3c 86 f2 83 bc 57 e6 57 3d 4d 8e 7a be
       0.02448482 -0.016106855 0.052709904 -0.24468346
000070 75 f8 91 3d d7 95 a3 3c 53 8b 20 bd ab 2b 87 bd
       0.071274675 0.01996891 -0.03919537 -0.06600126
000080 0a 91 58 be d4 58 91 bc 72 aa a7 bd 75 6a 6e 3d
       -0.21149078 -0.017742552 -0.08186807 0.058206994
000090 a7 8c 8c 3d 02 d5 ae 3d 3c 49 cf bd e3 5f 08 3c
       0.06862765 0.08536722 -0.1012139 0.008323642
0000a0 9e 40 86 bd 92 03 da 3c ac 94 98 bd 45 92 75 3d
       -0.065552935 0.02661303 -0.07450232 0.059953947
0000b0 b4 62 7c 3c 1f 9d 97 3d 97 07 a4 bd a9 e9 8e 3d
       0.015404392 0.07403015 -0.0800926 0.06978161
0000c0 87 90 da 3c a5 76 95 3d 0e be 8f bd fd d0 47 be
       0.026680244 0.0729802 -0.07018672 -0.19513316
0000d0 18 71 07 be e9 f5 8f 3d b1 4d 07 be fd aa 46 3d
       -0.13226736 0.070293255 -0.1321323 0.04850291
0000e0 cd 9b ae be 19 c1 57 3d e7 34 83 3c 11 3b 03 3e
       -0.34103242 0.052674387 0.016016437 0.12815501
0000f0 45 21 a3 bd 9c 6d 0c be 73 06 b9 bc d3 92 ac bd
       -0.0796533 -0.13713688 -0.022586083 -0.08426442
000100 88 e1 bf bd 1b 3c ad bc 43 de 0f be 7f 06 36 be
       -0.093691885 -0.021146825 -0.1404963 -0.17775916
000110 dd e9 b7 bd 54 f4 1e be 38 2b 89 bc 4e fe 09 bc
       -0.08980153 -0.15522891 -0.016744241 -0.008422447
000120 d0 90 13 3d b2 16 2a 3d 69 6a 43 bd 9f 4d c5 3d
       0.036026776 0.04152555 -0.047708903 0.09633946
000130 9c 40 f0 bd b2 46 02 3e 89 62 46 bc e7 f1 ac 3d
       -0.11731073 0.1272228 -0.012108454 0.08444577
000140 c2 54 8a 3d 1e f2 1b 3d 64 19 20 be e5 48 f1 bd
       0.067544475 0.038072698 -0.15634686 -0.11781482
000150 ae 7d 1e 3c 7d 08 a4 3c b7 c6 d8 3d 91 90 91 3d
       0.009673519 0.020023579 0.10584777 0.07107652
000160 3b d9 65 bd 88 67 2a be 28 aa 05 3c 58 d1 5e be
       -0.05611537 -0.16641057 0.008158244 -0.21759546
000170 d9 d7 63 be 5e 17 b1 3d d0 31 4b bd 86 6c b8 3d
       -0.22250308 0.08647035 -0.04960805 0.09005074
000180 65 38 8b be 24 12 4d be 09 40 f6 bc da ae b1 3c
       -0.27191463 -0.20026451 -0.030059831 0.021689821
000190 45 18 d7 bd 2a 67 1f 3d 02 55 e8 b9 c2 62 01 3d
       -0.10502676 0.038916744 -0.00044313824 0.031588323
0001a0 5c 2c ec 3c 14 82 6d bc d7 38 f2 bd 27 41 f6 3d
       0.028829746 -0.014496345 -0.118272476 0.120241456
0001b0 8f 7b 04 3e 3d 3d 4a be 62 7e 38 bd e8 e6 4e 3c
       0.12937759 -0.19749923 -0.045042403 0.0126282945
0001c0 c2 fb 9b 3d d4 c5 c4 bd 66 e6 01 3e 83 02 1e 3e
       0.07616378 -0.09608045 0.12685546 0.15430646
0001d0 87 3c ed bd 10 5e 5b 3d 44 94 82 3d 3d 71 91 3c
       -0.1158381 0.053556502 0.06375936 0.017754192
0001e0 79 d0 b8 bb 2a 99 ba 3d bf 89 7d 3d 2c 66 8f bd
       -0.0056400863 0.09111245 0.061898943 -0.070019096
0001f0 e4 c4 13 3e 1b 02 78 3d 55 6c af 3d 3e 8b 3a be
       0.14430577 0.060548883 0.085655846 -0.18217179
000200 38 44 9e bd 63 1f cb 3d 6f d1 f0 ba 8c f6 44 3b
       -0.077278554 0.09918096 -0.0018372963 0.003005418
000210 cb a0 00 3e b5 7b ec bd 49 24 f2 bd e3 c9 27 3d
       0.12561338 -0.11547033 -0.11823327 0.04096402
000220 f4 2a aa bd 75 7a 1e bd ea 08 0b 3e 97 72 fa bd
       -0.08308974 -0.038691003 0.13577619 -0.122288875
000230 fd ee 57 bc 71 8a ae be da 7c 9d bd 30 a5 d7 bd
       -0.013179538 -0.34089997 -0.07689829 -0.10529554
000240 8b 6d f2 bd a1 e2 a8 be 84 af 3f 3c db 92 0d be
       -0.118373 -0.32985404 0.011699561 -0.13825552
000250 99 78 a8 bd 0e e3 d3 bd b6 db 6e be 5d f5 a1 be
       -0.08226127 -0.103460416 -0.23326 -0.3163251
000260 14 7c bc 3d 8f 82 81 3d 7c 43 7b be 65 96 0c 3d
       0.092033535 0.0632373 -0.24537462 0.034323115
000270 d0 70 d8 3c a6 45 e9 bd 8b bb 81 bd 00 b9 60 bd
       0.02642098 -0.113902375 -0.06334599 -0.05486393
000280 fa c2 1e bd 6a c8 28 3b 37 af 8a be 41 b3 d6 bd
       -0.038760163 0.0025754222 -0.27086803 -0.10483409
000290 01 ce 46 bc 40 61 04 be 04 9b 58 bd 06 00 08 3d
       -0.012134076 -0.12927723 -0.05288221 0.033203147
0002a0 a6 91 96 bd 24 60 b1 3d 77 59 43 bd 28 99 b8 bd
       -0.07351999 0.086609155 -0.047692742 -0.09013587
0002b0 16 da 1d bd 28 c4 d1 bd 03 a0 1d be eb ee 95 be
       -0.03853806 -0.10242492 -0.15393071 -0.29283842
0002c0 6d a8 c6 3c ad 15 91 be 1a 80 c9 3b 87 1b 1f be
       0.024250234 -0.2833685 0.006149304 -0.15537845
0002d0 eb da d0 3d 21 e3 70 3c 8e 50 a2 3d 89 2a af bd
       0.10198005 0.014702589 0.07925521 -0.08553035
0002e0 80 03 98 bc 1f d3 ba bd ee 7a b9 3d c7 95 55 be
       -0.018556356 -0.091222994 0.0905665 -0.20857917
0002f0 df 5c 1d be 55 10 0c 3e fd 7b 2d bd ff ac c4 bd
       -0.15367459 0.13678105 -0.042354573 -0.09603309
000300 7a 22 12 3d 91 5e f8 3d 5f 02 c7 3d 12 8e 87 3d
       0.03567741 0.12127412 0.09717249 0.06618895
000310 b4 cc 15 bd 57 65 32 be 7e 3b 70 3d 5a 48 01 bd
       -0.036572173 -0.1742147 0.058650486 -0.03156314
000320 01 82 05 be 05 4c c4 bd ca 36 35 be f2 a8 a4 bc
       -0.13037874 -0.09584812 -0.17696682 -0.02010009
000330 0f e7 cc bc 8d be f2 bd 66 81 c3 bd 6b ed f9 3d
       -0.025012521 -0.11852751 -0.09546165 0.12203487
000340 3a 26 a0 3d 85 5e 10 bd 4a 68 92 be 25 f7 00 bd
       0.07819791 -0.03524639 -0.2859519 -0.031485695
000350 a6 9b bc bd 50 5f 8a be bd 0a f1 bd cd d2 7d bd
       -0.09209375 -0.27025843 -0.11769626 -0.061968613
000360 a2 ab 0e 3e 5d db 16 be 6c f3 be 3d c1 58 ba 3c
       0.1393266 -0.14732118 0.09323773 0.0227474
000370 d2 e5 11 be f2 c6 f1 3c 1b 37 d5 3d e6 4f d5 3d
       -0.14247826 0.02951381 0.10410901 0.1041563
000380 b6 d3 b9 3d df 3c 77 bd 4d bc 9b bd ec 9d 33 3d
       0.09073584 -0.060360786 -0.07604275 0.043851778
000390 ad 02 17 3e 92 bb 02 3e f3 dc 8a bd f3 69 18 bd
       0.14747114 0.12766865 -0.06780424 -0.037210416
0003a0 ae 39 37 be 20 24 f1 bc e1 e3 19 3d bb e2 1d be
       -0.17893097 -0.029436171 0.037570838 -0.15418522
0003b0 87 f2 6c bc 9c 46 6d bc 71 46 fc bc 37 f0 99 bd
       -0.01446212 -0.014482167 -0.030795308 -0.075165205
0003c0 dc 7d 09 3e 2a e4 83 bd 81 62 05 be 2c a8 99 be
       0.13426918 -0.06440003 -0.13025858 -0.30011117
0003d0 6a 57 88 be ef d6 18 be 5a 79 be 3d a2 d1 1d 3e
       -0.26629192 -0.1492574 0.0930049 0.15412
0003e0 32 8a a3 3c 35 c0 1e 3e 80 08 50 be bb 4b 19 3e
       0.019963358 0.15503009 -0.20315742 0.14970295
0003f0 87 07 57 be 1e df 63 bd 20 c2 fc 3d c3 3c a8 bd
       -0.20998965 -0.055632703 0.12341714 -0.082147144

fc1.bias f4 [10]
000000 47 8f 24 bd c9 c9 14 3e a1 ac 9a be cc 61 2f 3d
       -0.040175702 0.145301 -0.3020983 0.042817876
000010 42 d4 40 3e 1f ff 03 3b 81 16 4c be 3e 01 26 3e
       0.1883097 0.0020141078 -0.1993046 0.16211411
000020 33 5a a2 3d 51 d8 05 be
       0.079273604 -0.130708
