models/model.pth (torch, 378536 bytes, 8 tensors)

conv1.weight f4 [32, 1, 3, 3]
00000000: 3b17 b1bd b6bb 6e3e 38d1 85be ffb6 62be
00000010: 1f3b b13e 6a4d 00be 3989 9ebe 5f6c a0bd
00000020: c186 783e df6a a9be 08b8 933d f601 1f3e
00000030: 5c5a 8dbe b662 653e 5fe7 ee3c d6d2 eb3c
00000040: a031 933e ed86 dcbe a6aa ea3d 760a c33d
00000050: 042f 613e 94d9 1f3e 8ba0 7bbe ab56 703e
00000060: 657b 27be bedf b43d 9776 5e3e 797c 613d
00000070: 8b2f 81be 3a61 74be 42d5 0a3e ebb4 5dbe
00000080: 7dea 0ebc 69a6 403e ac3b 913e ac60 513e
00000090: 571f 5c3e 291d ae3e a840 82be ca31 3d3b
000000a0: d37c 963e 5f90 a5be 0152 a13e f89a 30be
000000b0: 5387 f6be 57b6 8dbe 089a 0abe 0cb8 a1bd
000000c0: e49a 003e 5ea0 2f3e a7b3 a7be 1912 a3be
000000d0: cc8b ce3d 4c29 a53e baaa 0ebc 6bdc 6c3e
000000e0: 608b ebbe f34b 01be 0fa7 483d e82a ab3e
000000f0: 5125 72be b427 c33d 25cb bebd d324 863d
00000100: fc8f d93d 262a 22be ad0f 803e 61b3 4ebd
00000110: f583 b53e 4ca2 ebbe 8b3a 933c 0ac9 86be
00000120: a6c9 b53e f0cd 863e bbbf 9f3e fd44 46be
00000130: 1cc4 70be 1617 a4bd 7736 d63d bc5b a4be
00000140: 074f b3be c0e8 03bf e6b5 a2bd adc5 acbd
00000150: 13cf c7bd 518a 7abe 15ff c9bd ce9d 203f
00000160: f4d9 843e 9020 643e 358a 9abd 9377 17bf
00000170: 21d9 bf3d 80b2 eb3e c0c8 efbe cbf9 c3be
00000180: a01b f73e c73f 9dbd 5d81 21bf 1394 903d
00000190: f5e1 253e e0be 52bd e762 62be 9dad 023d
000001a0: eadd 243e 521c 4c3e e533 773c d0c5 8dbc
000001b0: 48e5 30be f8c8 ac3d caa2 63bd 4f39 503d
000001c0: 3599 cebc 1a15 c83e 4403 6abe aa97 0ebf
000001d0: 3a75 c43e f4d1 043f 2d21 bd3d 0202 31bf
000001e0: c753 5bbd bd38 c6be 2043 fbbe 8a20 e9be
000001f0: 4b1b f4be 5c87 273e 1636 f6bd cf6e c5be
00000200: 42e1 22be 8482 0e3c 7ddd b4bc 4484 823e
00000210: 239d 763d 693a 423e efaa adbe 7c3f c0be
00000220: ccb9 e6be 514e 40be 40cc 593e 6d22 503e
00000230: 869e b4be f065 6e3e cb03 583e 2c96 913e
00000240: 70fa 583e 6d52 ddbb 273a edbe 5082 b8be
00000250: dd03 bd3e 0255 bc3d fc4c 833d 95b0 d2bd
00000260: ca37 f9bc 0da3 e73d d94a b9bc c1f8 e9be
00000270: cd5f 3cbe 2b57 26be a2e6 c93e fc7d 4bbe
00000280: 26d8 dc3d 3987 633d e79a 0b3d 990d 503d
00000290: efd7 9e3e 6b7d b13d 12a7 be3e 8dd6 5fbe
000002a0: 8f24 d03d d6bb b6be 86d4 e4be d2dd 85be
000002b0: 40b7 9f3e fc29 da3e 1d59 103e 5844 953e
000002c0: c574 0abe a444 d2be 3633 dfbe cb80 cdbe
000002d0: 66ae a1be 6a1a 9b3e e079 8f3e bd56 293d
000002e0: 58de 05be c24a d9bd 7bb6 82bc 2a83 4f3d
000002f0: b0b1 02bf dff2 82be 9bd4 fdbd f658 db3d
00000300: a16e 25be d88f a0bb cc6c 913e 3d71 413e
00000310: 0180 443e dc16 50bd 6f61 5fbd 2773 523e
00000320: 9269 aa3e 109b 753e ddf4 1c3e 0e4a be3c
00000330: b9fc e7be cdd3 eabe a0bd 4abe 1b4f dbbe
00000340: 24a6 89be 57d0 bdbc be49 adbe 8ba0 edbe
00000350: 72d2 a1be c911 053f 4300 06bf 42f2 5bbe
00000360: a940 873d 1b73 993e 40b8 03bf 909f ad3d
00000370: 53c8 22bf 23e5 d5be 9887 dfbe bab0 c9be
00000380: 9e5e f43e dac2 bb3d bf1a d63d 5496 1abf
00000390: e5b7 75be e165 89be fc6f c4be c5a0 10bf
000003a0: a116 5cbe 9a52 f3bd f14a 88be a031 2a3e
000003b0: 9ef2 813e 735d 09bf 4376 f43d 44b8 923e
000003c0: ac93 cfbe 2cf0 46bd ac64 a83e 085e 7fbe
000003d0: 6172 34bf 1ac2 43be 086f 11bf e199 6bbe
000003e0: d4b1 083f 1313 8dbe 4acc ba3a 188a 253f
000003f0: 13ab 21bf 820d f7bc c37f 153d 9a3a 5ebd
-0.08647009 0.23313794 -0.26136184 -0.2214012 0.34615418 -0.12529531 -0.30964068 -0.0783317
0.24270155 -0.3308935 0.072128356 0.15528092 -0.27608 0.22400936 0.02916306 0.028787058
0.28748798 -0.4307169 0.1145833 0.0952348 0.21990591 0.15610343 -0.24572961 0.23470561
-0.16355665 0.08831738 0.21724926 0.055050347 -0.25231585 -0.23865214 0.13557914 -0.21651046
-0.008722899 0.1881348 0.2836584 0.20447034 0.2149633 0.34006622 -0.25439954 0.0028868788
0.29392108 -0.3233671 0.31507877 -0.17246616 -0.4815012 -0.27678177 -0.13535321 -0.07896432
0.12559086 0.17151019 -0.3275425 -0.31849745 0.10085258 0.3225807 -0.008707697 0.23130958
-0.46004772 -0.12626629 0.048987444 0.33431172 -0.23647048 0.09529057 -0.093160905 0.065499924
0.10623166 -0.15836391 0.2501196 -0.050464038 0.35452238 -0.4602226 0.017972251 -0.26325256
0.35505408 0.26328993 0.31200966 -0.19362254 -0.2351231 -0.08012216 0.10459607 -0.32101238
-0.3502123 -0.51527023 -0.079448506 -0.08436141 -0.09756293 -0.24466826 -0.09863106 0.6274079
0.25947535 0.22278047 -0.07545892 -0.5916683 0.09367586 0.46034622 -0.46832848 -0.38276514
0.48263264 -0.0767818 -0.6308802 0.07059493 0.16199477 -0.051451564 -0.22108041 0.03190385
0.16100278 0.19932678 0.015088056 -0.017306238 -0.17274964 0.08436769 -0.05557517 0.050835904
-0.02521954 0.390786 -0.22852808 -0.5570017 0.38370687 0.51882863 0.092348434 -0.6914369
-0.053546693 -0.38715163 -0.4907465 -0.45532638 -0.47677073 0.16360229 -0.12022035 -0.38561103
-0.15906242 0.00869811 -0.02207827 0.25491536 0.06020845 0.18967594 -0.33919474 -0.37548435
-0.45063627 -0.18779875 0.21269321 0.20325632 -0.35277194 0.23281074 0.21095197 0.28434885
0.21189284 -0.0067542107 -0.4633343 -0.3603692 0.3691701 0.091959015 0.06411168 -0.102875866
-0.03042211 0.11310396 -0.022618698 -0.45697597 -0.1839592 -0.1624419 0.3943377 -0.19872278
0.107834145 0.05554888 0.034083273 0.050794218 0.3102412 0.086665 0.3723684 -0.21859188
0.10163223 -0.35690182 -0.44693393 -0.26145798 0.31194496 0.42610157 0.14096494 0.29153705
-0.13521107 -0.41067994 -0.43593758 -0.40137324 -0.31578368 0.3029359 0.2802267 0.041342486
-0.13073099 -0.10609962 -0.015956154 0.050662197 -0.5105238 -0.2557592 -0.12394067 0.10710327
-0.16155483 -0.00489996 0.28403318 0.18890853 0.19189455 -0.05080305 -0.05453628 0.2055174
0.3328367 0.23984933 0.15327783 0.023228671 -0.4531 -0.45864716 -0.19798899 -0.4283379
-0.26884568 -0.023170633 -0.33845323 -0.46411547 -0.3160587 0.51980263 -0.5234415 -0.21479133
0.0660413 0.2997063 -0.5145302 0.084777 -0.6358692 -0.4177638 -0.43658137 -0.39392644
0.47728437 0.09168024 0.1045432 -0.6038563 -0.23995931 -0.2683554 -0.38366687 -0.56495315
-0.21493007 -0.118809894 -0.26619676 0.16620493 0.25380415 -0.5365822 0.11936619 0.2865621
-0.40542352 -0.04856889 0.32889307 -0.24938214 -0.7048703 -0.19117013 -0.56810045 -0.23007919
0.53396344 -0.27553615 0.0014251557 0.6466384 -0.63151664 -0.030157808 0.036498796 -0.054255106

conv1.bias f4 [32]
00000000: d904 ccbd 1f86 89bd 9679 f4be b75d 08be
00000010: 571d bfbd 380d 4abe 1722 73be 489a fabd
00000020: 6754 d6bd 153a 04bd f9e4 5a3d 6094 f0be
00000030: 563d 01be 8c58 a5bc 9049 9dbe 7bca 4abe
00000040: 973c 95be 3c78 64bd b856 63be ffb0 2dbe
00000050: 6ad2 a0bd 5ca0 01bf e0e1 353d d9fe a03c
00000060: df24 90bd e978 533e 2793 32be 783f 8cbe
00000070: 5def 73be 5937 133e d603 a8bd f869 2cbe
-0.09961862 -0.06715035 -0.47749013 -0.13317 -0.09331768 -0.19731605 -0.23743473 -0.12236458
-0.10465317 -0.032281954 0.05344102 -0.469882 -0.12621054 -0.020183824 -0.30720186 -0.19803803
-0.2914779 -0.055778727 -0.2220105 -0.1696205 -0.07852633 -0.50635314 0.044404864 0.01965277
-0.070382826 0.20651592 -0.17438947 -0.27392173 -0.23821779 0.14376582 -0.08203857 -0.16837299

conv2.weight f4 [64, 32, 3, 3]
00000000: ea2b cb3c 1485 87bd e231 db3d 76a3 b7bd
00000010: f7ba 0dbd d630 dcbd 23d9 9a3d ebb2 7e3d
00000020: 64a7 ccbd b1fa fcbd 585e 2bbe eaba 913d
00000030: 3d18 653d bc45 df3c 9163 1e3e a4d5 d03c
00000040: 527a bc3c 1563 6dbd cc4d fd3b 12cc 42bd
00000050: 5c11 f23d 48fe 5b3d 1708 0a3d 7159 8ebd
00000060: c2fa cc3d 6a56 b33d 18a4 0cbe 2e85 9a3d
00000070: e3af 2a3d dffd 203d 53b5 b43d 735e babd
00000080: f24b e6bb 4033 403c 195f 83bc 8e31 41bd
00000090: 9247 9abd 74ea 54be 0414 9ebd 1235 c8be
000000a0: 9e90 2fbe 27b3 7a3d dd49 c1bd ef1c ae3d
000000b0: 1167 9e3d 5036 f33d 0642 2b3b ba0c 893b
000000c0: c112 d03b e20f 33bd eb0f 413b 769b 1d3d
000000d0: 2faa 0c3c cb3d 9bbd 7893 8c3d 7cf7 0abe
000000e0: 4b7b b2bb 1449 24bd 4af0 a8bd 0d87 e0bd
000000f0: 3853 a93d 494a acbc f6de 4cbd 0150 7a3e
00000100: 2f29 953d bf42 c6bd 9b54 a5be de80 20be
00000110: 578c dabd 5a33 8ebd 3f66 f3bd 7b30 aa3c
00000120: e4d8 5a3e 3fbe 9c3d 57a6 90bd 9c17 95bd
00000130: c00c 27be eee0 353e 450c 14be ca0e 903b
00000140: 24d9 5c3d a254 ac3d cc19 e63d 7d70 d4bb
00000150: c96d 263e decb d13c f9d4 a8bd b568 b63d
00000160: 1c94 263d 02c8 bcbd f883 f9bd 345c 02be
00000170: ff78 6bbe 6254 14be 472e d0be 57e1 97be
00000180: 9aab 41be 8387 7ebe 791a 963c 1185 88bd
00000190: 3fb1 ca3c 3f70 c338 816b aabd b698 3cbb
000001a0: d5dd 953d 92f6 cc3c ddbe 3dbc 5538 88bd
000001b0: b95c c5bd 15e5 1abe f0c3 0a3e dd83 debd
000001c0: 19bb 01be 486c cebd 1cc7 9c3d 4561 eb3d
000001d0: f546 b6be 8683 a5bd d3aa 65bd ad5f 703d
000001e0: 4540 f5bd 9012 373d 3117 3fbe 8d29 48bd
000001f0: 1a5a 3cbc 0457 613e 5f9b 21be d196 e23c
00000200: 4e0b b1bd 189f 173d 4eb1 faba 9a01 453d
00000210: 3bfb e73b 27f2 d93d fe86 d7bc d4eb e13d
00000220: 0ca7 6a3c c6b8 49bb aa15 233d 4a7d 20bd
00000230: 935c 80bd cbfe ae3c 1f83 113c c719 d7bd
00000240: 63b1 593d 2961 67bd 2c89 babd 1576 01be
00000250: 961e e3bd ef10 92bd 6384 35bd fb13 3ebd
00000260: 1248 28be 1622 febc 81e5 2fbe ac3e b33d
00000270: d483 dcbc e538 4dbd 8901 073d 0c96 703d
00000280: fff8 813d ddb2 a13c efb4 aa3d e51e 8f3b
00000290: 71c9 893d aeca 0fbe 548f 24bd 758b 743e
000002a0: e1e6 ab3d 9ebc 013e f243 493e 4ca5 6c3e
000002b0: 47c0 b43d b658 763b 10dc 33be 431b 5dbe
000002c0: 3d41 b63d e717 0cbd cae7 34bd 3f0c e73c
000002d0: 5ff9 c23d 1e6d 5dbc 2630 8a3c 2c83 cfbd
000002e0: f103 1fbe fe29 253e 4719 d5bd a317 4a3b
000002f0: 65ce b73d 5502 b1bd f0b6 53bc a45a 9e3c
00000300: ea9a 573d 5178 f1bb ad1c d13d 5ea7 9d3c
00000310: d18b 893d c3a2 8bbd 9b63 603e 6484 ab3d
00000320: 8992 83bd 520b abbd 8770 3ebe cb14 83bd
00000330: ac75 02be 7cbe 59be bd5e afbd 64ba bc3c
00000340: 2185 79bd 56df eebd b540 38bc 2598 25bd
00000350: 35cd 06bf ed65 b5bd 05be 9dbe 88b4 cabe
00000360: 4c73 babd 0574 f03c 1957 c43d 8fcf c9bd
00000370: c48d 1e3e 400e fabd ce7e 3b3d ed8a cf3d
00000380: 5ebe 623c 10d1 113c 24a2 9c3c e0fb 97bd
00000390: 853d eebd e824 01bc 49c2 a2be 7c9c aabd
000003a0: 7d1c f5bd 5ab6 08bd 1fd5 e7bd 3a1d 85bd
000003b0: 91a2 3c3e e4bf 21bd a6f8 02be 3751 cdbd
000003c0: 1fd0 cabc 74e0 a73c 1684 14be 48b9 cbbd
000003d0: 4b44 cebd d2e5 8d3d 9c6b 43bc d556 c63d
000003e0: 14e1 473e 14f9 e53d 15e0 3d3e 1047 42bc
000003f0: cab6 f8bd 9d73 97bb 1c43 86bd 8878 d33d
0.024801213 -0.066171795 0.10702874 -0.089667246 -0.03460213 -0.10751502 0.07560947 0.06218235
-0.09992865 -0.12352503 -0.16735208 0.07115729 0.05593132 0.027254932 0.15467669 0.025492497
0.023007546 -0.05795582 0.0077302214 -0.047557898 0.11819717 0.0537093 0.03369912 -0.06950653
0.10008766 0.087567165 -0.13734472 0.07544933 0.041671645 0.03930461 0.08823647 -0.09100046
-0.0070280964 0.011730969 -0.016036557 -0.0471664 -0.07533182 -0.20792562 -0.077186614 -0.3910299
-0.17145011 0.06120601 -0.094379164 0.085016124 0.07734502 0.11875594 0.0026131882 0.0041824253
0.006349892 -0.04371632 0.002945895 0.038478337 0.008585497 -0.075801454 0.06864065 -0.1357097
-0.0054468266 -0.040108755 -0.082489565 -0.10963259 0.08267826 -0.021031516 -0.05001732 0.24444582
0.07283246 -0.096806996 -0.3229111 -0.15674159 -0.10671299 -0.06943388 -0.11884736 0.02077507
0.213718 0.07653474 -0.07062977 -0.07279894 -0.16313457 0.17761585 -0.14457805 0.0043962942
0.05391802 0.0841458 0.11235389 -0.006483136 0.16252817 0.025609907 -0.08243746 0.0890669
0.04066859 -0.09217836 -0.12183374 -0.12730485 -0.22995375 -0.14485314 -0.40660307 -0.29664108
-0.18913117 -0.24856381 0.01832317 -0.066660054 0.02474272 9.319232e-05 -0.08321286 -0.0028777546
0.07317702 0.025019918 -0.01158115 -0.066513695 -0.09636826 -0.1512645 0.13551307 -0.10864995
-0.12669028 -0.10079247 0.076551646 0.11493162 -0.3560101 -0.08081727 -0.056071114 0.058684994
-0.11975149 0.044695437 -0.1866119 -0.04886775 -0.011496091 0.2200585 -0.15781926 0.027659805
-0.08644734 0.037016958 -0.0019126327 0.04809723 0.0070795096 0.1064189 -0.026309486 0.11031309
0.014322054 -0.00307803 0.039815582 -0.039181985 -0.06267657 0.02136173 0.008881359 -0.105029635
0.053147685 -0.056489144 -0.09108195 -0.12642701 -0.11089818 -0.07132136 -0.044315707 -0.046405774
-0.16433743 -0.031022113 -0.17177393 0.08752188 -0.02691833 -0.050103087 0.03296045 0.058736846
0.0634632 0.019738609 0.083352916 0.0043676966 0.06727875 -0.1404216 -0.04017575 0.23881324
0.08393646 0.12669608 0.19654825 0.23109931 0.088257365 0.0037589497 -0.17564416 -0.21592431
0.08899162 -0.034202483 -0.044166364 0.028204082 0.0952022 -0.013514785 0.016868662 -0.10132441
-0.15528847 0.161293 -0.10405212 0.0030836842 0.089749135 -0.08643023 -0.012922034 0.01933033
0.052637972 -0.007369079 0.102105476 0.019244846 0.06716121 -0.06818154 0.21912996 0.08374861
-0.06424434 -0.083517686 -0.18597613 -0.0640045 -0.12740201 -0.2126407 -0.08562992 0.023038097
-0.060917977 -0.11663692 -0.011245896 -0.0404283 -0.5265687 -0.088573314 -0.30809036 -0.3959086
-0.091040224 0.029352197 0.09586925 -0.09854042 0.15483767 -0.12209749 0.045775227 0.1013392
0.013839332 0.008899942 0.019120283 -0.07421088 -0.11632828 -0.007882334 -0.31788853 -0.08330628
-0.11968324 -0.03337703 -0.113199465 -0.06499715 0.18421389 -0.03948964 -0.12790164 -0.10025256
-0.024757443 0.02049277 -0.14503512 -0.09947449 -0.100716196 0.069286 -0.011927512 0.09684531
0.19519454 0.112291485 0.18542512 -0.011857763 -0.12144239 -0.0046219365 -0.06555769 0.10325724

conv2.bias f4 [64]
00000000: cfcd 17bd b1c3 043c b10d 47bd d6fe a9bd
00000010: 792f 1fbd ad80 9c3d 1b51 dbbd db7f 8abd
00000020: b63f ecbb 5bac 343c a8e8 f4bd 4306 313d
00000030: 1243 0ebd ae18 51bd a2be 7bbd e59e 31bd
00000040: d44d 96bd 60fc 023d 795c 00bd 2e50 3e3d
00000050: 4671 a2b8 a9d8 cabd 3634 ea3a b500 4ebc
00000060: a92f e3bd 93f9 6dbb c6a6 b3bd 5c2b 53bd
00000070: d646 8ebd 0bfc 183d eab7 18bd 9d1b 0abd
00000080: 8826 abbd a151 39bd 90ef 2bbd 2d1c e3bc
00000090: d983 d9bb 4cf3 303d 4e11 0cbd ded5 d83c
000000a0: 72ab d6bc 3112 9cbc dbe2 8cbc 4373 ad3a
000000b0: f4c1 f2bc 5035 fdbb 609e 363c 9205 bebd
000000c0: 7540 0dbd 6256 17bc 9c02 b7bd d14d b9bc
000000d0: 4ec2 f4bc 44ed 67bd 8903 83bc f91e debc
000000e0: 1c88 16bb 5ee9 b1bd da46 3cbc 2bbe 80bc
000000f0: 0a2a bb3b deed 7cbd eda3 003d 8f18 a73b
-0.03706151 0.008103297 -0.04859704 -0.08300559 -0.038863633 0.076417305 -0.10708829 -0.06762668
-0.0072097434 0.011027421 -0.11958438 0.043218862 -0.034731932 -0.051048927 -0.0614611 -0.043364424
-0.07339063 0.031978965 -0.03133819 0.046463184 -7.745861e-05 -0.09904606 0.0017868343 -0.012573411
-0.11093075 -0.0036312088 -0.08772044 -0.051555023 -0.06947105 0.037349742 -0.03728477 -0.03371774
-0.08356959 -0.045243863 -0.04197651 -0.027723396 -0.006638032 0.043200776 -0.03419619 0.026469167
-0.026204798 -0.019051643 -0.017198017 0.0013233203 -0.0296335 -0.0077273026 0.011146158 -0.09278406
-0.0344853 -0.009236904 -0.089360446 -0.022620114 -0.029877808 -0.05662276 -0.015992897 -0.027114378
-0.002296931 -0.086870894 -0.011491502 -0.01571568 0.0057117986 -0.061750285 0.03140633 0.005099363

conv3.weight f4 [128, 64, 3, 3]
00000000: c369 473d 0558 44be e7cd 293d d42a 1fbc
00000010: 3e5a a2bd cf32 02bc 0d2d 8e3e ef5d a7bd
00000020: 30ef 0bbe 1e75 19bc cccd 7d3d fc17 69bc
00000030: faf2 92bc 07d6 84bd 3af4 87bd b448 20be
00000040: 9228 29bd 62d2 c5bd b129 263d 23a7 1f3d
00000050: f533 b0bd 43fe c03c 65db dcbd f3a4 d5bc
00000060: 136a 8fbc 3da3 713c ac67 7ebd 766c 4d3d
00000070: de06 8c3d 8dbd 3a3e e8c8 cd3d ff3d 843e
00000080: fa18 123d 27fa bb3d f3dc bdbd 535f 65bd
00000090: e354 de3c 16e5 0b3d 329e eabc 2f4e ec3b
000000a0: 4505 5e3c b6ad df3c 047d 24bd d569 32ba
000000b0: c522 23bd 454d d5bd b3b4 6fbe 76ba e2bd
000000c0: 7d0f 9fbe 78db 88be c98b 72be a03d 76be
000000d0: 437d 37be 8f28 70be dbdf 35be 263a 34bd
000000e0: 2ee9 ff3c a7b1 f4bc a30b 40be 3424 0b3d
000000f0: 0ebc 443c e04f 9ebc a2b3 883c 01b3 e13c
00000100: 8cd1 22bc c450 9f3c bb98 303d a779 ba3c
00000110: a2b3 083d fd13 a43c 4489 1fbd 37b4 35bd
00000120: 62b6 96bc 6b3c b2bc a921 d93b cc28 1c3e
00000130: 460f 933c ec98 453c 6936 51bc e987 d0bd
00000140: d426 a33d b265 0e3e 0e42 643c 7a56 bebc
00000150: a36a 5abc c6ca 823b 556a bb3c a7b2 40bd
00000160: ce8a 2f3d 9961 603d de2b d23c a13a f6bc
00000170: 5ccd 07bd 5e9f 3c3e ee60 2a3d 643c 4eba
00000180: 85eb 2d3e a12c 303d 7947 4d3d 2f47 3e3d
00000190: b8c0 21bd acee 673d 6ab9 f83c 58c8 eb3d
000001a0: 7758 14be 0375 2d3e d08b 4bbd 7b34 60bd
000001b0: 46d1 a93d cb71 4f3d c0c3 5ebc b9ce 1dbe
000001c0: c646 cebc cf41 c2bd c0aa dd3d 6b54 d43c
000001d0: a5e8 05bd 14b3 cf3c 8627 bebc 6034 e2ba
000001e0: 6a60 d3bc 0c43 0d3c 5388 c4bb 3a58 9c3c
000001f0: 5a35 383c 0c4b 00bd caed b8bd 0c32 5e39
00000200: 4606 2cbe c503 1f3d e0e0 ba3d d25e 92bd
00000210: 31e6 3c3c c67b 8a3d ec63 d9bb c78f 1d3e
00000220: 2a13 56be 0690 66bd e059 873d 219d 98bd
00000230: 977f 2dbe 7e6c 5c3e 5e70 67be 1ff0 27be
00000240: 94aa 77bd eb7c 213d 6a59 0a3d 77ad 443e
00000250: 9b4a 54bd 1046 a63d 0d49 803c 23bb 5c3d
00000260: 9868 163c afb3 e93c 4a52 b3bc fc75 5dbc
00000270: 5937 d23c 6a0a 3c3d 65a2 e9bd 4bbb 293e
00000280: fd14 2fbd f2b3 efbd 3b94 6abc be5f 293c
00000290: 5ce7 99bd 46f4 9b3d 7973 9b3c bd9e 9dbc
000002a0: 3b09 d83c ee0a 51ba 7ea1 d83a c79e 5dbd
000002b0: c130 ed3a 6bcc 083e 8f65 78bd a283 90ba
000002c0: b937 88bc afb0 16bd 18a7 dfbd 3cb9 d3bc
000002d0: 6bec 07bb a8fb e73c 452c 7dbc 5490 e43c
000002e0: 879a c0bb 205b 2a3d 9731 0c3c e3cc ccbc
000002f0: 97e6 c4bc f347 843d 4804 08be 5127 38be
00000300: f715 b43d 248f 69be 0edf c2bc b1b9 2dbd
00000310: f787 15be 4c5b 973c 644f 063e 5fdc 023d
00000320: 3d42 b63d 93cc 14bc 555a 7f3d efab c23d
00000330: a2b8 23bd 7649 07be e16d 253e ae2a f3bc
00000340: 1315 133e a041 b1bd 40d3 69bd cb3b c83d
00000350: eb1f 21be 3952 6b3d 1681 bd3d c9f2 bf3c
00000360: 236a 863d 832c 553d d6c7 c0bd 4a59 b13d
00000370: 2c4a 52bd 2ba3 53bd 0aca b4bc d4a9 1d3d
00000380: 837c b13c e276 313e a2dc 16bc 4517 11bd
00000390: 3f92 bc3c c635 7fbd 645e 1fbe 7d39 7ebb
000003a0: 3ea6 a9bd 0cf5 7cbd a877 9c3d c847 943d
000003b0: 5095 09bd 54de b93d 3315 16be e114 5f3c
000003c0: 3e35 803c 4aec cdbd 2ee5 2ebe 4b2d c7bd
000003d0: a9a3 75bd 231c 1a3c 9f68 3fbe eba0 66be
000003e0: f1e3 5cbe 1187 e5bd 4d37 94bd 09fa b63c
000003f0: cffd c73c 1b40 2e3d 10ee 9c3c 1708 1d3d
0.048684847 -0.19174202 0.04145613 -0.009714801 -0.079273686 -0.007946684 0.27768746 -0.08172213
-0.13665462 -0.009366302 0.06196384 -0.01422691 -0.017938126 -0.06486135 -0.066383794 -0.15652734
-0.041298456 -0.09659268 0.040567104 0.038977753 -0.0860366 0.023558741 -0.10784034 -0.02607963
-0.017506635 0.014748392 -0.062110588 0.050152265 0.06837247 0.1823637 0.100480855 0.2582855
0.03566835 0.09178572 -0.09270658 -0.05599911 0.027140087 0.03415402 -0.028639887 0.0072114686
0.013551061 0.027304512 -0.040158287 -0.00068059313 -0.03982808 -0.104151286 -0.23408775 -0.11070721
-0.31066504 -0.2672994 -0.23686136 -0.24046946 -0.17918877 -0.23452972 -0.17761175 -0.044000767
0.031239118 -0.029869867 -0.18754439 0.033970073 0.012007726 -0.019325197 0.016687218 0.027551176
-0.009937655 0.019447692 0.043114405 0.022763086 0.033374436 0.020029062 -0.038949266 -0.04436132
-0.018397514 -0.021757325 0.006626327 0.15249938 0.017951619 0.012060385 -0.01276932 -0.10182173
0.0796639 0.13905981 0.013931764 -0.023234595 -0.013331088 0.0039914576 0.022877852 -0.047045376
0.042856984 0.054780576 0.025655683 -0.030057253 -0.03315483 0.18420169 0.041596346 -0.0007867275
0.16984375 0.04301131 0.05011699 0.046454605 -0.03949043 0.0566241 0.03036185 0.11512822
-0.14486872 0.16939168 -0.049693882 -0.05473755 0.08291869 0.05064563 -0.013596475 -0.1541089
-0.025180232 -0.09485208 0.108235836 0.02591916 -0.03269257 0.025353946 -0.023212206 -0.0017258041
-0.02580281 0.008621942 -0.0059976964 0.019085038 0.011243189 -0.03132157 -0.0902973 0.00021190214
-0.16799268 0.038821954 0.09124923 -0.07146992 0.011529491 0.06761889 -0.006634226 0.15386878
-0.20905748 -0.056289695 0.06608939 -0.07451845 -0.16943203 0.21525761 -0.22601458 -0.16400193
-0.06046541 0.03942577 0.03377668 0.19206797 -0.05182896 0.08118832 0.015659833 0.053889405
0.0091802105 0.028528063 -0.021889824 -0.013516899 0.025661157 0.04590837 -0.114079274 0.16575353
-0.042744625 -0.11704244 -0.014317567 0.010337768 -0.075148314 0.07614951 0.01897596 -0.019240731
0.026371589 -0.0007974346 0.0016527621 -0.0541065 0.0018096195 0.1335923 -0.06064373 -0.0011025558
-0.016628133 -0.036789592 -0.109205425 -0.025845163 -0.0020740281 0.028318241 -0.015452449 0.027900852
-0.005877796 0.04159081 0.008556745 -0.025000041 -0.024035735 0.06459036 -0.13282883 -0.17983748
0.08793252 -0.2280851 -0.023788001 -0.042413417 -0.14602648 0.01847615 0.13116223 0.031948444
0.08899353 -0.009081977 0.062342007 0.0950545 -0.039971 -0.13211617 0.16155197 -0.029683437
0.14363508 -0.08655095 -0.05708623 0.097770296 -0.15734832 0.05745146 0.09253137 0.023431199
0.06563213 0.052044403 -0.09413116 0.08659609 -0.051340267 -0.05166928 -0.022068996 0.03849204
0.021665817 0.17330506 -0.009207876 -0.035422582 0.023018954 -0.06230714 -0.15563351 -0.003879159
-0.08283661 -0.061757132 0.0764001 0.07240254 -0.03358966 0.09075609 -0.14656524 0.013615818
0.015650388 -0.10054834 -0.17079613 -0.09725436 -0.05997053 0.009406122 -0.18692254 -0.22522323
-0.21571328 -0.112074025 -0.0723711 0.022336023 0.024413018 0.042541604 0.019156486 0.038337793

conv3.bias f4 [128]
00000000: 97e6 1bbd 406d 823c b62f 92bd 3bc3 dcbd
00000010: f696 2bbd 6a41 f5bc 90fd 4bbd ceb0 a6bd
00000020: 42b1 45bd 9677 8bbd b5a0 debd 7439 abbd
00000030: 52dd 1ebd f25d 47bd d93e b1bd 7391 133c
00000040: ef75 52bc 4eb5 89bd 161b e33b c7b2 40bd
00000050: 2fea f7bb bf2b 32bd 183d 83bd 78b3 a6bc
00000060: ef38 bdbc f674 8fbd 48a3 fcbc 0b4b 21be
00000070: e601 79bd cfc6 823c 27cf a53c e31b 09bd
00000080: 7ffd 0dbd 17b6 e3bd 348c 053b 7f76 04bb
00000090: 8e78 033d 3656 80bd 5afc 83bd 8767 b4bc
000000a0: 60e7 65bd 5131 8fbb b449 88bd 4930 c4bc
000000b0: c549 8ebc c7a8 a0bd 9910 b3bd 207c c6bc
000000c0: faf9 0c3c c669 adbc e535 c0bd 294b ddba
000000d0: 973f 97bd c069 20bd d2df 143c 299c ca3c
000000e0: c4ed bdbd dfb0 2ebd 41b3 bcbd 1fe2 0dbd
000000f0: 6a2a 07ba c99a bdbd 6687 5ebd b5b7 a8bc
00000100: 26af 19bd 5392 e3bd 6c38 7cbc b4d7 2d3c
00000110: f4f8 ffba ac09 34bd d929 9a3b 5132 cabc
00000120: 4c12 f7bc 1143 1cbd b929 82bd 18fe 1b3c
00000130: 23ba 50bd 231e dc3b ae91 d4bd 7c75 a9bd
00000140: 98c1 b6bc 436c cabd 84ed f7bc 8b43 babd
00000150: 7f25 92bb 881e 86bd ba32 a7bc 7090 acbb
00000160: 478d c03c 1c59 f7bd 0ec1 953b e755 00bd
00000170: 549a 92bd 4862 aebd 4c44 a0bc b35c 973c
00000180: ed24 fcbc 869a e8bc 9b7b 18bd 9edb 1bbc
00000190: e00f 1abd 4dc5 7bbd 7425 05ba 7ef3 95bd
000001a0: 9726 80bc 66d6 dabc 255a a1bd 577d 9bbd
000001b0: 60ac 0fbc 6949 99bc cc90 8c3b c60d 73bc
000001c0: 4968 03bd 6a0d a4bd 0496 abbc f57a 7bbd
000001d0: a299 89bc 378e f13b 3db9 74bc 1781 fdbb
000001e0: 5a25 74bd ea0c 7b3c 8183 adbc f32d bcbd
000001f0: 6fdb 04bd 93ee b2bc ba7f 623d 2f2b 28bd
-0.038061704 0.015921235 -0.071380064 -0.10779425 -0.041892014 -0.029938418 -0.049802363 -0.081391916
-0.04826475 -0.068099186 -0.10870496 -0.08360568 -0.038785286 -0.048673578 -0.08654565 0.009006846
-0.0128455 -0.06724034 0.006930719 -0.047045495 -0.0075657587 -0.04349875 -0.06408137 -0.02034925
-0.023098437 -0.070047304 -0.030839577 -0.15751283 -0.060792826 0.01596394 0.02024038 -0.03347386
-0.03466558 -0.11118715 0.0020377757 -0.002021223 0.03209739 -0.062664434 -0.064446166 -0.022022022
-0.05612886 -0.0043698926 -0.06654683 -0.023948805 -0.01736916 -0.07844692 -0.087434 -0.02422911
0.008604521 -0.0211686 -0.093852796 -0.0016883361 -0.07385176 -0.03916335 0.009086566 0.024732666
-0.09273866 -0.042649146 -0.092138775 -0.034639474 -0.00051561615 -0.092580386 -0.054328345 -0.02059541
-0.03752055 -0.111118935 -0.015394311 0.01061051 -0.001952915 -0.043954536 0.0047046957 -0.024682196
-0.030160092 -0.038149897 -0.06355614 0.00952103 -0.050958764 0.0067174598 -0.10379349 -0.082743615
-0.02230911 -0.098839305 -0.030264623 -0.09094914 -0.0044600363 -0.06548792 -0.02040993 -0.0052662417
0.023504866 -0.12077543 0.004570133 -0.031331923 -0.07158342 -0.085148394 -0.019563816 0.01847682
-0.030779326 -0.028393995 -0.037227254 -0.00951281 -0.037612796 -0.061467458 -0.00050791283 -0.07321833
-0.015643401 -0.026713561 -0.07878522 -0.07592266 -0.008769125 -0.018711763 0.004289722 -0.014834827
-0.032081876 -0.08010371 -0.020945556 -0.061396558 -0.01679689 0.0073716897 -0.014936742 -0.007736336
-0.059605934 0.015322903 -0.02118087 -0.091884516 -0.03243583 -0.021842277 0.05529759 -0.041056808

fc1.weight f4 [10, 128]
00000000: c25a e2bd e412 71be 94f9 433d 0eef a6be
00000010: b0f5 a8bd cd17 16bd c342 62bd cecf a4be
00000020: c1d8 c7be 756b 9f3d 040f 093e 3f72 3ebd
00000030: 2766 43bd 5851 bbbe 239d 583d 0bdc 29ba
00000040: 841f 0cbd b0c6 8dbe 77fd 6b3b 13d9 68bd
00000050: a2f3 be3c 61d7 8fbd a5f6 77be 87d1 52bd
00000060: 4b8d 59be 7c87 cb3c 5aa3 81be 24f0 62bd
00000070: 1bf2 e2bc a1d5 acbd a5bb dd3d 90c1 6d3d
00000080: 28e4 e03d 04e8 f8bd 8dd0 16ba e406 eebc
00000090: 6289 c63c c194 65be cb10 133d 97c0 b6bd
000000a0: 005f a5bd 735f 563d 83ca 47be a2ff a33c
000000b0: da01 8ebe af69 01be 8cff 90be 7c50 143e
000000c0: 196e 78bc 3ab3 5fbd 05b1 c23d 708f 0e3d
000000d0: 26a7 753d b0cb 8ebe 4877 23be e942 92be
000000e0: ef73 ab3d b309 083e 7272 be3c aee1 2a3d
000000f0: b214 4e3e e5c1 8f3d e449 08bc a664 263e
00000100: 6be3 db3b be02 f13d 981b a63c ba11 a73d
00000110: d854 04be 1230 af3d 45d3 f8bd 4b5a 063e
00000120: f2e4 b93c 1081 5abe 92d4 d5bd abab 293d
00000130: 34f0 d13b 8457 cebd 7b34 9dbc 7a08 3cbe
00000140: 135a b8be 9748 b3bd b58e a8be bfd6 893c
00000150: 94ea 9c3d 5ad8 3fbe 8a55 173e d5bf 273e
00000160: a9c8 ed3d 7761 51be 358a 8dbd d35a 71bd
00000170: 561c 9d3d f224 853d d747 ea3d dabb 02be
00000180: d86b 8d3d 0755 0dbb 0190 9bbb 0b3c fdbb
00000190: 7ed5 353d b493 efbc 9eda bd3d 15be 71be
000001a0: d2d4 9bbe 78fd b43d a6cc 89bd 3b02 b4bd
000001b0: 659d 0e3d 4830 8b3c e125 88bd 96a3 9b3c
000001c0: 38ba 4cbd 1e9e 9abe d1a6 47bc 4b26 c6bd
000001d0: a875 fcbd 61fd 363d 5e40 b7bd 842e 31be
000001e0: 4c94 88bd 748d eebd 5e50 fd3d e520 373d
000001f0: c0ed 5fbe f2f1 da3d 74df 08be c7d6 8bbe
00000200: 992f 8fbe f8ab debc b631 fc3d fbc7 b0bb
00000210: ede2 113d 2a6e 003e 924b 81bd 6e0f 3abc
00000220: 60bd 02bd cf17 eebd b69a a0be 9a82 e8bc
00000230: fd24 c73b 80a2 0cbe cedc b0bd fc77 4f3e
00000240: 7b16 02bd bf30 6fbd 3849 e53d 2064 a7bc
00000250: 63f0 7ebe f29d 7cbe fb91 6dbd edfa 68bc
00000260: d7b8 1b3e 3ef5 41be e0cd c4bd ae57 96bd
00000270: fc4f e2bc 0e09 a6bc cee6 133e 9804 c6be
00000280: 2ae6 b1be dda0 40be ecaf cdbd 4d76 4b3b
00000290: 16af 863d 0395 bebe 2032 86bd d6d5 cdbe
000002a0: 4aac f23d 191f 3cbd 8e43 83be 47e1 243d
000002b0: c88a 5dbd 2d26 90bd 203d fabd 0b2d 5dbe
000002c0: cf60 0c3c 0927 c3bc 6560 39be cf73 93be
000002d0: 1372 23bd a78d 14be 6dc9 d13d 8d38 983d
000002e0: a1ce 96be 91fe 07be 25d2 1c3d bbfb 493d
000002f0: 2ebf 4bbd 814d 2bbe 3e3d b53d ea3f c9bc
00000300: a998 063e c9d2 83be b0f0 09bd 49f0 bfbe
00000310: 7e35 dc3d 3c9a 823e 05b8 813e 1c71 083e
00000320: 4566 873c 3dca a8bd ee40 b1bd cb8c b9bc
00000330: 8617 b33d 0408 d0bc 4c65 9fbc 6c47 04be
00000340: 6d43 8abe fcac 35be d1e6 b0bd 6365 bb3d
00000350: 2945 f93d 65ac ca3d 238a 64be f31b bfbe
00000360: e3ae b6be 9bff f63c f1cb dcbc 8caf d9be
00000370: c1da 2abe 811f e03d 7ba6 703d d4f7 163e
00000380: 962e c1be 5e68 f4bd c6e9 38bc 2f2b 09bd
00000390: 78c2 8abd c4ff 6e3d 2044 4e3d b463 dd3d
000003a0: dd29 9c3d e2f1 233c 61c9 003e 0627 07be
000003b0: 09ba 8cbb 93b2 70bd 3910 5f3d ebb6 663d
000003c0: e0b5 89be 0b8d 1b3d 258c f23d d0a2 3ebe
000003d0: e53b 94be f154 83bd 5c21 93bd 0dbf 6fbe
000003e0: e178 0d3e f94e 003e feea c43d bea4 a6bd
000003f0: 1d39 61be 21db 183e 8dfc 023e 4549 983c
-0.11052467 -0.23542362 0.047845438 -0.3260426 -0.08249986 -0.036643792 -0.05523945 -0.32189792
-0.39032558 0.07784168 0.13384634 -0.046495672 -0.047704842 -0.36585498 0.052884232 -0.00064796273
-0.034209743 -0.2769065 0.003600923 -0.056847643 0.023309533 -0.07023502 -0.24215181 -0.051469352
-0.21245305 0.024844877 -0.2531994 -0.055404797 -0.027703336 -0.08439184 0.10826806 0.058045924
0.10981017 -0.121536285 -0.00057531224 -0.02905602 0.024235431 -0.22420026 0.035904687 -0.08923452
-0.080747604 0.05233712 -0.19510846 0.020019356 -0.27735788 -0.12637971 -0.28319967 0.14483827
-0.015162968 -0.054614283 0.0950642 0.03480476 0.05997386 -0.27889776 -0.15963471 -0.28566673
0.08371722 0.1328495 0.023247931 0.04171913 0.20125082 0.07019404 -0.008318398 0.16249332
0.00671046 0.11768101 0.02027683 0.08157678 -0.1292299 0.085540906 -0.121496715 0.13120382
0.022692177 -0.21338296 -0.10440935 0.04142348 0.0064068083 -0.10075286 -0.019190064 -0.18362609
-0.3600622 -0.0875408 -0.32921377 0.016826032 0.0766193 -0.18734875 0.14778724 0.16381772
0.116105385 -0.20447336 -0.069111265 -0.058924507 0.0767142 0.065011874 0.114394836 -0.12766972
0.06905335 -0.0021565573 -0.004747391 -0.007728105 0.044393055 -0.029245235 0.092702135 -0.23607667
-0.30435807 0.08837408 -0.06728487 -0.08789488 0.034818072 0.016990796 -0.0664785 0.018998902
-0.04998228 -0.3019876 -0.012185768 -0.096752726 -0.12327129 0.044675235 -0.08947824 -0.173029
-0.066689104 -0.11648074 0.123688444 0.044709105 -0.21868038 0.10690679 -0.1336649 -0.273123
-0.27966002 -0.02718161 0.12314169 -0.0053949333 0.035616804 0.12542024 -0.06313242 -0.011356218
-0.031918883 -0.11625635 -0.31368035 -0.028382588 0.0060774074 -0.13733864 -0.08635865 0.20260614
-0.03175972 -0.058396097 0.11195606 -0.020433486 -0.24896388 -0.24669626 -0.058000546 -0.014219982
0.1520723 -0.18941209 -0.0960958 -0.07340942 -0.02762603 -0.02026799 0.14443514 -0.3867538
-0.34745914 -0.18811364 -0.1004332 0.0031045855 0.06576364 -0.37223062 -0.06552529 -0.40202206
0.11849268 -0.045928095 -0.25637478 0.040253904 -0.05408743 -0.070385315 -0.1221869 -0.21599214
0.008568003 -0.023822324 -0.18103178 -0.28799292 -0.03990371 -0.14507161 0.10243497 0.07432661
-0.2945452 -0.13280703 0.038286347 0.049312335 -0.04974287 -0.16728784 0.08849572 -0.02456661
0.13144173 -0.25746754 -0.033676803 -0.3748801 0.1075239 0.25508296 0.25335708 0.13324398
0.016528258 -0.08241699 -0.086549625 -0.022650143 0.08744721 -0.025394447 -0.019457482 -0.1291787
-0.27004567 -0.1774177 -0.08637775 0.09150197 0.121713944 0.09896163 -0.2231832 -0.3732601
-0.35680303 0.030151179 -0.026952716 -0.42516744 -0.1668501 0.10943509 0.05875252 0.14742976
-0.37730855 -0.11933969 -0.011286205 -0.03348845 -0.06775373 0.058349386 0.050357938 0.108100325
0.07625172 0.0100064 0.1257682 -0.1319848 -0.004294638 -0.05876405 0.05445883 0.056326788
-0.26896572 0.037976306 0.11843137 -0.18616796 -0.28951946 -0.06412686 -0.07184097 -0.23412724
0.13815643 0.12530126 0.09615134 -0.08136891 -0.21994443 0.14927341 0.12791653 0.018589625

fc1.bias f4 [10]
00000000: c7fc 643e 9f17 853e 11f2 8ebe 8579 293e
00000010: 71d6 7f3d f4c3 05bd fbbd 9b3c 06fb be3d
00000020: 05fa 8dbd 6799 84be
0.22362052 0.25994584 -0.27919057 0.16550262 0.062460367 -0.03265758 0.019011488 0.09325223
-0.06932453 -0.25898287
