models/model.pth (torch, 378536 bytes, 8 tensors)

conv1.weight f4 [32, 1, 3, 3]
-0.3792765 -0.47301933 -0.5691862 -0.47537535 0.09194049 -0.3752148 -0.11468817 -0.5293888
-0.20630881 -0.3749472 -0.43668154 -0.08489108 0.42292947 -0.13764536 -0.54124576 0.29668576
0.025960041 -0.36072293 0.18146251 0.12673189 -0.4733087 -0.1412946 -0.52632725 -0.41314945
-0.436229 -0.2334372 0.24254018 -0.2445696 -0.42804015 -0.4092499 -0.10129538 -0.08353043
0.28613463 0.34175137 0.19379696 0.47457382 -0.3090784 -0.13011862 -0.5163354 0.36623183
-0.0859522 -0.056881238 -0.23366663 0.48966977 0.044817314 -0.22966185 -0.09518776 0.12671822
0.09469695 -0.085277684 0.14203928 0.023741256 -0.03276109 0.06791999 -0.21575786 0.050954927
-0.055184647 0.060548764 0.18089975 -0.23731393 -0.48926866 0.18168749 0.31491768 -0.07820627
0.3822515 0.3371508 0.20591278 0.14187196 -0.06759487 -0.3321839 -0.37677273 -0.69176674
-0.19369686 -0.33970928 -0.15089001 0.14899972 -0.24308667 -0.13943297 0.50777626 0.21129858
0.27815112 0.5002671 -0.20994517 -0.4276653 0.4384708 -0.11690604 -0.46608275 0.43263957
-0.04701403 -0.24800892 -0.048640937 -0.12373411 0.20464873 -0.4551723 0.3051209 -0.36720318
0.32127914 0.35970867 -0.37311822 0.036442533 -0.09072825 0.1462311 0.0493483 -0.48264945
0.1560139 -0.16033836 0.009262134 0.22111319 -0.0015491708 0.27925092 0.0027319745 -0.27807108
-0.11638908 0.21526186 -0.4304675 0.07310291 0.32948586 0.30473375 0.21274793 -0.41567352
0.0899232 -0.44642895 -0.47129545 -0.54030097 -0.45532963 0.206682 -0.49709204 0.19443087
-0.07309949 0.100492306 0.19909893 -0.2920112 0.1305244 -0.007642176 -0.10777705 -0.22057325
-0.1937734 0.37939265 -0.24566646 0.19564584 0.2063233 -0.5207081 0.16740035 0.32534757
-0.095302135 0.065115094 0.1085187 0.17537533 0.0014620009 -0.35440686 -0.1854987 0.015152122
0.25451496 0.21335857 0.235266 0.12709357 0.20627454 0.09986104 -0.013542931 -0.045813806
-0.54460466 -0.27852514 -0.03039123 0.15717416 -0.2834702 -0.11182136 0.1351507 0.14141323
-0.028280696 -0.0511996 -0.016511286 0.10256827 -0.08579529 0.13170634 0.23347856 -0.049063805
-0.036660884 -0.17310564 -0.15842946 -0.10810747 0.34863174 -0.3806781 -0.42175552 -0.4228623
-0.5971278 0.30364844 -0.35252792 0.108722016 0.32874563 0.28876394 0.2449553 0.16160537
-0.36814567 -0.10945966 -0.058882117 -0.09338545 -0.13085769 -0.11752756 -0.25393683 -0.3330935
-0.1872225 0.12069797 0.028306445 -0.268051 0.33243245 0.14953479 0.07595542 0.19377758
0.09820164 -0.5576685 0.109860584 0.006347744 -0.2796038 0.22677448 0.35997334 0.12604532
-0.08786786 -0.30103406 -0.045969993 -0.099803306 0.10650011 0.3789041 -0.20387468 0.038437303
0.014891303 0.069243886 0.24930237 0.20819187 0.089944124 0.23147571 -0.29256067 0.24525435
0.06689863 -0.060703143 -0.3990411 -0.4227508 -0.011430722 0.075495355 0.032893606 0.10961967
-0.069961935 0.50764453 0.14716828 -0.26889881 0.050159056 0.18311128 0.07975778 0.15732259
-0.13524188 0.13339113 -0.073279984 -0.05644387 -0.4212639 -0.38478148 -0.38265893 -0.19577958
00000000: 8830 c2be 972f f2be 30b6 11bf 6664 f3be
00000010: 4c4b bc3d 271c c0be a2e1 eabd 0686 07bf
00000020: 9e42 53be 14f9 bfbe b994 dfbe 60db adbd
00000030: 368a d83e e8f2 0cbe 158f 0abf 32e7 973e
00000040: 27aa d43c adb0 b8be 4fd1 393e 01c6 013e
00000050: 8555 f2be 88af 10be 62bd 06bf 5388 d3be
00000060: 6859 dfbe 290a 6fbe 745c 783e 7470 7abe
00000070: 1428 dbbe 3489 d1be f473 cfbd 0112 abbd
00000080: 3d80 923e 09fa ae3e b672 463e 57fb f23e
00000090: 863f 9ebe d13d 05be 8f2e 04bf bd82 bb3e
000000a0: b507 b0bd 4dfc 68bd 4e46 6fbe ffb5 fa3e
000000b0: 5c92 373d 7a2c 6bbe cdf1 c2bd 6cc2 013e
000000c0: 79f0 c13d 11a6 aebd bf72 113e 067d c23c
000000d0: 7e30 06bd a319 8b3d a1ef 5cbe 1db6 503d
000000e0: 4c09 62bd fb01 783d c93d 393e 6c02 73be
000000f0: 6c81 fabe 490c 3a3e e43c a13e 9c2a a0bd
00000100: 78b6 c33e 089f ac3e cdda 523e e246 113e
00000110: 2e6f 8abd 0214 aabe 5be8 c0be a017 31bf
00000120: 7858 46be 60ee adbe e982 1abe 6293 183e
00000130: b6eb 78be 84c7 0ebe a0fd 013f a85e 583e
00000140: d369 8e3e 8111 003f defb 56be f2f6 dabe
00000150: 3f7f e03e 6f6c efbd 66a2 eebe ef82 dd3e
00000160: c991 40bd 0df6 7dbe b83b 47bd 4f68 fdbd
00000170: 708f 513e 580c e9be ce38 9c3e 0e02 bcbe
00000180: b37e a43e bc2b b83e 5a09 bfbe c444 153d
00000190: bccf b9bd 9bbd 153e 7121 4a3d d41d f7be
000001a0: 1cc2 1f3e bd2f 24be 35c0 173c 7f6b 623e
000001b0: 8c0d cbba faf9 8e3e ed0a 333b 555f 8ebe
000001c0: 665d eebd 9b6d 5c3e 3c66 dcbe fab6 953d
000001d0: 5fb2 a83e 1006 9c3e 98da 593e 29d3 d4be
000001e0: a829 b83d 5692 e4be a34d f1be 2a51 0abf
000001f0: f720 e9be 72a4 533e d982 febe e318 473e
00000200: 2fb5 95bd e9ce cd3d 97e0 4b3e 7e82 95be
00000210: 30a8 053e 386b fabb 37ba dcbd f4dd 61be
00000220: 896c 46be c13f c23e fd8f 7bbe 6257 483e
00000230: 6a46 533e 204d 05bf ff6a 2b3e f593 a63e
00000240: c42d c3bd 105b 853d 0d3f de3d 9795 333e
00000250: 9ca0 bf3a d174 b5be 5ff3 3dbe 9b40 783c
00000260: c94f 823e ab7a 5a3e 92e9 703e d124 023e
00000270: a239 533e f283 cc3d 2be3 5dbc 42a7 3bbd
00000280: 366b 0bbf d99a 8ebe 07f7 f8bc 43f2 203e
00000290: 0223 91be 9902 e5bd f264 0a3e a1ce 103e
000002a0: ebac e7bc acb6 51bd ad42 87bc 500f d23d
000002b0: 71b5 afbd 07de 063e 0115 6f3e 21f7 48bd
000002c0: b929 16bd 9b42 31be 553b 22be 7367 ddbd
000002d0: dc7f b23e 3de8 c2be 57f0 d7be 6881 d8be
000002e0: 5edd 18bf cf77 9b3e 8a7e b4be a6a9 de3d
000002f0: 5951 a83e ded8 933e 90d5 7a3e e17b 253e
00000300: 977d bcbe 632c e0bd 602e 71bd df40 bfbd
00000310: 8fff 05be 4ab2 f0bd 0204 82be 3b8b aabe
00000320: 41b7 3fbe 7f30 f73d ebe2 e73c fb3d 89be
00000330: 9634 aa3e a61f 193e 848e 9b3d a16d 463e
00000340: f11d c93d 5dc3 0ebf 96fe e03d bc00 d03b
00000350: 3b28 8fbe 9237 683e 6d4e b83e 0612 013e
00000360: 11f4 b3bd 2321 9abe 084b 3cbd ad65 ccbd
00000370: bb1c da3d b8ff c13e 86c4 50be 6f70 1d3d
00000380: a7fa 733c bdcf 8d3d 1f49 7f3e 4030 553e
00000390: a034 b83d f807 6d3e 83ca 95be f523 7b3e
000003a0: 2602 893d dca3 78bd 1d4f ccbe cb72 d8be
000003b0: ec47 3bbc 4f9d 9a3d 72bb 063d 4780 e03d
000003c0: 3448 8fbd fef4 013f 48b3 163e 1bad 89be
000003d0: 9573 4d3d 8681 3b3e 0c58 a33d 2c19 213e
000003e0: d97c 0abe af97 083e d113 96bd b031 67bd
000003f0: e7af d7be 1402 c5be dfeb c3be 717a 48be

conv1.bias f4 [32]
0.09822044 0.04076725 0.21360402 -0.07532207 -0.16332464 -0.1992302 -0.11801144 -0.18997839
-0.026667545 -0.08320811 -0.3112239 -0.12460909 -0.04244786 0.15048279 -0.0717976 -0.37655193
-0.21471441 -0.13283917 -0.2805765 -0.4567193 -0.077146135 -0.09373444 -0.15105945 -0.40330637
-0.10374583 -0.5592379 -0.07892411 -0.25863364 0.2421089 -0.23278463 -0.20434277 -0.13089477
00000000: cc27 c93d 8ffb 263d 03bb 5a3e 7542 9abd
00000010: 933e 27be 0003 4cbe fbaf f1bd b289 42be
00000020: e575 dabc 0369 aabd bd58 9fbe 0d33 ffbd
00000030: cfdd 2dbd 2918 1a3e 9f0a 93bd 6acb c0be
00000040: 18de 5bbe fe06 08be b9a7 8fbe 1dd7 e9be
00000050: cbfe 9dbd d8f7 bfbd 54af 1abe 2c7e cebe
00000060: b278 d4bd 372a 0fbf f7a2 a1bd a16b 84be
00000070: 65eb 773e 185f 6ebe 3b3f 51be 4709 06be

conv2.weight f4 [64, 32, 3, 3]
-0.02007599 -0.36892125 -0.38696653 -0.20781888 -0.19407481 -0.09112911 -0.13936536 -0.08580389
-0.04612758 -0.06739544 -0.04979531 -0.19624357 -0.19642368 -0.013032668 -0.022838343 0.07591089
0.05193003 0.12447839 0.017928267 -0.15579644 -0.1077449 -0.13661501 0.008829292 -0.09073603
0.03755687 -0.09114984 -0.038484115 0.1036745 -0.14502604 -0.0839487 0.0013698649 -0.23071893
-0.14268897 -0.14598338 -0.062379222 -0.18396273 -0.06910678 -0.047044557 -0.0032706803 -0.0991709
0.105713524 0.11323203 -0.056254975 0.015254591 0.105836704 0.059546016 0.048384894 -0.035390656
-0.008237573 -0.110079214 -0.008253169 -0.038168672 -0.1061006 -0.21930669 0.008436784 -0.026650326
-0.02746383 0.002539863 0.09587644 -0.11717131 -0.064652465 -0.008445575 -0.18343219 -0.066123165
0.11660975 0.2542643 -0.014117313 -0.05320309 0.04331539 0.02934627 0.019356174 0.050429128
0.035496365 -0.16293354 -0.11100847 -0.10432376 -0.08521258 0.05586015 -0.028899511 0.024356132
-0.038607143 -0.1016104 -0.069802195 -0.0902163 0.024383083 0.1613368 -0.02922934 0.20167902
0.092018716 0.054956377 -0.06311471 0.13241236 0.066475056 0.0958436 -0.028410465 0.07846047
0.041502483 0.075857855 -0.02779784 0.03442184 -0.01646072 0.04034486 0.07944452 -0.094506525
0.035628874 0.07834268 -0.031579725 -0.18232551 -0.05376884 -0.021483691 0.16378185 -0.022840492
-0.07442655 0.022374265 0.060673673 0.0558269 -0.26336423 -0.067609504 -0.18175197 -0.014516624
-0.042935494 0.027283082 -0.07530738 0.01340185 -0.07335979 0.009361316 -0.09546721 -0.03330139
-0.027981907 0.005791091 0.15128168 -0.15847501 0.046566162 0.04749015 0.062718816 -0.011680488
-0.07310255 0.02570487 0.0060104975 -0.13041258 -0.030953297 -0.015770767 -0.022658205 -0.17711246
0.07834597 -0.14950517 0.031744007 -0.02171236 0.0737167 0.03627142 -0.006855697 -0.068072006
-0.041297887 -0.10969794 0.05852397 0.15230031 0.07337342 0.0996339 -0.05827938 -0.015870433
-0.04973949 -0.03245634 -0.021903563 0.043502595 0.056337714 0.07314671 0.014676357 -0.08673674
-0.011914275 0.013972343 -0.03330697 0.0016712865 0.014814831 0.028388489 0.09038315 -0.0032042775
0.0144947935 -0.0036361753 -0.08413432 -0.11700152 -0.030472314 0.049702328 0.063884385 -0.06697015
0.032427654 -0.018650685 -0.010318246 -0.015980888 -0.1455085 -0.1638108 -0.08703373 0.22265826
0.107435316 0.022106078 0.01687016 0.0023338522 0.06090757 0.11178894 -0.014082332 -0.10436124
-0.037436012 -0.04814412 0.0047831796 -0.0031574098 0.06982343 0.049241137 0.084534906 -0.10518545
-0.13386554 -0.09980337 -0.022983737 0.03522709 -0.17177497 0.06356143 0.06761844 -0.051892407
-0.031741243 -0.05244725 -0.009690991 0.10196149 -0.097000286 -0.027129274 -0.021709148 -0.017971424
-0.24235733 0.031500533 0.08712336 0.06194113 0.08352517 0.0024959005 -0.12852156 0.023471497
-0.103318915 -0.22952619 0.03123333 -0.04299997 -0.09102014 -0.010456985 -0.13974491 -0.15430528
-0.09158679 -0.19613384 -0.17906183 -0.016258346 -0.014721445 -0.027929202 -0.009659291 3.538614e-05
-0.024258697 -0.027300086 -0.04315641 0.0012845617 -0.107001185 -0.19320887 -0.24858434 -0.29482457
00000000: 6776 a4bc 3fe3 bcbe 7a20 c6be 79ce 54be
00000010: 8cbb 46be e6a1 babd cbb5 0ebe f3b9 afbd
00000020: 46f0 3cbd 9f06 8abd 2bf6 4bbd 13f4 48be
00000030: 4a23 49be f986 55bc 7a17 bbbc 2b77 9b3d
00000040: 95b4 543d 87ee fe3d 4dde 923c 1a89 1fbe
00000050: 5ca9 dcbd cee4 0bbe bca8 103c d0d3 b9bd
00000060: 3cd5 193d c4ac babd 85a1 1dbd 4c53 d43d
00000070: b581 14be 4ced abbd 0a8d b33a 9541 6cbe
00000080: 0f1d 12be ab7c 15be 5b81 7fbd ba60 3cbe
00000090: db87 8dbd cbb1 40bd e958 56bb 1d1a cbbd
000000a0: 5580 d83d 32e6 e73d 9e6b 66bd 64ee 793c
000000b0: eac0 d83d 86e6 733d 3d2f 463d cbf5 10bd
000000c0: e3f6 06bc 3671 e1bd 4d38 07bc c156 1cbd
000000d0: 454b d9bd ef91 60be 703a 0a3c c951 dabc
000000e0: d3fb e0bc d573 263b de5a c43d 83f7 efbd
000000f0: 8368 84bd 4f5f 0abc a6d5 3bbe 956b 87bd
00000100: 18d1 ee3d ee2e 823e 4d4c 67bc 7ceb 59bd
00000110: 7a6b 313d 9767 f03c d790 9e3c c68e 4e3d
00000120: a364 113d 0dd8 26be 6958 e3bd b2a7 d5bd
00000130: ef83 aebd 9dcd 643d abbe ecbc 8386 c73c
00000140: 8622 1ebd 1d19 d0bd 74f4 8ebd 53c3 b8bd
00000150: 08bf c73c 7935 253e 5e72 efbc f284 4e3e
00000160: 4f74 bc3d f019 613d 4942 81bd 1b97 073e
00000170: 1324 883d a649 c43d 10bd e8bc e2af a03d
00000180: 82fe 293d 5d5b 9b3d 4cb8 e3bc eafd 0c3d
00000190: a2d8 86bc a740 253d cfb3 a23d a38c c1bd
000001a0: 95ef 113d 2172 a03d be59 01bd 8ab3 3abe
000001b0: b73c 5cbd 91fe afbc 6eb6 273e fc1b bbbc
000001c0: f26c 98bd 3c4a b73c f584 783d bfaa 643d
000001d0: add7 86be da76 8abd 301d 3abe 22d7 6dbc
000001e0: 21dd 2fbd c580 df3c c13a 9abd 6f93 5b3c
000001f0: a83d 96bd 3560 193c 5084 c3bd 0a67 08bd
00000200: 503a e5bc 31c3 bd3b 96e9 1a3e 4647 22be
00000210: 29bc 3e3d 0885 423d b972 803d 845f 3fbc
00000220: cab6 95bd 0593 d23c b5f3 c43b e08a 05be
00000230: c591 fdbc b231 81bc b39d b9bc f85c 35be
00000240: da73 a03d e217 19be 0106 023d 1fde b1bc
00000250: c8f8 963d 5791 143d c1a5 e0bb 5669 8bbd
00000260: f927 29bd 50a9 e0bd d5b6 6f3d 9df4 1b3e
00000270: ce44 963d dc0c cc3d 5cb6 6ebd b602 82bc
00000280: a3bb 4bbd f0f0 04bd 1a6f b3bc c72f 323d
00000290: 60c2 663d f1cd 953d 1a75 703c 08a3 b1bd
000002a0: 1734 43bc 41ec 643c e46c 08bd 120f db3a
000002b0: e8b9 723c fa8e e83c cd1a b93d dbfe 51bb
000002c0: 927b 6d3c e64c 6ebb 9d4e acbd 7e9e efbd
000002d0: 13a1 f9bc ab94 4b3d d1d5 823d a527 89bd
000002e0: dcd2 043d 52c9 98bc dc0d 29bc 5aea 82bc
000002f0: 2e00 15be 05be 27be bd3e b2bd 8700 643e
00000300: 0c07 dc3d ce17 b53c 4a33 8a3c 8bf3 183b
00000310: 377a 793d 9af1 e43d 95b9 66bc 59bb d5bd
00000320: 8156 19bd c532 45bd 38bc 9c3b 8cec 4ebb
00000330: 96ff 8e3d 13b1 493d a320 ad3d 786b d7bd
00000340: 0c14 09be b665 ccbd 6448 bcbc 484a 103d
00000350: c7e5 2fbe 7f2c 823d 897b 8a3d 228d 54bd
00000360: 1b03 02bd edd2 56bd f6c6 1ebc 30d1 d03d
00000370: 16a8 c6bd 363e debc 62d7 b1bc cf38 93bc
00000380: 852c 78be b406 013d bb6d b23d fbb5 7d3d
00000390: 3f0f ab3d 4392 233b 289b 03be 4c47 c03c
000003a0: de98 d3bd ea08 6bbe 0add ff3c bd20 30bd
000003b0: c468 babd c653 2bbc 4a19 0fbe 3402 1ebe
000003c0: db91 bbbd 4fd7 48be fc5b 37be 3930 85bc
000003d0: 3732 71bc c8cb e4bc 0142 1ebc 946b 1438
000003e0: 2dba c6bc 6ea4 dfbc c7c4 30bd bd5e a83a
000003f0: 7023 dbbd 8cd8 45be e58c 7ebe 3ff3 96be

conv2.bias f4 [64]
-0.06717522 -0.06950902 -0.014956134 -0.024462035 -0.0068465006 -0.043175235 0.046711616 -0.033136673
-0.08082638 -0.010392988 -0.06594367 -0.08253198 0.049441572 0.0053809024 -0.13148303 -0.00013401703
-0.054492164 -0.13187456 0.015954811 0.116215095 0.05026351 -0.054646093 -0.02661228 -0.057141192
-0.006481062 -0.07279658 -0.06561416 -0.0035886155 -0.036793638 -0.09094182 -0.08138003 -0.058446538
-0.06023063 -0.15761314 -0.027704436 -0.056670133 -0.07876995 -0.12172944 -0.03801931 -0.08995562
-0.039508887 -0.027611319 -0.11348204 -0.0059541077 -0.12881579 0.0045192046 0.02153167 0.019967932
-0.02690898 -0.011525131 -0.057738103 -0.079518564 0.07967568 -0.085919015 0.0076418254 -0.055812012
-0.05858948 -0.010110919 -0.08014078 0.018011102 -0.07641409 -0.09830002 0.025072968 -0.039881434
00000000: 2993 89bd bf5a 8ebd 930a 75bc 9b64 c8bc
00000010: 9c58 e0bb 84d8 30bd ae54 3f3d 52ba 07bd
00000020: 4d88 a5bd 5a47 2abc 7a0d 87bd 8706 a9bd
00000030: 3f83 4a3d 4852 b03b 7da3 06be ec86 0cb9
00000040: 2d33 5fbd 200a 07be aab3 823c 2e02 ee3d
00000050: 1ce1 4d3d 95d4 5fbd ff01 dabc e20c 6abd
00000060: 175f d4bb 6016 95bd b760 86bd fa2e 6bbb
00000070: edb4 16bd b43f babd 93aa a6bd a365 6fbd
00000080: 65b4 76bd 5765 21be 6af4 e2bc f11e 68bd
00000090: 2452 a1bd 494d f9bd 23ba 1bbd a73a b8bd
000000a0: 12d4 21bd 2231 e2bc 4669 e8bd ad1a c3bb
000000b0: 49e8 03be d615 943b 2f63 b03c ca93 a33c
000000c0: 3970 dcbc e7d3 3cbc ca7e 6cbd a1da a2bd
000000d0: 012d a33d 4ff6 afbd 4768 fa3b 239b 64bd
000000e0: 86fb 6fbd 45a8 25bc d920 a4bd 058c 933c
000000f0: fe7e 9cbd 8551 c9bd d365 cd3c b75a 23bd

conv3.weight f4 [128, 64, 3, 3]
0.14172496 0.032592393 -0.08457176 0.058393814 -0.13713232 0.045307297 -0.082958 0.016281148
0.068569556 0.019666223 -0.00064907916 -0.030350804 -0.04518704 -0.047176447 0.010338237 0.012008417
-0.012674437 0.052428413 0.06295878 0.22399813 -0.018483326 0.07342697 -0.033377066 -0.2103524
0.0898282 -0.15757386 0.09323861 0.06682168 0.17341672 0.099002734 -0.0075279013 0.06961539
0.10858525 0.018865442 0.07686228 0.021561049 0.13709523 0.1356561 -0.17179115 -0.040803205
0.026065247 0.025530742 0.12442399 0.082482845 0.093808964 -0.035849117 -0.060919356 -0.004443528
-0.05275244 -0.10041559 -0.06556971 -0.042770106 -0.06720997 0.016615536 -0.046972387 -0.13500187
-0.054350566 -0.021026017 -0.10179681 -0.16524471 -0.21240531 -0.12443859 -0.06193816 0.16267356
0.20603947 -0.00440712 0.103354424 0.061900754 -0.09576627 0.03740908 -0.08644233 0.010469747
0.09841571 0.038482014 -0.010556564 0.09092249 -0.042602267 0.06025974 -0.1789245 -0.22786644
-0.05247286 0.006270598 0.10015053 -0.10202728 0.15328918 -0.0015506364 -0.12550406 0.03201354
-0.06597444 -0.053897634 0.049912218 0.11195996 0.14330599 0.06220213 0.05566723 0.021660307
-0.120837 -0.05993453 -0.11558766 -0.09681463 0.05744062 0.036581032 0.036445227 0.15210763
-0.12864506 -0.24939485 0.017365223 -0.02911942 -0.021400457 -0.04972821 0.045516375 -0.08055093
0.002866729 0.05322178 -0.0039257957 0.027887061 -0.075323105 -0.07362354 0.119501926 0.13272557
0.104576565 -0.15227471 0.031937443 -0.068797514 -0.05300984 -0.05896053 0.06095131 0.023766777
0.081599444 0.1010695 0.03288911 0.08308374 0.026353791 -0.15194269 -0.2637399 -0.06917179
0.006856498 0.028849576 -0.19242854 -0.012939725 -0.05417338 0.25634617 0.14352702 0.02336464
0.08371444 0.048687153 0.009834967 0.025856843 -0.04083706 -0.020941904 -0.03853568 -0.035605732
-0.04938752 -0.10641435 -0.05416957 -0.039107826 0.009886619 0.009604777 -0.08674999 0.021527184
-0.09085813 -0.12095965 0.16281708 -0.1027553 0.026286285 -0.11398492 0.079586424 0.022837048
-0.0039997585 0.06368492 -0.13682984 -0.11874056 -0.16405109 -0.058728162 -0.057927545 0.089645684
-0.22620893 0.10561237 -0.119947895 -0.22535014 0.084742874 -0.06432247 -0.04335758 0.032572564
-0.044105902 -0.15217209 -0.03699763 0.10014023 0.058626942 0.13919508 0.058600113 -0.16943218
0.10919052 -0.022509588 0.0069166883 0.14374937 -0.07421181 -0.009976356 -0.11001747 -0.09911668
-0.05877264 0.06322517 -0.14407934 -0.010881973 -0.20996548 -0.1158031 -0.053877138 0.033138912
0.07692937 0.019277787 -0.03398204 -0.01379316 -0.035098802 -0.026763046 -0.13846342 -0.0235465
-0.062366717 0.01667104 0.065696314 -0.16453995 -0.08267271 -0.022485252 -0.23589419 -0.11707125
0.119618714 0.08557468 0.083560795 0.080099404 0.0694946 -0.004491843 -0.12939724 -0.022023506
-0.1534149 0.041686177 -0.06581333 -0.045289434 0.042032808 0.06961171 0.07907917 -0.16362208
0.003548167 0.0008111603 0.015467009 -0.21188544 -0.06297505 -0.066384144 -0.16887927 -0.023742808
-0.16047849 -0.25924453 -0.21198872 -0.024737295 -0.048631616 -0.056823954 0.07573894 -0.039591525
00000000: 5920 113e 9a7f 053d f533 adbd 5a2e 6f3d
00000010: 6a6c 0cbe 2594 393d e2e5 a9bd 0b60 853c
00000020: 326e 8c3d 0f1b a13c f726 2aba 40a2 f8bc
00000030: 0c16 39bd 173c 41bd b561 293c f4be 443c
00000040: 71a8 4fbc 2dbf 563d 88f0 803d c45f 653e
00000050: 586a 97bc e160 963d 64b6 08bd 9f66 57be
00000060: d9f7 b73d 0b5b 21be e2f3 be3d ced9 883d
00000070: 2794 313e f2c1 ca3d 9dac f6bb 8392 8e3d
00000080: f261 de3d b38b 9a3c f969 9d3d cca0 b03c
00000090: b162 0c3e 6fe9 0a3e 05ea 2fbe 4321 27bd
000000a0: c986 d53c d925 d13c 01d2 fe3d c4ec a83d
000000b0: ea1e c03d 86d6 12bd 9386 79bd 049b 91bb
000000c0: f112 58bd b0a6 cdbd 6a49 86bd b52f 2fbd
000000d0: 61a5 89bd 4e1d 883c 1e66 40bd ee3d 0abe
000000e0: b39e 5ebd c13e acbc d97a d0bd e935 29be
000000f0: c780 59be a9d9 febd deb2 7dbd e693 263e
00000100: 03fc 523e 9a69 90bb 7cab d33d a58b 7d3d
00000110: 1b21 c4bd 433a 193d ad08 b1bd 4d89 2b3c
00000120: 2d8e c93d 519f 1d3d 70f5 2cbc 9235 ba3d
00000130: b77f 2ebd ebd2 763d fc37 37be d255 69be
00000140: c8ed 56bd 9779 cd3b b91b cd3d aef3 d0bd
00000150: d7f7 1c3e b93e cbba 2384 00be a120 033d
00000160: 9b1d 87bd c4c3 5cbd c170 4c3d 434b e53d
00000170: cebe 123e a9c7 7e3d 5203 643d f570 b13c
00000180: 6479 f7bd e97d 75bd 39b9 ecbd c046 c6bd
00000190: db46 6b3d fed5 153d 9747 153d 1ac2 1b3e
000001a0: 88bb 03be 5d61 7fbe 8341 8e3c da8b eebc
000001b0: 0350 afbc cfaf 4bbd 616f 3a3d e3f7 a4bd
000001c0: bbdf 3b3b 15ff 593d f6a3 80bb 6873 e43c
000001d0: 0043 9abd f0c7 96bd 6dbd f43d 36e9 073e
000001e0: 3d2c d63d e7ed 1bbe d6d0 023d b6e5 8cbd
000001f0: d920 59bd 9980 71bd 15a8 793d 8bb2 c23c
00000200: 9c1d a73d 87fd ce3d bbb6 063d cf27 aa3d
00000210: e8e3 d73c dd96 1bbe eb08 87be f0a9 8dbd
00000220: 79ac e03b f255 ec3c fd0b 45be 2401 54bc
00000230: e8e4 5dbd ce3f 833e bff8 123e 3467 bf3c
00000240: 7a72 ab3d 2e6c 473d d722 213c bbd1 d33c
00000250: c344 27bd 5b8e abbc 97d7 1dbd 51d7 11bd
00000260: 914a 4abd c4ef d9bd e9e0 5dbd 872f 20bd
00000270: 7cfb 213c 5b5d 1d3c fba9 b1bd c759 b03c
00000280: d413 babd b1b9 f7bd 85b9 263e 5f71 d2bd
00000290: 5656 d73c ed70 e9bd 35fe a23d c314 bb3c
000002a0: 6810 83bb 3d6d 823d 1f1d 0cbe 402e f3bd
000002b0: 02fd 27be f18c 70bd 6f45 6dbd 2898 b73d
000002c0: 50a3 67be 4c4b d83d 3ea7 f5bd 30c2 66be
000002d0: ac8d ad3d 80bb 83bd b897 31bd cf6a 053d
000002e0: 64a8 34bd 00d3 1bbe d48a 17bd 5216 cd3d
000002f0: ce22 703d 2889 0e3e ac06 703d a17f 2dbe
00000300: 489f df3d 0766 b8bc 63a5 e23b 0933 133e
00000310: 5dfc 97bd df73 23bc d750 e1bd b0fd cabd
00000320: 94bb 70bd 337c 813d 8989 13be 4e4a 32bc
00000330: 3101 57be 2d2a edbd 46ae 5cbd abbc 073d
00000340: 258d 9d3d 73ec 9d3c c030 0bbd b5fc 61bc
00000350: c3c3 0fbd 2d3e dbbc 5bc9 0dbe 97e4 c0bc
00000360: 3e74 7fbd b491 883c ca8b 863d 297d 28be
00000370: 4f50 a9bd fe32 b8bc 3f8e 71be 0dc3 efbd
00000380: a8fa f43d c741 af3d ec21 ab3d 280b a43d
00000390: 2f53 8e3d 4f30 93bb b680 04be a46a b4bc
000003a0: cc18 1dbe 20bf 2a3d 24c9 86bd 6a81 39bd
000003b0: 982a 2c3d 9690 8e3d 43f4 a13d 8c8c 27be
000003c0: 5d88 683b 0ca4 543a 5669 7d3c 7ff8 58be
000003d0: 10f9 80bd 69f4 87bd b0ee 2cbe 4780 c2bc
000003e0: 7954 24be b3bb 84be 9213 59be dea5 cabc
000003f0: f231 47bd 3cc0 68bd 041d 9b3d b92a 22bd

conv3.bias f4 [128]
-0.06609512 -0.012237892 -0.06682132 -0.08398555 -0.09949354 -0.092182346 -0.030010542 -0.059581317
-0.00025427388 -0.05981683 -0.09797191 -0.04193861 -0.02943303 -0.06047382 -0.044322565 -0.0129968645
-0.024303693 -0.040515363 -0.05034344 -0.049608197 -0.0785339 -0.050774816 0.028720083 -0.014896707
-0.06457999 -0.006727226 -0.00096222333 0.018302253 -0.046123788 -0.033811692 -0.057331532 -0.07042696
-0.021243148 -0.032353524 -0.1187951 -0.026418645 -0.022740081 0.00059808616 -0.05979518 -0.03481379
-0.12053311 -0.023340467 -0.0050976793 -0.105603844 -0.07561662 -0.020660596 -0.053791057 -0.09256972
-0.051209852 -0.09679358 -0.063507915 -0.071187004 0.008965052 -0.02358078 -0.120950535 -0.072151154
0.001508204 -0.06326846 -0.063043565 0.0166705 -0.10925297 -0.079369046 -0.006472247 -0.032700446
-0.03448039 0.043979008 -0.13412653 -0.006991358 -0.024851773 -0.008511642 -0.07384328 -0.026921159
0.03361325 -0.0685197 -0.032306127 -0.12071821 -0.08971338 -0.052024607 -0.080821745 -0.0026100425
-0.0674099 -0.06209514 -0.04890246 -0.049248617 -0.036314655 -0.0065481146 -0.008881611 -0.05555258
0.027618274 -0.036371984 -0.012811232 -0.029471438 -0.042698584 0.013785793 -0.067459546 -0.014317296
-0.01728066 -0.010199556 0.0059600803 -0.040495828 -0.046413034 -0.10289148 -0.07733529 -0.04941282
-0.019943615 -0.0204659 -0.036785904 -0.12010148 -0.08054106 -0.09449654 -0.046892248 -0.0024322544
-0.09714213 -0.027070902 -0.021330122 -0.0814295 -0.05062572 0.008138947 0.0018773947 -0.06053293
-0.089005075 0.004283932 -0.10680826 -0.091492794 -0.006659968 -0.06593297 -0.06851872 -0.043082654
00000000: e15c 87bd 7081 48bc 9ed9 88bd 9e00 acbd
00000010: 45c3 cbbd 19ca bcbd abd8 f5bc 8a0b 74bd
00000020: 1050 85b9 7e02 75bd 7fa5 c8bd d2c7 2bbd
00000030: 8a1d f1bc 65b3 77bd 948b 35bd cdf0 54bc
00000040: 8a18 c7bc 70f3 25bd ec34 4ebd f731 4bbd
00000050: 62d6 a0bd 41f9 4fbd 6146 eb3c 5111 74bc
00000060: 8442 84bd 1070 dcbb b73d 7cba 9bee 953c
00000070: 4cec 3cbd 217e 0abd 78d4 6abd 033c 90bd
00000080: 1c06 aebc 2185 04bd d84a f3bd ea6b d8bc
00000090: 6849 babc e2c8 1c3a caeb 74bd e898 0ebd
000000a0: 10da f6bd 8234 bfbc 6f0a a7bb d446 d8bd
000000b0: e3dc 9abd 6940 a9bc 0354 5cbd 3195 bdbd
000000c0: 6cc1 51bd b63b c6bd 7010 82bd 7eca 91bd
000000d0: 27e2 123c 7b2c c1bc eab4 f7bd fcc3 93bd
000000e0: eeae c53a e592 81bd fc1c 81bd 9390 883c
000000f0: 05c0 dfbd 3d8c a2bd 2515 d4bb e7f0 05bd
00000100: 4f3b 0dbd 5523 343d 7758 09be c317 e5bb
00000110: f295 cbbc 6a74 0bbc 253b 97bd c389 dcbc
00000120: 0cae 093d 0e54 8cbd 6e53 04bd 1c3b f7bd
00000130: a6bb b7bd c117 55bd df85 a5bd 3f0d 2bbb
00000140: 340e 8abd 7957 7ebd f24d 48bd ebb8 49bd
00000150: adbe 14bd 9191 d6bb 2d84 11bc 1a8b 63bd
00000160: b83f e23c cafa 14bd 34e6 51bc 166e f1bc
00000170: b6e4 2ebd cfdd 613c 3b28 8abd 1893 6abc
00000180: 2c90 8dbc 0a1c 27bc c74c c33b f4de 25bd
00000190: 981b 3ebd c5b8 d2bd f761 9ebd 1965 4abd
000001a0: cb60 a3bc 1aa8 a7bc d1ac 16bd c4f7 f5bd
000001b0: b6f2 a4bd 6787 c1bd 1612 40bd 7566 1fbb
000001c0: 74f2 c6bd ccc3 ddbc 82bc aebc 82c4 a6bd
000001d0: ea5c 4fbd 3859 053c ea12 f63a 61f1 77bd
000001e0: 4b48 b6bd 3a60 8c3b 4abe dabd 9360 bbbd
000001f0: dc3b dabb dd07 87bd 8b53 8cbd 7077 30bd

fc1.weight f4 [10, 128]
-0.20734933 -0.08112376 0.031906 -0.034595013 -0.16843021 -0.13732007 -0.050342813 0.0008948337
-0.21776226 0.0035447376 -0.11205471 0.106152594 -0.027885921 -0.1769795 0.09969634 -0.0050019906
-0.31613198 -0.15696055 -0.075542696 -0.038598634 -0.0644286 -0.08140083 -0.0050234166 -0.02584823
-0.13381197 -0.036746696 -0.2530987 0.09128571 -0.08841475 0.034697555 0.16784714 -0.020121105
0.14218421 0.08741499 -0.2964348 0.09261499 -0.119431004 0.15748069 0.09282442 -0.20114996
-0.02243148 -0.15220787 0.059113823 -0.24715053 0.044312652 -0.047792938 -0.08380234 0.08000423
-0.0010729323 -0.033848688 -0.027141366 0.12946965 0.014220385 0.17983733 0.010121751 0.07471687
0.068728305 -0.20861831 -0.15480681 -0.07352686 -0.18482582 -0.07817328 -0.057246115 -0.20084247
-0.115249105 0.05812748 -0.1937405 0.10413967 0.0007777717 0.047043364 0.033159256 -0.083091125
0.1236649 0.17360842 0.056093156 -0.35245785 -0.042388204 -0.10948119 0.09245421 -0.14227955
0.14146778 0.02324937 -0.075770855 -0.04367436 -0.05840848 -0.11849054 0.057763573 -0.0058988933
0.11539303 0.1069137 -0.2044794 -0.086500004 -0.29699594 0.058581073 0.12880349 -0.07766638
-0.043133363 -0.03825352 0.077820465 -0.17810358 -0.35484862 -0.031809162 -0.072887905 0.0908275
-0.07681726 -0.11081698 0.07397388 -0.20588137 0.02127122 0.12671517 0.08218213 -0.19914374
-0.09124711 -0.06935726 -0.119013034 0.14664985 0.009238151 -0.026911147 0.04841569 -0.06299797
0.106321275 -0.3888779 -0.11870022 -0.29703602 0.07630438 -0.15720755 -0.28147328 -0.14395553
-0.16723919 -0.037778497 -0.059028316 -0.1570454 -0.059921816 0.08127141 -0.0017705105 -0.122880906
0.063780345 0.09556177 -0.17177191 -0.21583484 0.21516678 -0.3759948 0.15251385 -0.12018984
-0.15330668 -0.04841356 -0.017197995 0.04949135 0.07688018 -0.14109096 -0.0492717 -0.022655236
-0.12109344 0.13516599 0.062833846 -0.078796685 0.059201892 0.123829976 -0.16502911 -0.15440013
-0.36909106 -0.17250647 0.0032991609 0.18696353 0.12390919 -0.3029457 -0.00019364152 -0.1478474
0.041645057 0.05957912 -0.17620233 -0.25657368 -0.21432051 -0.010574178 -0.15175393 0.12312929
-0.06392529 0.108836256 -0.023046564 0.1294286 -0.26201198 -0.22982155 0.18694437 -0.3501848
-0.41750363 -0.06988647 -0.43086588 -0.02280949 -0.16666737 -0.05050169 -0.2984231 0.09278885
0.082695566 0.13372263 -0.060678735 0.14096372 0.13393372 0.011862632 -0.046112187 -0.108449616
0.114622265 -0.23354526 0.042183347 -0.12780999 0.14544971 -0.15446001 0.12668647 -0.060387556
-0.05729785 0.09119517 0.090713575 -0.05927656 0.09264477 0.18980528 -0.012460366 -0.28917444
-0.021798037 -0.186692 -0.18273862 0.033748727 0.07357389 -0.027409326 -0.21012768 -0.27281186
0.07453433 0.028083 -0.4448897 -0.13217023 0.10467912 0.028348772 -0.19005746 -0.017695101
0.102547735 -0.25553057 0.085762836 0.13445063 0.07474064 -0.18008196 -0.4199613 0.07594096
-0.016294977 -0.15403107 0.025267275 -0.18397368 -0.044252157 -0.014025568 -0.044981018 0.06328434
-0.15496781 0.10322397 0.13463828 -0.104221985 0.05777425 -0.41472927 0.04903339 -0.17764392
00000000: 6253 54be 3724 a6bd deaf 023d 80b3 0dbd
00000010: f878 2cbe a29d 0cbe 4434 4ebd 4693 6a3a
00000020: 12fd 5ebe d44e 683b f17c e5bd 8866 d93d
00000030: 0471 e4bc 1d3a 35be 982d cc3d bde7 a3bb
00000040: 0ddc a1be 44ba 20be 21b6 9abd 9a19 1ebd
00000050: 24f3 83bd 7ab5 a6bd 799b a4bb abbf d3bc
00000060: 0106 09be b483 16bd 2796 81be 01f4 ba3d
00000070: cb12 b5bd 061f 0e3d 1fe0 2b3e 04d5 a4bc
00000080: bd98 113e a106 b33d 4dc6 97be eeac bd3d
00000090: 3e98 f4bd 9e42 213e bb1a be3d 41fa 4dbe
000000a0: 39c2 b7bc 61dc 1bbe 5621 723d 0715 7dbe
000000b0: 2f81 353d 87c2 43bd 90a0 abbd 42d9 a33d
000000c0: a2a1 8cba eca4 0abd 9257 debc b193 043e
000000d0: 9efc 683c 4727 383e b3d5 253c 2905 993d
000000e0: 6dc1 8c3d 0aa0 55be ad85 1ebe 4095 96bd
000000f0: fb42 3dbe 5019 a0bd e77a 6abd a6a9 4dbe
00000100: b907 ecbd 1517 6e3d e963 46be 2e47 d53d
00000110: 60e3 4b3a 8bb0 403d 00d2 073d ae2b aabd
00000120: 0644 fd3d 68c6 313e f0c1 653d 5b75 b4be
00000130: 419f 2dbd ad37 e0bd a258 bd3d bbb1 11be
00000140: eedc 103e 7675 be3c c02d 9bbd e3e3 32bd
00000150: bb3d 6fbd 2bab f2bd 7f99 6c3d 814b c1bb
00000160: 2e53 ec3d 92f5 da3d 0c63 51be ea26 b1bd
00000170: da0f 98be b5f2 6f3d 10e5 033e 8d0f 9fbd
00000180: 9cac 30bd b9af 1cbd 5660 9f3d c960 36be
00000190: b8ae b5be 534a 02bd 4146 95bd c503 ba3d
000001a0: 5e52 9dbd 03f4 e2bd 9e7f 973d 91d2 52be
000001b0: fb40 ae3c 9fc1 013e 1b4f a83d 56ec 4bbe
000001c0: c4df babd 2e0b 8ebd 1bbd f3bd 612b 163e
000001d0: 9d5b 173c c474 dcbc 884f 463d 1405 81bd
000001e0: f8be d93d 011b c7be 1a19 f3bd 1b15 98be
000001f0: 7945 9c3d 04fb 20be 441d 90be 1469 13be
00000200: c040 2bbe a0bd 1abd adc7 71bd 82d0 20be
00000210: 9470 75bd a071 a63d 7910 e8ba fca8 fbbd
00000220: 459f 823d e4b5 c33d fae4 2fbe cf03 5dbe
00000230: ae54 5c3e 6482 c0be 972c 1c3e 1726 f6bd
00000240: 6dfc 1cbe 4c4d 46bd cfe2 8cbc 71b7 4a3d
00000250: 5b73 9d3d 267a 10be 1fd1 49bd 7997 b9bc
00000260: d6ff f7bd f468 0a3e 08af 803d 2860 a1bd
00000270: af7d 723d 929a fd3d 64fd 28be 111b 1ebe
00000280: 81f9 bcbe 89a5 30be bc36 583b 5e73 3f3e
00000290: 1ac4 fd3d b31b 9bbe 400c 4bb9 4f65 17be
000002a0: 0294 2a3d 3c09 743d 626e 34be a05d 83be
000002b0: d676 5bbe 513f 2dbc 6265 1bbe 362b fc3d
000002c0: 43eb 82bd 8be5 de3d 26cc bcbc ee88 043e
000002d0: 6f26 86be 5756 6bbe 586e 3f3e 6c4b b3be
000002e0: 09c3 d5be a320 8fbd 749a dcbe f8da babc
000002f0: daaa 2abe dcda 4ebd eaca 98be 1508 be3d
00000300: 4b5c a93d 96ee 083e 448a 78bd cb58 103e
00000310: ec25 093e 7c5b 423c 22e0 3cbd d51a debd
00000320: 14bf ea3d 7d26 6fbe 72c8 2c3d 9fe0 02be
00000330: c5f0 143e c42a 1ebe 19ba 013e f158 77bd
00000340: 26b1 6abd 89c4 ba3d 0ac8 b93d facb 72bd
00000350: 8bbc bd3d 515c 423e 9026 4cbc ac0e 94be
00000360: cc91 b2bc 302c 3fbe d51f 3bbe 1b3c 0a3d
00000370: e8ad 963d 8689 e0bc b62b 57be ffad 8bbe
00000380: 74a5 983d 520e e63c 95c8 e3be a257 07be
00000390: 0262 d63d af3b e83c 6c9e 42be 51f5 90bc
000003a0: 8c04 d23d e7d4 82be 6da4 af3d 6dad 093e
000003b0: 9f11 993d 6867 38be 2b05 d7be ef86 9b3d
000003c0: 0b7d 85bc 52ba 1dbe 51fd ce3c 9963 3cbe
000003d0: c041 35bd 7fcb 65bc 043e 38bd 389b 813d
000003e0: e2af 1ebe 1767 d33d 9ede 093e 5672 d5bd
000003f0: b1a4 6c3d 6557 d4be 3cd7 483d 4ae8 35be

fc1.bias f4 [10]
0.14356859 0.32332206 -0.21041694 0.0153760165 0.008548766 0.050976563 -0.070590235 0.24994537
-0.0014624624 -0.24368194
00000000: a503 133e 788a a53e 8a77 57be b0eb 7b3c
00000010: 2010 0c3c cdcc 503d 9d91 90bd aef1 7f3e
00000020: 18b0 bfba c287 79be
