models/model2.pth (torch, 378536 bytes, 8 tensors)

conv1.weight f4 [32, 1, 3, 3]
000000 88 19 73 3e 46 a1 be 3d 48 83 2d bd 58 e9 59 be
       0.23740208 0.09308104 -0.042361528 -0.2128042
000010 b4 48 93 be 60 ac 2d be 7b b3 f7 3c f5 d7 86 bd
       -0.28766406 -0.16960287 0.03023695 -0.06584159
000020 64 42 80 3e 94 e4 99 be 0e a2 cd bd 58 51 8a 3e
       0.25050652 -0.30057204 -0.10040675 0.27015185
000030 83 6a c9 3c d8 f7 ce bd 02 7f 0e 3e 35 61 c3 bd
       0.024586922 -0.10105866 0.13915637 -0.09540025
000040 1d c7 7d be ef 07 a8 3e 76 30 4e 3e 5e 7f b9 3e
       -0.24782987 0.32818553 0.20135674 0.36229986
000050 92 2d 1a 3e d1 82 c3 3d 75 85 e1 3c e5 6c b1 3e
       0.15056446 0.095464356 0.027529458 0.34653392
000060 b2 63 a9 be 55 cb f4 be 51 f5 07 bf eb cd 5a be
       -0.33083874 -0.4781138 -0.531087 -0.21367614
000070 06 90 4a bf ec 40 17 bf cb 2c 8d be b7 cd 22 3e
       -0.7912601 -0.5908344 -0.27573237 0.15898786
000080 be 09 5c 3e 04 d7 9b 3e 6a fc c3 3e c7 71 d9 3e
       0.21488091 0.3043748 0.38278514 0.42469618
000090 f2 c5 57 be 12 d2 9d be f1 aa c1 be 36 d7 84 be
       -0.21071604 -0.30824333 -0.3782573 -0.25945443
0000a0 e9 eb 3c 3d 06 9d 9d be bc 22 df be 43 64 cf be
       0.04612342 -0.30783862 -0.43581188 -0.4050618
0000b0 94 1e 10 bf bc 85 55 3e b8 80 66 3e f8 6c c8 be
       -0.5629666 0.20851797 0.2251004 -0.39145637
0000c0 cd c5 60 be 29 bf b9 3e 26 49 35 be fd d0 11 be
       -0.21950455 0.36278656 -0.17703685 -0.14239879
0000d0 44 bf 0d bc 3e 6e 8c 3e 4f 8c ad 39 72 26 0c bf
       -0.008651558 0.27427858 0.0003310167 -0.5474616
0000e0 70 f5 81 be a5 77 a1 3e 5a c4 f1 3d 8b f7 c5 be
       -0.25382566 0.31536594 0.11805029 -0.38665423
0000f0 ad cf 83 3e bd 4f d2 3e 20 bd e5 3d ea 6f a8 be
       0.25744382 0.4107646 0.11217713 -0.32897884
000100 34 49 04 bd 2d d2 0b be 32 72 80 3e 7c b4 c7 3e
       -0.032296374 -0.13654394 0.25087124 0.39004886
000110 db ee b6 3e 62 82 42 be 5c 56 80 be 29 5d 78 be
       0.35729107 -0.1899505 -0.25065887 -0.24254288
000120 ae 45 be 3d 3a 9d 45 3e 3d db 2e 3e e7 69 24 3e
       0.09290634 0.19298258 0.1707582 0.16056024
000130 a3 60 b6 bd 84 c0 74 3e 96 32 d2 be 47 e6 75 be
       -0.08905151 0.23901564 -0.4105422 -0.24013625
000140 94 e5 68 be 0f 7a 85 3e c8 9e da be 42 87 a9 be
       -0.22743827 0.26069686 -0.42699265 -0.33111006
000150 8f 59 ba be 71 b6 48 be 54 00 bb bd 15 c7 4c 3c
       -0.36396453 -0.19600846 -0.09130922 0.012498637
000160 d8 e2 de be c1 70 d0 bd af 72 76 3d ec 45 a5 3e
       -0.43532443 -0.10177756 0.060167965 0.3227991
000170 bc 74 00 bf d2 b1 6b 3e 4b 02 87 be 86 ca 36 be
       -0.5017812 0.23017052 -0.26368937 -0.17850694
000180 ae 71 16 be f5 e9 2b 3e 72 8f b1 3e b8 e6 97 3e
       -0.14691803 0.16788466 0.34679753 0.29668212
000190 7e d9 d9 3e 00 a3 3e bd 6c b2 ee 3e db b8 7d 3d
       0.42548746 -0.046542168 0.466205 0.06194387
0001a0 70 f0 00 be 48 bb 15 be 17 d9 ec be 47 ce 13 bf
       -0.1259172 -0.14622223 -0.46259376 -0.5773663
0001b0 8a 43 65 3e b3 8c a9 be ad 13 80 be b1 ae 4d 3e
       0.22389045 -0.33115157 -0.2501501 0.2008617
0001c0 4c b5 6d be 9e 84 4b be 6b a9 9e 3e 53 23 9a 3d
       -0.2321369 -0.19874808 0.3098863 0.07526269
0001d0 c3 46 16 be bc 99 6e 3d 85 26 a2 bd 08 31 80 be
       -0.14675431 0.05825208 -0.07917503 -0.25037408
0001e0 3e 97 0c bf 15 ff d7 3d d7 82 36 3e d5 c5 e2 be
       -0.5491828 0.105467 0.17823349 -0.4429156
0001f0 ec 12 a3 3e ed 4a a0 3e e7 80 c2 3e e6 e7 4f 3e
       0.31850374 0.31307164 0.3798897 0.20303306
000200 d4 a6 7e be b3 32 34 3c f7 19 40 be 9e 99 26 bf
       -0.24868327 0.010998416 -0.18759905 -0.6507815
000210 af 75 2e bf 9b 3e 17 bf 68 25 85 bd e8 7e 33 be
       -0.6814832 -0.59079903 -0.06501275 -0.1752888
000220 4a ba ce be eb e0 bd 3d 25 38 3b 3e 97 b4 4d 3e
       -0.40376502 0.09271415 0.18283136 0.20088421
000230 b3 fd d0 3e 7a 7d e4 bd 98 a5 4f 3d ba 0f d4 be
       0.40818557 -0.11156745 0.050695032 -0.41418248
000240 18 e9 1c be 41 b4 21 be ee 14 a4 be 58 ff 10 3e
       -0.15323293 -0.15791418 -0.32047218 0.14159906
000250 6d 8b 75 3e c0 d5 a5 be d5 50 c6 bd cc 36 e2 3d
       0.23978968 -0.3238964 -0.09683386 0.11045608
000260 06 fe ba 3e b0 55 76 3d 99 8c 12 3d 56 64 a4 3c
       0.3652193 0.06014031 0.035778616 0.020067375
000270 a0 bc cb bd e5 d6 3e be 6f 2c 57 3c 2f cc af 3d
       -0.09948087 -0.18636663 0.013133152 0.08583867
000280 7c 18 31 3e ae 91 8c be e2 3a 80 be 35 0c a5 3d
       0.17294496 -0.27454895 -0.25044924 0.08058969
000290 05 a3 6a 3d fb 30 18 3e e0 ff d3 3d 36 40 e4 bd
       0.057284374 0.14862435 0.10351539 -0.1114506
0002a0 33 93 c0 3c e6 0a 12 3e b2 b1 03 bf 1a fe e9 3d
       0.02350769 0.1426197 -0.51443017 0.11425419
0002b0 98 c3 05 3e dd 15 26 3e 2c 4f 49 bd 72 d7 9e bc
       0.13062894 0.16219278 -0.04914777 -0.019389842
0002c0 86 25 ee 3d 23 e2 23 3e ee 5f ed 3d 87 e0 e4 bd
       0.11628251 0.16004233 0.11590563 -0.11175638
0002d0 ad 2b ba 3e 26 2f 00 3e 25 6d b8 3e 4b 75 1b be
       0.36361447 0.12517986 0.3602077 -0.15181462
0002e0 1e f5 ad 3e a7 f4 96 be 33 91 6c be 6c ed 2d bf
       0.33976072 -0.2948353 -0.23102264 -0.679404
0002f0 51 40 cc be 85 34 f8 bd 22 72 65 3e 0d c7 e9 be
       -0.3989282 -0.12119392 0.2240682 -0.45659676
000300 77 e8 95 3d 06 32 50 3e 57 b2 1d 3e 6f 47 c4 bd
       0.0731973 0.20331582 0.15400063 -0.095839374
000310 c5 1d f1 bc 97 a6 a3 3d 05 cb e8 3c e0 38 95 3e
       -0.02943314 0.07990759 0.02841712 0.29144955
000320 91 1a b5 be 2c 11 a2 be 8d 28 1f 3e f3 8f c3 3c
       -0.3537183 -0.31653726 0.15542813 0.023872351
000330 fa 04 0a bf 28 e0 6a 3e 5a e5 a9 3e ee cd 59 be
       -0.53913844 0.22937071 0.33182794 -0.21269962
000340 25 56 d3 3d 64 87 80 be ed 89 c8 3d b4 45 a4 3d
       0.10319165 -0.25103295 0.09791932 0.08021107
000350 5a 68 85 3c 01 45 8f be d9 30 30 be 52 c2 a4 3e
       0.01628511 -0.27982333 -0.17206134 0.32179505
000360 c3 64 03 3e 71 1f 06 3e fa 95 0c 3e 92 70 11 be
       0.12831406 0.13097931 0.13729087 -0.14203098
000370 64 b0 dd bd 5e 6f 5c be 8a 67 28 3e 27 07 a9 3b
       -0.108246595 -0.21526858 0.16445747 0.0051583233
000380 92 01 d0 bd d3 9e e3 be ae b2 48 be 6a fe 83 3d
       -0.101565495 -0.4445711 -0.19599411 0.0644501
000390 c5 00 23 be 14 b7 93 bd 98 a1 81 3e 17 4d 61 bc
       -0.15918262 -0.07212654 0.253186 -0.01375129
0003a0 0e 39 a2 3e 52 42 8e 3e 77 a7 93 3e 58 49 d6 3d
       0.31684154 0.27784973 0.28838703 0.10463208
0003b0 b4 1b 0f bf 36 59 15 3f b7 9f 8d bd ae 05 0b bf
       -0.55901647 0.5833925 -0.06915229 -0.5430554
0003c0 9f b9 ae 3e d8 88 6e bd d1 7d 33 bf 9a 58 2a 3e
       0.34125993 -0.058235973 -0.70113856 0.16635361
0003d0 f2 7a 7c bd 0a 02 4c 3e 86 d3 ba bc 3e 6d e1 bd
       -0.061640687 0.19922653 -0.02280594 -0.110071644
0003e0 f0 0c 59 3e b3 e2 b7 bd 3e b7 4c bd 63 4e 5a 3e
       0.21196342 -0.08978786 -0.04997944 0.21318965
0003f0 14 36 89 be 41 6d 9b 3e 65 85 06 3d 49 72 c4 be
       -0.2679907 0.30356792 0.03284206 -0.38368443

conv1.bias f4 [32]
000000 29 f1 20 be 5b 9f 67 bd 4b bb eb bc 21 17 fb bd
       -0.15716995 -0.056548458 -0.028775832 -0.12260271
000010 2b 41 8b 3e 54 f4 01 bf 22 f4 56 bd c5 71 be bb
       0.27198157 -0.5076344 -0.052478917 -0.005811902
000020 d0 94 cd be 2c 7c 79 3e 4d 04 aa be b8 d9 14 be
       -0.40152597 0.24363774 -0.33206406 -0.14536178
000030 07 26 2e be 61 b5 cc bd 6e f6 9c 3e a1 fc 8f be
       -0.17006694 -0.09995533 0.3065676 -0.28122428
000040 e0 d2 02 be 3e da 81 bd 22 89 32 be d5 da c9 be
       -0.12775755 -0.063404545 -0.17435125 -0.39424768
000050 c6 58 4f be 0c 1a 04 bf c4 3d 59 be 0f 0a 06 be
       -0.20248708 -0.51602244 -0.21214968 -0.13089775
000060 ba 34 e3 be 37 38 2c be aa b4 97 be f3 e0 80 be
       -0.44376165 -0.1681832 -0.29630023 -0.25171623
000070 88 c7 23 be b2 c7 5b be 03 bb a5 be 87 9b 94 be
       -0.15994084 -0.21462896 -0.3236924 -0.29024908

conv2.weight f4 [64, 32, 3, 3]
000000 ff ac 41 3e 52 25 59 3d f4 2a af bd 60 a5 01 3e
       0.18913649 0.053014107 -0.085531145 0.12660742
000010 40 dd f0 bd 7c b2 e9 bd 75 de f0 bd e6 74 24 be
       -0.1176095 -0.11410996 -0.1176118 -0.16060218
000020 23 72 85 be 14 5a 85 bd f0 f2 aa bd 68 4a bd bd
       -0.26063642 -0.06511322 -0.08347118 -0.092427075
000030 e9 d6 a9 bd 4a 6e ad bd ed e5 12 be c5 1e 5d be
       -0.08292944 -0.084683016 -0.14345522 -0.21593769
000040 1d 5c 30 be 8a e2 5a be e9 ac ff 3d 6b 42 71 3d
       -0.17222638 -0.2137548 0.12484152 0.05890123
000050 e2 91 e8 bc 11 0b c9 bc 4c 37 df 3a 88 cb 24 bc
       -0.028389875 -0.02454141 0.001703003 -0.010058291
000060 c3 66 34 ba a7 6e 7a 3d 72 16 1c bd 50 0b 56 be
       -0.0006881768 0.061140683 -0.038107343 -0.20902753
000070 74 f6 84 be 19 87 87 be c6 0f ab bd 19 5f 4a be
       -0.2596928 -0.2647026 -0.08352618 -0.1976284
000080 f2 45 72 be 71 41 1f bc d3 99 83 3d e1 e6 66 bd
       -0.23659495 -0.009720192 0.06425824 -0.056372527
000090 00 d9 3d be cf 35 c3 bc dc 4b ad bd 5b c6 b1 bd
       -0.1853981 -0.023829369 -0.08461735 -0.086804114
0000a0 81 da 9e 3c 43 d7 be 3b 65 90 c0 bd 64 e7 c0 3b
       0.0193913 0.005824001 -0.09402541 0.005886959
0000b0 20 0c cd 3b 46 e2 c3 bd ee eb 68 bd de ed 7c 3c
       0.006257549 -0.095646426 -0.056865625 0.015437571
0000c0 62 1d 06 bd f1 eb 2a bd cf 9b 8e bc 0c 3f 8c bd
       -0.032742865 -0.041728918 -0.01740828 -0.06847963
0000d0 80 86 e3 bd d5 74 1e bd d6 f2 45 bd ad 20 aa be
       -0.11109638 -0.03868564 -0.04832729 -0.33228055
0000e0 25 fb 9b bd 0c 65 27 3e b6 5e 2d be 5e 42 c4 bd
       -0.076162614 0.1634714 -0.1693066 -0.09582971
0000f0 0f 07 01 3e 74 bc 2a 3b bc 65 04 3e 9f a2 ca bd
       0.12600349 0.0026052268 0.12929434 -0.09894299
000100 52 77 8a bd d8 09 f7 bc dd 0e 86 be ff 56 8e bd
       -0.0676104 -0.030156061 -0.26183215 -0.06950187
000110 fb 8d 03 be b3 da 8f bc ac 59 54 3b 6c 74 e1 bc
       -0.1284713 -0.017560339 0.0032402081 -0.027521335
000120 42 2a 83 3d f1 48 05 3c 4d 27 2f bd 22 4a 14 3b
       0.064045444 0.008135066 -0.04276209 0.0022627194
000130 9d f7 b0 3c 5b 0f 3c bd 9f 35 4c bd bc f8 1e bc
       0.021602446 -0.04591308 -0.049855825 -0.009702858
000140 21 28 98 bd 5a eb 83 bb 37 d3 88 bd 0d 92 fd bc
       -0.07429529 -0.004025859 -0.06680911 -0.030953432
000150 14 47 5a 3d 60 55 4f bd be bc c1 3a 50 a2 60 bd
       0.05329044 -0.05061853 0.0014780981 -0.054842293
000160 da 24 81 bc 15 98 4f 3c a7 35 2b 3d 2b 8f 3b be
       -0.015764643 0.0126705365 0.041799214 -0.18316333
000170 c5 24 9c 3d 77 0c 32 3d 13 dc 2f be eb 1e d5 bd
       0.07624201 0.04346892 -0.17173795 -0.10406288
000180 fe 7e 18 3d 58 29 29 3c 46 11 13 be 6f 5f 69 3e
       0.037230484 0.0103247985 -0.14362058 0.22790311
000190 d0 e0 0e 3e 1c 8e df 3c 1e 0a 60 3d 5d 96 bb bc
       0.13952947 0.027289443 0.05469715 -0.022898847
0001a0 56 60 f4 3c e5 4b 0a 3e 0a 8d a5 bd 67 31 81 be
       0.029831093 0.13505514 -0.08083542 -0.25233003
0001b0 58 64 d8 3c a9 ef 03 be e9 c2 5c 3c 0b c5 cc 3d
       0.026415035 -0.12884392 0.013474205 0.099985205
0001c0 43 58 54 be 74 33 0f be 7d 7b b6 3d 2d d5 16 bc
       -0.20736794 -0.13984472 0.08910272 -0.0092060985
0001d0 8d d7 b3 3c fa 99 9c be dd 05 08 be 6a 5d 31 bd
       0.021953369 -0.30586225 -0.13283487 -0.043301977
0001e0 13 3c 1f be 7e a9 d9 be 2c a4 6b bd ce e6 d2 bd
       -0.1555026 -0.42512125 -0.057529613 -0.10297929
0001f0 c7 0c fa bc 35 15 3d be bb 28 0b 3e da 9d 8a 3d
       -0.03052367 -0.18465121 0.13589756 0.06768389
000200 b7 63 3e 3d a6 92 8d bb aa 99 a8 bd 3e fe b6 3c
       0.046481814 -0.0043204604 -0.08232434 0.022338029
000210 5f 73 1a 3d 75 75 9e bc a4 bc 8c bd 68 4c 5f bd
       0.037707683 -0.019343117 -0.06871918 -0.054516226
000220 17 7d aa bd 09 af 19 bd 06 6f ca bd cc 22 7a bd
       -0.0832464 -0.037520442 -0.09884457 -0.06106834
000230 a1 02 83 be 0a 7d 44 3d 7d 65 8a bd ce 68 b5 bd
       -0.25587943 0.04797081 -0.067576386 -0.088578805
000240 5d c9 1c be d8 f6 71 be 51 6c 95 bd 80 af 71 3d
       -0.15311189 -0.2362932 -0.0729605 0.05900526
000250 2a cd e0 bd 1b 09 20 be 27 51 82 3c e4 1e 2c 3d
       -0.10976632 -0.15628473 0.015907837 0.042021647
000260 6a 29 c7 bc 44 a2 6d 3d 71 98 91 bb b2 bc cf 3c
       -0.02431174 0.058016077 -0.0044432213 0.025358532
000270 33 c8 8b 3d 20 ba f2 bd 7b d1 2e bd ca 02 89 bc
       0.06825294 -0.11851907 -0.042680245 -0.016724963
000280 e2 9c 54 be 09 a9 69 bd a8 32 53 3d ff c6 82 bd
       -0.20762971 -0.05704597 0.05156198 -0.06385612
000290 39 dc 47 bc 5c 37 a6 3c f9 15 ad bd 3b 02 23 be
       -0.012198501 0.02029007 -0.084514566 -0.1591882
0002a0 4b 37 49 3d c8 10 1a be ac 79 27 bc 46 b0 e7 3c
       0.049124997 -0.15045464 -0.01022188 0.028282296
0002b0 e4 d9 7f 3c 5e ad d9 bb e6 23 27 bc d1 d2 75 bd
       0.015615914 -0.0066429814 -0.01020143 -0.060015503
0002c0 44 32 9c bd 1e ea 29 3c a4 e6 5c be 4d b0 07 be
       -0.07626775 0.010370759 -0.21572357 -0.13250847
0002d0 4c 6f 8c 3e cf 1e 0d 3d 14 3f 34 bd e2 97 26 3d
       0.27428663 0.03445321 -0.04400547 0.04067219
0002e0 d1 12 56 bd 91 5e db 3c 1d 66 0d bd c9 a8 ce 3d
       -0.05226404 0.026778491 -0.03452121 0.10090787
0002f0 82 49 fa bd ba 1e 8c bd b9 b8 54 3b 45 58 b0 3c
       -0.12221052 -0.06841798 0.0032458736 0.021526465
000300 92 9a 97 bd 57 e0 e1 bd 32 86 9e 3d 89 f8 4f 3d
       -0.07402529 -0.110291176 0.077404395 0.05077413
000310 81 55 ab 3d c6 60 32 bb 21 41 ba be 19 a1 01 be
       0.08365918 -0.0027218326 -0.36377814 -0.1265911
000320 9b b9 6d bd b4 7b 1d be 1f 5a af be 1c 6e 97 bd
       -0.058038335 -0.1537922 -0.34248444 -0.073940486
000330 c3 1d 20 3c 42 53 65 bd c8 f2 0a be 37 b4 8f bd
       0.009772721 -0.055987604 -0.13569176 -0.07016795
000340 30 83 08 be 36 fe 06 be 1d 20 20 be 08 ed 9f be
       -0.13331294 -0.13182911 -0.1563725 -0.31235528
000350 a6 6a a2 bd 20 c5 06 be be f4 25 bc d3 1d 71 be
       -0.07930498 -0.13161135 -0.010129152 -0.23546533
000360 9a bd 33 3e 53 fe db 3c e7 55 6d 3d 55 98 0d 3b
       0.17552796 0.02685467 0.05794325 0.002160569
000370 1d 82 53 bc f0 b0 85 3d 98 9e a0 bc ab 6e 48 be
       -0.012909439 0.06527889 -0.019606873 -0.19573466
000380 7f c3 33 be 11 5f 5a bd 01 8f b0 bd b2 3b 4c be
       -0.17555045 -0.05331332 -0.08621026 -0.19944647
000390 d7 9a 33 be 57 e3 6a be 00 de f7 bd aa 47 20 be
       -0.17539535 -0.22938286 -0.1210289 -0.15652338
0003a0 28 60 e9 bd 2c b9 38 be 39 90 4e 3e c0 80 c4 bd
       -0.113952935 -0.18039387 0.20172204 -0.095948696
0003b0 56 11 f0 3d fd e0 b2 3d 8a f2 64 be 30 4e b3 bc
       0.117220566 0.08734319 -0.22358146 -0.021887869
0003c0 45 f3 33 3e 03 d7 90 bc 38 fd b2 3b 90 89 0b 3d
       0.17573269 -0.01768065 0.005462315 0.034066737
0003d0 82 b2 4b 3d 8c 04 1f bd 26 a3 b2 3a 86 df 83 bd
       0.049730785 -0.038822696 0.0013628944 -0.06439118
0003e0 65 5c 08 be 69 ca 0a 3c 0d af fc bd a3 ad 80 be
       -0.13316496 0.00847111 -0.12338076 -0.25132474
0003f0 bb 91 71 3c 06 5f 01 bb 0c e0 fd bd 06 52 e6 3d
       0.0147442175 -0.0019740476 -0.12396249 0.112461135

conv2.bias f4 [64]
000000 ef 04 af bd e6 e0 b6 3d 69 dd 37 bd 57 48 05 3d
       -0.08545863 0.08929615 -0.044888888 0.03253969
000010 96 78 46 bc c5 f7 9d bc fb f6 04 bd 15 7f 84 bb
       -0.012113711 -0.019283185 -0.0324621 -0.0040434697
000020 f0 6e 0e bd 88 6a 75 bc 51 56 9b bc 0d 84 0c be
       -0.034773767 -0.014979012 -0.018962057 -0.13722248
000030 94 08 81 bd 3f 01 56 3b be 1c 1c 3d b7 52 79 bc
       -0.06300464 0.0032654551 0.03811335 -0.015217475
000040 64 d5 f6 bb 94 75 e3 bb 4f 6c c8 bd fd fd 0f bd
       -0.0075327624 -0.0069415066 -0.09786283 -0.03515433
000050 8d 44 1a be c2 6b 99 bd e6 33 ae bd 21 03 c9 bd
       -0.15065213 -0.07491256 -0.085059926 -0.0981505
000060 29 3b 71 bc 8f 58 1b bd 13 91 b5 bc 19 57 76 bd
       -0.014723578 -0.037926253 -0.022163903 -0.060141657
000070 36 5c 07 3d c4 6d c6 bd cb 38 f4 3c 4c 61 c2 bd
       0.033046924 -0.09688905 0.029812237 -0.09491214
000080 80 99 ac bd d8 13 13 bd e3 1b 12 bd 52 68 76 3a
       -0.08427715 -0.035907596 -0.035671126 0.00093997
000090 0e 5d 02 3b 6c 9a c9 bd cd 10 5d bd 43 c8 e4 bb
       0.001989189 -0.09843907 -0.0539711 -0.006981881
0000a0 ad b9 3e bd 20 73 e3 bc 00 7e 81 bd e0 6c 9b bd
       -0.046563793 -0.027764857 -0.06322861 -0.07589126
0000b0 8f ec 00 bd 39 e1 dd bd e6 fe 02 ba d9 c7 8f bb
       -0.0314756 -0.108339734 -0.0004997089 -0.0043878374
0000c0 44 89 d7 3c d3 4a 75 bc 2c 44 f6 bd 16 62 43 bd
       0.02631057 -0.014971453 -0.120247215 -0.047700964
0000d0 16 ae 81 bd 20 b4 66 bb 50 fa 82 3c 19 ac 09 bc
       -0.063320324 -0.0035202578 0.015988499 -0.008402848
0000e0 35 a8 a0 3a c9 2f c4 bc 07 eb 0e bd f8 81 3c bc
       0.0012257161 -0.023948567 -0.03489211 -0.011505596
0000f0 ae aa 9d bd c4 c1 16 bc 66 44 9d bd 18 2c ab bd
       -0.0769857 -0.009201471 -0.076790616 -0.083580196

conv3.weight f4 [128, 64, 3, 3]
000000 f5 7f 17 3d 49 30 98 bd 91 69 df bd 3f 60 99 bc
       0.036987264 -0.07431085 -0.10908807 -0.018722652
000010 03 ce 9a 3d 71 69 40 bd a8 b1 38 be 65 d0 0a be
       0.07558825 -0.046975557 -0.1803652 -0.13556059
000020 73 10 01 3e 69 30 8f bd c2 9e ce 3d 65 df 52 3d
       0.12603931 -0.069916554 0.100888744 0.051482577
000030 ac 31 18 bd f4 d8 c8 3d 86 6f 46 bc 20 25 f5 bc
       -0.037156746 0.098070055 -0.01211155 -0.02992493
000040 5a 3a ae 3d 85 62 80 bd 42 a5 86 3c 85 35 0d 3e
       0.085072234 -0.06268791 0.016436223 0.13789947
000050 65 66 b4 3b 95 6e 5c bd e9 fe d4 bc 14 e3 f7 3d
       0.0055053704 -0.053816397 -0.026000457 0.121038586
000060 bb cf 19 bd d0 57 14 3c 86 ce 80 3b 2b d5 2b 3d
       -0.037551623 0.009054139 0.0039308695 0.04195134
000070 e0 71 1a 3e 54 63 73 3e be b2 9c 3c f9 92 c6 3d
       0.15082502 0.2376836 0.0191282 0.096960016
000080 ca e2 0b 3c 33 ed 98 3b 32 ca a2 3d 01 85 e0 bd
       0.008537957 0.004666948 0.07948722 -0.109628685
000090 95 3f 01 3e 8f 5b 86 3c 3a 9a 15 3d 7c 82 c4 3c
       0.12621911 0.01640108 0.036524035 0.023988001
0000a0 06 94 d1 3d 41 b2 77 bc 9a d5 8d 3d 5c 8a 88 bc
       0.10233311 -0.015118183 0.06925507 -0.016667537
0000b0 1f 0d 8f 3d 0b 6e 25 3e 62 db 95 bd 73 a6 25 bc
       0.069849245 0.1615526 -0.073172346 -0.010110485
0000c0 a8 e6 52 be 8e 67 35 be 23 3b 4d be c1 6b ea 3d
       -0.20595801 -0.17715284 -0.2004209 0.11446334
0000d0 bf 9e ac 3d 1b b3 dc 3d d8 f1 ec bb 01 a4 b5 bd
       0.08428716 0.10776349 -0.0072309785 -0.08869172
0000e0 c4 33 84 bb 7c 67 83 3d 67 f3 e6 bd c9 43 20 3c
       -0.0040344913 0.064162225 -0.11276894 0.009781786
0000f0 6f 3d d6 3d 95 c6 1f be 77 02 c0 bd bd 3c e9 bd
       0.10460936 -0.15603097 -0.0937547 -0.11388538
000100 a5 ea c8 3d 79 14 d6 3d aa ba eb bd 4e e1 15 bd
       0.0981038 0.104531236 -0.11510213 -0.03659182
000110 85 c0 16 3d ee 06 6f bd 4a 8d 23 be ac b6 89 3a
       0.036804695 -0.058356218 -0.15971866 0.0010506711
000120 01 9b 09 bd 4d 42 1e bd 00 d7 ee 3c 1c e3 12 3d
       -0.03359509 -0.038637448 0.029155254 0.03586112
000130 6b 30 dd 3b 38 60 0a 3d c9 0e 2b bd 83 24 ab 3c
       0.0067501566 0.033783168 -0.041762147 0.020891434
000140 69 fb b9 ba 84 26 96 bd a1 d6 bb 3c 59 b2 7f 3d
       -0.0014189306 -0.07331565 0.022929491 0.062425945
000150 44 e6 e0 bd ea a7 e8 bd 4c 91 98 3d 60 d4 41 bb
       -0.1098142 -0.11360152 0.07449588 -0.0029576048
000160 a0 6e 22 be c5 31 67 bc 97 1a 78 3c 3c 16 93 3d
       -0.15862513 -0.014110987 0.015143058 0.07181975
000170 ec 52 02 3d f5 56 97 3d 07 b4 d2 3c b6 dc 14 be
       0.03181736 0.073896326 0.02572061 -0.1453732
000180 10 33 ef bd 9a 1c 83 bc 30 bd 70 3a 91 44 c4 bd
       -0.11679661 -0.01600485 0.00091834646 -0.095833905
000190 1d cf 31 be 46 9b a2 bd c1 40 c9 bc cd a8 4a 3d
       -0.17364164 -0.07939772 -0.02456701 0.049477387
0001a0 67 5c 16 be 2b 65 5b be fd 97 85 bc dd f3 65 be
       -0.14683686 -0.21425311 -0.016307825 -0.22456308
0001b0 de 93 2b bd 76 94 c8 bd 2f 14 c1 bc cf cb fa 3d
       -0.041889064 -0.09793942 -0.023569195 0.12245905
0001c0 2f 70 9a bd aa 7d 6a 3d 74 60 87 bd ad 6e 82 3d
       -0.075409286 0.05724875 -0.06610194 0.06368766
0001d0 d2 b3 3a 3d 9a 4d 4e bd d8 55 7f bd 7d 02 f0 3c
       0.045581646 -0.050366975 -0.062337726 0.029298062
0001e0 3f 91 2f bd a9 e5 01 bd 21 6e 9c bd 3a 78 26 bd
       -0.042863127 -0.03171316 -0.07638193 -0.040642
0001f0 5d f7 00 be 67 9c 6c bd db 40 f0 3d be 53 31 bd
       -0.12594362 -0.057766344 0.1173112 -0.043292753
000200 6f 32 98 bc 31 32 ac bd 80 4d dd bd a1 53 fa bc
       -0.018578736 -0.08408011 -0.108057976 -0.030557455
000210 f7 e3 a7 bc 10 60 cb bc 00 f7 77 be 8f 70 b9 3c
       -0.020494444 -0.02482608 -0.24215317 0.02263668
000220 b1 98 27 bd 2d 56 3a bc 5e 85 0b 3c 76 c0 8f 3c
       -0.040917102 -0.011373085 0.008515684 0.017547827
000230 e3 9e 05 3d eb 96 1e 3d 75 2a df bd d7 31 ff bc
       0.03262223 0.038718145 -0.1089677 -0.031151695
000240 88 54 46 bd 76 8d 49 3e a2 2a 6c 3d 5e ff 7d bd
       -0.04842046 0.1968287 0.057657845 -0.062011115
000250 02 4e 0b be 74 15 3c 3d 3b 21 c4 3d 2d f6 85 bd
       -0.13603976 0.045918897 0.09576651 -0.06541095
000260 1a 6c 75 3d 65 a3 2f 3e 80 b6 42 3e 97 36 0c 3d
       0.059917547 0.17152174 0.1901493 0.03423175
000270 c4 5a 6c be 3a ee 67 bd 9b 10 88 3e 03 b8 87 3d
       -0.230815 -0.056623675 0.2657517 0.06626894
000280 ad a1 c8 3c 15 be 87 3d ba a7 8c bc 51 ac 68 bd
       0.024491156 0.06628052 -0.017169822 -0.05680496
000290 00 fd 75 bd 39 30 16 bd b4 24 db bd e7 28 11 be
       -0.060055733 -0.036667082 -0.1070036 -0.1417576
0002a0 56 65 29 3e 7a ed c4 bd 10 86 20 be d7 07 ae bd
       0.16542563 -0.096156076 -0.15676141 -0.08497589
0002b0 2c 05 eb bc e8 48 0a bd a9 f6 b7 3d 34 dc 2a 3d
       -0.02868899 -0.033760935 0.089825936 0.04171391
0002c0 49 58 cc 3d d0 97 86 bd 21 b7 0f be 4f e6 00 be
       0.099777766 -0.06571925 -0.14034702 -0.12587856
0002d0 2e 8b 7f 3d 3e bc d4 3d ff e9 a5 3c cb 98 48 3d
       0.06238859 0.10387467 0.02025318 0.04897384
0002e0 d3 ac 95 bd 00 1b 28 bd 2c ff e9 3d 89 06 71 3e
       -0.07308354 -0.041041374 0.11425623 0.23537649
0002f0 82 87 54 bd 00 69 d0 3d 6d 6e d2 3d 2a 61 4b bd
       -0.051887043 0.10176277 0.10274968 -0.04965321
000300 a9 7e 3e 3d 1a cb 2f bd df a5 4b 3d c0 71 82 3d
       0.04650751 -0.042918302 0.049718734 0.06369352
000310 91 e2 46 3d 33 0c af bd 2a 6c ec 3d 15 22 ef bd
       0.048555914 -0.08547249 0.11544068 -0.116764225
000320 52 b9 50 3e 64 62 3b 3d 11 ac fa 3c 7d 4e 04 3d
       0.20383194 0.04574813 0.030599626 0.032301415
000330 f9 0b a4 bd b4 e5 f0 bd 0c 42 2e 3d 4a 6c 5d bd
       -0.08010096 -0.117625624 0.042543456 -0.05405835
000340 2a d0 3c 3d 3a f9 b4 3c 67 26 98 bc 5a 93 cc 3c
       0.04609696 0.022091497 -0.018573 0.024972606
000350 0d e6 78 3c af a6 2f bd 6d a1 07 be bd d0 26 3d
       0.015191567 -0.04288357 -0.13245173 0.040726412
000360 d0 d8 d5 3a d5 dc 2a 3d 8a 5d a2 3b fa c2 cb 3c
       0.0016315226 0.041714508 0.0049549984 0.024873246
000370 63 d9 f2 3c 8d 2f b1 3c 42 b3 86 3c 65 31 0e bd
       0.029644674 0.02162912 0.016442899 -0.034715075
000380 42 9e a8 bc 14 12 a3 3c d2 7b d9 3c 9d e3 01 be
       -0.020583276 0.019906081 0.0265483 -0.12684484
000390 4a 5a 25 be 52 ed 51 3b b4 40 a7 bd e4 2e cd bd
       -0.16147724 0.0032032323 -0.08166638 -0.10018709
0003a0 09 66 17 bd d0 fd ea 3d 90 07 8e 3d 26 59 09 3e
       -0.036962543 0.11474192 0.06935036 0.13412914
0003b0 62 d4 d2 3c f4 a4 eb 3c c6 15 41 be 7a 9b bb bd
       0.025736038 0.02876518 -0.18855962 -0.09160514
0003c0 e8 08 28 bd 27 80 d7 3d 74 0f 84 bd 22 41 f7 bc
       -0.04102412 0.1052249 -0.0644826 -0.030182425
0003d0 5a 45 d4 3d d4 1c 02 3e 18 75 e4 3c cb aa e9 3d
       0.1036479 0.1270631 0.027887866 0.11409529
0003e0 45 80 cc 3c 3a e0 ac 3d 5a c1 9a 3d c3 c1 18 bd
       0.024963507 0.08441205 0.0755641 -0.03729416
0003f0 6b 4b c6 bd ae de c3 bd 9a 07 c6 bd 36 c3 68 bb
       -0.096823536 -0.09563957 -0.09669419 -0.0035516745

conv3.bias f4 [128]
000000 e9 3e 85 bd 05 b8 7f bd 06 3e ac bd d4 99 e9 bd
       -0.0650614 -0.062431354 -0.084102675 -0.114062935
000010 ed 82 f0 bd 97 f1 92 bd b5 0a d4 bb c6 12 8a bc
       -0.11743722 -0.07174986 -0.006471003 -0.016854655
000020 05 27 60 bd f7 fd be bc 51 4f bb bc 26 48 ef bc
       -0.054724712 -0.02331446 -0.02286497 -0.029209208
000030 ba 92 b1 bc 4b e8 53 3a f5 f8 eb bc 0f 6e b7 bd
       -0.02167641 0.00080836256 -0.028805235 -0.08956539
000040 de 02 1d bd 48 63 8d bc d9 fd b9 bd 30 98 82 bd
       -0.038332812 -0.017259255 -0.09081621 -0.06376684
000050 eb 93 6d 3c c0 f6 d0 3c ec 47 95 bd bd 2a f8 bd
       0.014500598 0.025508285 -0.07289109 -0.12117527
000060 58 7e 05 bd fb 09 d0 bd 96 c8 59 bd 05 cd 58 3c
       -0.032591194 -0.101581536 -0.05316981 0.013232474
000070 eb 49 33 bd 8a 1a 77 ba 72 f9 14 bd c6 38 7c bd
       -0.043771666 -0.0009426257 -0.036370702 -0.06157758
000080 2f 1b 0e bd 67 bf 8d bd 8d 11 a0 bd 3c 72 b5 3c
       -0.034693893 -0.06921273 -0.078158475 0.022149198
000090 c1 72 90 bd ad 56 f9 bc 9b 45 8c bd 31 6d b8 3b
       -0.070531376 -0.030436838 -0.06849214 0.005628251
0000a0 d3 a9 ac bc 39 cb 9d 3c de 9c b8 bd 4f f8 81 bd
       -0.021077072 0.019261943 -0.09014295 -0.06346189
0000b0 48 19 09 bd be c6 ec 38 bc e5 11 ba ec 7e fd bc
       -0.033471376 0.000112903756 -0.0005565544 -0.03094431
0000c0 63 d9 77 bd 9b fd 49 bd 38 d8 b5 bc 06 3f 40 bd
       -0.06051005 -0.049314123 -0.022197828 -0.046935104
0000d0 58 e0 74 bd 84 a9 84 3c f6 8e a0 bd de 64 c1 bc
       -0.059784263 0.016194113 -0.07839768 -0.023607668
0000e0 1a d6 3c bd 0b 96 89 bd de 1b 8f bd 01 cd a1 bd
       -0.04610262 -0.067180716 -0.06987737 -0.079004295
0000f0 23 24 a9 bd 11 d5 84 bc 99 8e 01 3d b1 8d 82 bd
       -0.08258846 -0.01621488 0.031630132 -0.06374682
000100 17 ce ba 3c d3 e7 3e 3d 24 2d 2a bd 15 81 0f bd
       0.02280335 0.046607804 -0.041546956 -0.03503521
000110 1c 64 0c bd 3a c6 9d bd 92 f7 0d bd 54 84 cd 3c
       -0.03427516 -0.07703824 -0.03465993 0.025087513
000120 8a ed 81 bd ef c9 b6 3c d5 4b 7e bc 4f 0a 83 bc
       -0.06344135 0.022313086 -0.015521009 -0.015996126
000130 f6 70 db bc 1a 8c a7 bd c3 80 87 bd b6 d2 66 bd
       -0.026787262 -0.08181019 -0.06616356 -0.056353293
000140 b6 1a 0c bd 08 d3 91 bd e8 9e 81 bc 12 72 99 38
       -0.03420516 -0.07120329 -0.015822843 7.316856e-05
000150 2b a9 9b bb 67 64 38 bd 5d fd 9c bc 2d e2 3f bc
       -0.004750391 -0.045017626 -0.019163782 -0.011711639
000160 fd 31 5a bb bd c0 6c bd ec 5f e0 bd c1 d7 ce bd
       -0.0033293955 -0.057800997 -0.10955796 -0.100997455
000170 04 ae 83 bd 7b 8d 36 3c b5 85 ab bc f3 fa fc bc
       -0.06429675 0.01114213 -0.02093778 -0.03088138
000180 48 fb 02 be 3f b5 03 3c 52 2a 3f bd 39 0d a7 bd
       -0.12791169 0.008038818 -0.04667122 -0.08156819
000190 b8 aa 6d bd ee 79 60 bd e8 52 cc bc 7c ac c6 bd
       -0.05802414 -0.05480378 -0.024941877 -0.097008675
0001a0 a6 2b 89 bd e6 86 a0 3b 4f aa ba bd 74 c1 18 bd
       -0.066977784 0.0048988936 -0.09114515 -0.037293866
0001b0 a0 ad 60 bd ed 9d a5 bc 5d f1 c6 bc 4a 60 42 bc
       -0.05485308 -0.020216906 -0.024285013 -0.011863777
0001c0 73 f9 83 bc 35 55 e3 3c f4 bf 2a bc 69 4c 95 bd
       -0.016110158 0.02775059 -0.010421742 -0.07289965
0001d0 c8 16 1e bd d3 ba 66 bd 1c ea 8c bd 05 6f 26 bd
       -0.038595945 -0.056330513 -0.0688059 -0.04063322
0001e0 84 f1 6f bd 20 13 1b 3d 57 29 38 ba ce 1e 7e 3c
       -0.058579937 0.037860036 -0.0007025203 0.015510274
0001f0 58 04 1d bd da 58 31 bd e8 88 e3 bb 88 62 9d bd
       -0.03833422 -0.043297626 -0.0069438107 -0.07684809

fc1.weight f4 [10, 128]
000000 f1 eb 79 be 87 6f 36 be 4d f3 51 bb 0d a2 a2 be
       -0.24406411 -0.17815982 -0.0032035888 -0.3176426
000010 77 7d 62 be 8f 93 16 be 45 bd bd 3d 03 2e 06 be
       -0.22118174 -0.14704727 0.09264616 -0.1310349
000020 13 45 5b bc 19 03 ac 3b 94 89 7d be 39 2d 71 bd
       -0.013383168 0.0052493927 -0.24759513 -0.05888102
000030 59 ae 82 3c 3f 32 fa 3d 8f d1 b3 bd c8 b1 07 3e
       0.015952276 0.12216615 -0.087802045 0.13251412
000040 7a c6 43 be 8f 7d 9f bd 98 ff 16 3d 0d e1 f2 bd
       -0.19118682 -0.0778762 0.036864847 -0.11859331
000050 e9 20 a8 be 8d 6b 84 3d f9 47 18 3d e3 c3 35 bd
       -0.32837608 0.06465826 0.037178013 -0.044376265
000060 61 14 55 be 13 f7 1c bd b0 42 33 be 8b a3 e8 3d
       -0.20808555 -0.038321566 -0.17505908 0.11359318
000070 71 49 2d bd 8d 87 84 be 71 2e b1 3d ba a8 57 be
       -0.042306367 -0.25884667 0.08651436 -0.21060458
000080 31 3d 92 bd e6 25 69 bd 93 04 23 be 59 f6 4c bc
       -0.071405776 -0.05692091 -0.15919714 -0.012509906
000090 59 fc 35 be 95 15 77 be 9f 25 72 3d bd f6 1c be
       -0.17772044 -0.24129327 0.05911791 -0.15328498
0000a0 47 de 5e 3d c2 3f c0 bd 80 ef 09 be 4a 84 22 3e
       0.0544112 -0.09387161 -0.13470268 0.15870777
0000b0 99 93 62 3d 7b bf 34 be b4 f1 4f be 7f f6 13 bd
       0.05531654 -0.17651169 -0.20307046 -0.03612375
0000c0 5c 19 73 be 9d 6b e8 3d 50 fe 3f be cf e2 87 3d
       -0.23740143 0.113486506 -0.18749356 0.06635057
0000d0 84 4d 73 bd 74 47 03 bd 36 c3 59 3d fb 0f 28 3e
       -0.059400097 -0.032050565 0.053164683 0.16412346
0000e0 f2 b0 b1 3a b8 fd 78 3d c3 db ee 3d 4c 65 5f bd
       0.0013556762 0.06078884 0.1166301 -0.054539964
0000f0 e7 95 0a bd 62 ec 7f 3d 8f 12 55 3d bb 03 13 3e
       -0.033834364 0.06248129 0.052019652 0.14356892
000100 0f 12 e2 bd 12 9f f1 3d a8 a5 39 be 7c 37 2b 3e
       -0.11038601 0.117979184 -0.18129599 0.16720384
000110 a4 41 67 be b3 46 58 be 88 27 4d be 7b ff 8a bd
       -0.22583634 -0.2112072 -0.20034611 -0.0678701
000120 74 7c 25 3e c2 45 c0 3d 30 27 a7 bd e0 ce f8 3d
       0.16160756 0.09388305 -0.08161771 0.12148833
000130 dd c8 10 3e 63 cc 15 bd 1f 3f a0 bd fa 38 36 be
       0.14139123 -0.03657187 -0.078245394 -0.17795172
000140 39 ab cc 3d 25 8a 83 bc 8a a2 f1 3d 25 b3 0e 3d
       0.09993596 -0.016057083 0.1179858 0.034838814
000150 cc 8e 0e 3e 6c 70 d2 3d e9 44 06 be ca 66 90 be
       0.1392166 0.10275349 -0.13112225 -0.28203422
000160 c2 60 6c bd 48 c6 3a bc b2 25 c0 3d 68 c4 70 3d
       -0.057709463 -0.011399813 0.0938219 0.058781058
000170 0c c5 8d be aa 3e 0f 3d 5a 9b 9b 3d ef f8 e1 bc
       -0.27689397 0.03497187 0.0759799 -0.027584521
000180 f9 b4 5b bd fe ed cf bd ce 4d 4c be 3a 95 57 be
       -0.053639386 -0.10152815 -0.19951555 -0.21053019
000190 3c 5e 93 3d 83 bf fe bd 8b 90 84 bd 2f 72 3d be
       0.07195708 -0.12438872 -0.06472882 -0.18500589
0001a0 7d ba 96 3b 6f fa db 3d 47 ab e6 3c c1 ae 02 be
       0.004599868 0.10741126 0.028157843 -0.12761976
0001b0 2f 44 19 be ba c5 5a 3c c6 cb 4a bd e8 5d 5f 3d
       -0.14967416 0.013352806 -0.04951074 0.054532915
0001c0 91 b0 06 3d dd e4 c6 3d 04 81 89 3c b3 58 1d be
       0.03288323 0.09711621 0.016785152 -0.15365867
0001d0 4b 78 5c 3d c4 10 1c be b0 26 f2 3d 8a 2e 13 be
       0.053825658 -0.1524077 0.11823785 -0.14373222
0001e0 1f ad 68 3d 65 8d 8f bd 16 d6 d9 b8 74 f9 1c 3d
       0.056805726 -0.07009391 -0.00010387243 0.038323835
0001f0 99 1b 8a 3c cf 9d 0a 3d 05 89 13 bd 68 d7 c2 3d
       0.016858863 0.033841904 -0.036019344 0.09513742
000200 dd bd 4c 3d 6e 26 1b 3d cc f7 2e bd 75 93 21 bd
       0.049985755 0.037878446 -0.042716786 -0.039447267
000210 f1 45 df 3d 85 49 cb 3d 4d 6a ca 3d 0a f4 83 be
       0.10902012 0.09926132 0.098835565 -0.25772125
000220 ec 2a cd 3d 6c c7 72 3d 9e f7 0e 3e 2a 00 31 be
       0.10017952 0.059272215 0.13961646 -0.17285219
000230 b9 e9 cb 3d 79 77 07 3e 4e 26 66 be 58 33 24 be
       0.099566884 0.13229169 -0.2247555 -0.16035211
000240 70 cb c1 3d bc fc 5c bd 9c da 6a be 73 8b 96 be
       0.09462631 -0.053951964 -0.22934955 -0.29403266
000250 88 27 1e 3d 39 f4 cc 3c b0 c4 9a bd 6f 65 a1 bd
       0.03861192 0.025018798 -0.075570464 -0.07880675
000260 bd ae 73 bd 7e 1a c8 bd 47 fa 7e 3d 22 8e 4c be
       -0.059492815 -0.09770678 0.0622504 -0.19976094
000270 be da e5 be 40 ed 6e bd d7 6c a0 be 4e c6 6c be
       -0.4489345 -0.058331728 -0.31333038 -0.23122522
000280 bd 1e cf bd 20 67 ac bd 70 6e 46 3c bf 02 80 3c
       -0.10113285 -0.08418107 0.012111291 0.01562631
000290 20 c1 86 3d d5 41 f4 3d f1 ea f8 3d 30 d1 95 be
       0.065798044 0.11926619 0.121541865 -0.2926116
0002a0 4a 39 60 bd 20 58 08 3e c1 9a c6 bd 5c 1c 8f be
       -0.054742135 0.13314867 -0.09697486 -0.27951324
0002b0 cd 7a f8 bd 94 02 71 be 75 dc 8c 3d 7b e6 4e be
       -0.121327974 -0.2353614 0.06877986 -0.20205109
0002c0 9e 23 a7 be 8a b4 e3 be ea fe 9f 3d a7 92 de bd
       -0.3264436 -0.44473678 0.07812293 -0.108678155
0002d0 44 47 dd bd 1f f3 4e 3d 7f 3c d7 3d 0f 5d 51 be
       -0.108046085 0.050524827 0.105095856 -0.20445655
0002e0 e8 6f 5f be f3 fe 87 3d bf 05 f0 bd fa 13 6a bd
       -0.21820033 0.066404246 -0.11719846 -0.057147957
0002f0 90 17 87 be 21 98 a3 bd 50 f6 bc 3d f4 50 6d be
       -0.26385164 -0.07988001 0.09226668 -0.23175412
000300 20 fe f9 3d 22 b4 e7 3d f6 fe 46 be 9e 39 51 be
       0.122066736 0.113136545 -0.19433197 -0.20432135
000310 03 57 4d 3e b2 7f c1 bc 6a 3b dd bd 60 04 8c be
       0.20052724 -0.02362046 -0.10802348 -0.27347088
000320 02 2b a3 bd e6 3d 18 bf 09 c1 f3 bd 4f df 08 be
       -0.079671875 -0.5946945 -0.11902053 -0.13366435
000330 8d 9d 74 be f1 f5 54 3e 08 3e 98 3c 0f eb 51 be
       -0.23888226 0.20796944 0.018584266 -0.20499824
000340 70 b7 4f be 4a 7b e7 3d f7 ab bc 3d 53 18 83 bd
       -0.2028482 0.113028124 0.09212487 -0.06401124
000350 d2 18 00 bc 6c f8 ff bd 19 70 a0 be 75 95 3a 3e
       -0.007818418 -0.124985546 -0.31335524 0.18221076
000360 fc 2b 57 bd 54 69 ab 3a 28 af 26 be 79 39 48 be
       -0.05253218 0.0013077655 -0.16277754 -0.19553174
000370 76 7b 58 bd 43 1b ab bc 16 be f6 bb 3b dc e3 3d
       -0.052852117 -0.020887023 -0.007529984 0.1112599
000380 6c fd a9 b7 58 ba fc bd 56 0d 91 3d 18 da ea 3d
       -2.0264379e-05 -0.1234023 0.07082622 0.11467379
000390 62 b0 cc 3d 39 4a 84 bd 28 73 92 bd 0f 25 29 3c
       0.0999458 -0.06459469 -0.071508706 0.010323777
0003a0 f2 9a 78 bd ae 1b a2 3d dd e4 54 be 08 1e f8 3d
       -0.060694642 0.07915436 -0.2079043 0.12115103
0003b0 cc 0a 5d 3e df 75 8e bd 69 14 35 be eb 40 02 be
       0.2158615 -0.06956076 -0.17683567 -0.12720077
0003c0 78 69 c7 3d 58 58 a6 be 43 bd b9 bc 80 f6 d7 bd
       0.097369134 -0.32489276 -0.022673255 -0.10545063
0003d0 f1 c8 35 be e1 89 bf 3d 21 47 e4 b9 a4 af 2d be
       -0.17752434 0.0935247 -0.00043540544 -0.16961533
0003e0 24 9d 9d bd 7d 2c ea 3d c4 b1 81 bd 4a 2e f1 3c
       -0.07695988 0.11434267 -0.06332734 0.029441018
0003f0 04 aa 1b 3d 68 03 09 3e aa 22 5a bd 4e 1d 9e be
       0.038003936 0.13380206 -0.053255714 -0.30881733

fc1.bias f4 [10]
000000 18 23 8b 3e 05 b9 b2 3e 78 90 50 be f6 bb c8 bd
       0.27175212 0.34906784 -0.2036761 -0.09801476
000010 f0 f6 9c 3e 37 9c d3 3c e1 b8 ed bd fd cf 92 3e
       0.30657148 0.025831325 -0.116075285 0.28674307
000020 a6 32 0a 3c 33 28 88 be
       0.008434927 -0.2659317
