models/model.pth (torch, 378536 bytes, 8 tensors)

conv1.weight f4 [32, 1, 3, 3]
00000000: fd8c a3be 2ab5 adbd 8258 e03e 0379 a1be
00000010: 2632 a3be 92be 0b3f 355d fcbe cf74 babd
00000020: ff4f 5d3d 10e9 f5be 5cd6 7cbe 9e86 493e
00000030: b847 a9be 99f9 2cbf 21dd eb3b 16ff 063f
00000040: c5d4 eebe e5b8 24bf f69a f7bc 8826 723e
00000050: 429a 8e3d 3cf8 5a3d 1b49 763e 5ee5 88be
00000060: e2f3 8a3e 19f0 60bd 3606 0dbe 15d9 853d
00000070: 2f1a 0ebe 8f5d 753e 792c 74be 729d 723e
00000080: 7eee 16bd eda2 4cbe e827 b93e 898e 913c
00000090: 88d0 b03d 4a5c 543e 3101 933e 6bd4 f1be
000000a0: fcec 07bf bb95 babe 5c83 b73e 917e 613e
000000b0: 1d8f 823d c1d4 c1be 9f05 46be bca1 58be
000000c0: ceea bb3c 59eb 9f3e a80e 293d 8aef c23e
000000d0: 9e96 4f3c 0a90 8fbe 549a 2d3e 1f3f 6cbe
000000e0: ad98 a2bd 6ba9 67bd 29e1 c13e 022d 273e
000000f0: 7d82 fdbd 47d7 acbe 4a2e 1bbe 0f5c 8d3e
00000100: d427 f4bd 5c71 733d fe00 3dbe d5fc 39be
00000110: d97e adbd 10e5 563e 017e df3d ab07 2dbe
00000120: 7a3a d13e 4ed5 e03d 20e4 20bc 558f 9e3e
00000130: f0d3 ccbe 79ab 1cbe 1d46 4a3c 60db 9dbe
00000140: d36b 92bd bf38 75be e861 57be 9ecd bebc
00000150: 3a66 aa3d 4d96 b5bd 567c a03e 800a f43d
00000160: 52fc 3ebd 31d0 24be 619c afbe bfab 97be
00000170: 3855 37bd f3f0 7cbe 1d13 f0bc 11f8 12be
00000180: 804b 043e 9109 ea3e 7809 db3e 0c4e 1a3e
00000190: 2347 25be a462 963e 498d acbe f29b d0be
000001a0: 53f4 6dbe 59c0 0c3f 5878 083d d0d5 fd3d
000001b0: 7bbb fe3d 9724 98be fe93 853e a4ac 55be
000001c0: ca07 f8bd c831 a73e 0e9c 473e c7da f93d
000001d0: 8b4c d9be 6d43 833e 9e9e 4f3e f7a9 d83d
000001e0: a9d0 c9be bfe5 853d 23af ed3e 4cc0 f2bd
000001f0: 68a2 b7be 4c37 12bf eaf1 04be 0ebf 2dbe
00000200: fcf0 943e b85b 903e ce1b 9fbe d155 883d
00000210: 76a3 aa3e 0c00 6fbe 1d1a 8dbe 66f5 8fbe
00000220: f291 0ebf 91d9 1bbd 19e1 bebd 20bf 093d
00000230: 7f2e 05be 2465 5b3d 15e7 43be 6312 e33e
00000240: 8792 10be 17b9 a2be b660 8d3e 3202 23be
00000250: e41c c3bd 19e7 aa3e e3f1 f3bb 650c 7c3e
00000260: 22b1 3b3e 0b41 c8be 66fd 5e3e 0454 0b3e
00000270: 7066 463e 3f75 98bc f108 91be 8167 703e
00000280: f6d5 9e3d 6c13 ccbe 9b49 b63d 51af 053d
00000290: 8294 d6be 8dd5 be3e 28bc b93c 6c09 04bf
000002a0: a94b 313e 3087 c73e 4bda febe 4a8b e73e
000002b0: da4b a93e 401b dabc 828b c33e f301 dcbe
000002c0: de79 d8be df70 37bf 4c11 ccbe ef6d 05bc
000002d0: fd74 19be 1a16 2c3e 0b34 bdbe 68a2 a6be
000002e0: ef97 01bf 11dc f5be 6d0a 943d 77c1 dbbe
000002f0: eccf f03e f622 813d d6a7 bf3e 93c1 ab3d
00000300: 1f8e 39be 5ed9 f23d 7d33 ad3e eae4 c6be
00000310: e424 dcbe b9bc 07bd 86ab 9d3d 4118 123e
00000320: 3922 edbe 3f99 ccbe 643c b5bd 2a2d 14bf
00000330: 2219 e2be b8bc a2be 959b 8abe b179 a3be
00000340: eee5 d7bd 39a2 243e 31da 5fbc 2a59 353e
00000350: c63c 43be 41a8 4a3e 6520 713e 24e3 1f3d
00000360: 523b 78be f22e 18be 5a4a 293e bcca 823e
00000370: 31dd 3c3e 2290 003e 318e 01bd c14b 31be
00000380: d1d9 223b 2f55 8c3e 874f 3f3d 26cb 26bf
00000390: 229b 0f3e d0ec 11bd d728 b7be a37d d43d
000003a0: 4066 1bbf 76ab 5bbe 8994 5cbe 8368 2b3e
000003b0: ad24 a03d 8756 84be e320 35be f6aa 823e
000003c0: d676 0dbe 63ed aabd 22f3 933e cdb0 1c3e
000003d0: 0827 a4be e051 d3be 094b a73e 09b1 773e
000003e0: fba5 d9be 3013 bcbd 2120 e73e 1194 aa3d
000003f0: 2548 a53e 2ac6 cabe 9dfe f8bd d93b 713e
-0.31943503 -0.0848182 0.43817526 -0.31537637 -0.31874198 0.5458766 -0.4928986 -0.09104311
0.05403137 -0.48029375 -0.24691147 0.19680259 -0.3306253 -0.67568356 0.0071979915 0.5273298
-0.46646705 -0.64344627 -0.030225258 0.23647511 0.06963016 0.05345939 0.24051325 -0.26737493
0.27139193 -0.054916475 -0.137719 0.06535546 -0.13877176 0.23961471 -0.2384509 0.23692873
-0.036848538 -0.19984026 0.3616326 0.017768161 0.08633524 0.2073833 0.28711846 -0.47232375
-0.53095984 -0.3644236 0.35842407 0.22020938 0.06374953 -0.3785763 -0.19338082 -0.21155447
0.022939112 0.31234244 0.041273743 0.3807338 0.012670187 -0.2803958 0.16953403 -0.23070954
-0.07939277 -0.056558054 0.37867096 0.16325763 -0.12378404 -0.33757994 -0.15154377 0.27609298
-0.11921659 0.05943428 -0.1845741 -0.18162854 -0.0847146 0.20985818 0.10912705 -0.16897456
0.40864927 0.10978185 -0.009820014 0.3096873 -0.40005445 -0.15299787 0.012345818 -0.30831432
-0.07149472 -0.23947428 -0.21033442 -0.023291405 0.083202794 -0.08866558 0.3134486 0.11916065
-0.04662735 -0.16095044 -0.34298995 -0.2962322 -0.044759005 -0.2470129 -0.029305989 -0.14352442
0.12919426 0.45710424 0.42780662 0.15068835 -0.16140418 0.29372132 -0.33701542 -0.40743977
-0.23237734 0.54981 0.033317894 0.12394297 0.12438103 -0.29715416 0.26089472 -0.20866638
-0.12110861 0.32655168 0.19493124 0.121999316 -0.4244121 0.2563738 0.20275351 0.10579293
-0.39417008 0.06537961 0.4642268 -0.11853084 -0.35866094 -0.57115626 -0.12982908 -0.16967413
0.29090106 0.28194976 -0.310759 0.06656993 0.33327836 -0.23339862 -0.27558985 -0.28116912
-0.55691445 -0.038049284 -0.09320278 0.033629537 -0.13006018 0.053563252 -0.1913112 0.44349965
-0.14118396 -0.31781837 0.27612847 -0.15918806 -0.09526995 0.3337944 -0.0074446066 0.24614103
0.1832929 -0.39112124 0.21776351 0.13606268 0.19375014 -0.018610595 -0.28327134 0.23476984
0.077556536 -0.39858568 0.08900758 0.032637898 -0.41910177 0.372723 0.022672728 -0.51576877
0.17314018 0.38970327 -0.4977592 0.45223457 0.33065683 -0.026624322 0.38192374 -0.42970237
-0.42280477 -0.716566 -0.39856946 -0.008143886 -0.14986034 0.16805306 -0.36953768 -0.3254578
-0.5062246 -0.4801946 0.07228551 -0.4292104 0.47033632 0.063054964 0.37432736 0.08386531
-0.18120621 0.11857866 0.33828345 -0.38846523 -0.42996895 -0.033138964 0.07698731 0.14267065
-0.46315172 -0.39960667 -0.08849409 -0.57881415 -0.441598 -0.31784606 -0.27071825 -0.3192878
-0.105419025 0.16077508 -0.013662861 0.17709795 -0.19066152 0.19790746 0.23547514 0.039034978
-0.24241379 -0.14861658 0.16532269 0.255453 0.18443753 0.12554982 -0.031629745 -0.17314054
0.0024849067 0.2740874 0.046706703 -0.6515373 0.14024022 -0.035626233 -0.35773346 0.10375526
-0.60702896 -0.21452126 -0.21541037 0.16739087 0.07819495 -0.25847265 -0.17688327 0.25521058
-0.13814864 -0.08346059 0.28896433 0.15301819 -0.32061028 -0.41273403 0.32674435 0.24188627
-0.42509446 -0.09183347 0.451417 0.08329023 0.32281604 -0.39604312 -0.12157939 0.23557986

conv1.bias f4 [32]
00000000: 0a96 80be d880 bf3c 11a7 e1be e627 f2be
00000010: fc03 1fbe 2304 01be d9f8 b5bd 2a30 53be
00000020: 260c 04be 9c87 0bbe 6327 01be 0250 adbe
00000030: d9b6 80be 7383 e0bd c73c c2bd f33c b6be
00000040: 3314 02bf 488d e4bd ff13 1dba bdbd 8bbe
00000050: dd89 b4bd 9045 9bbd d3d9 b73e 5a76 27be
00000060: 6e64 81be 2d79 593e e42b 9bbe c120 79bd
00000070: 3afc 6cbe 1a43 eabe 8d76 a4bc 926d d4bd
-0.2511447 0.023376867 -0.44072774 -0.47296065 -0.15528864 -0.12599234 -0.088853545 -0.20623842
-0.1289526 -0.1362595 -0.12612681 -0.33850104 -0.25139502 -0.10962572 -0.094842486 -0.35593376
-0.5081207 -0.1115976 -0.00059920544 -0.27293196 -0.08815358 -0.07581627 0.35908374 -0.16353741
-0.25271934 0.21237631 -0.30306923 -0.060822252 -0.23143092 -0.4575432 -0.02007606 -0.103724614

conv2.weight f4 [64, 32, 3, 3]
00000000: f6d2 6cbd 0161 f2bc ae06 4abe aa6d 2e3d
00000010: be09 013e b307 89bd 8736 163d 747a 32bd
00000020: 409a 9ebb c4c8 56bd 4b72 a9bd 54bf b5bd
00000030: 395f ba3d 66b1 cdbd 2a0e 19be a2a7 ab3c
00000040: b11d 2ebd c61f 18be 5b1c 893c 7cbe 053d
00000050: 0152 76be 4c0a 2fbd 885f 83bd b1b5 513d
00000060: 2b6b 41be 7433 38be 2001 1ebe aea8 b43d
00000070: aedc 73bd 5469 3fbe 0245 3ebe 6693 a43c
00000080: bb47 e8bd 4825 91be 6f94 a4bd fed9 67bd
00000090: 04be fbbd 8e0d 893c 6191 9f3e 5787 86bd
000000a0: 43e4 abbc 65ec 173d d0ad a73d 3f94 353e
000000b0: 8816 8a3e 4b7c d8bd f119 04bc 3278 393e
000000c0: 5ae7 56be 2e46 4c3d b8bc 2b3e e4e6 14be
000000d0: 27db 3bbd e19d cabd c355 09be be52 c53d
000000e0: d5d5 0f3d c18c 633d 72c3 43bc d334 023e
000000f0: fd73 f5bc dc0f ffbc 213b 84bd 1c0a ecbd
00000100: 8bf3 81bd b7b5 b43c 8e4a b9bd 02be 9fbc
00000110: 0631 c13b 3179 94bc 6e52 99bd cdf6 5d3a
00000120: e958 5abd 7d4f 093e a177 6a3d 5bcf 16bc
00000130: 9441 4cbb cf1d 193e 16ea 9b3d e422 81bb
00000140: 4b5c 293e f653 15be acf8 a0bd 51a7 ac3d
00000150: 44bc c1bd 5b93 163e 8263 a73d a0ad 58be
00000160: c700 2abe 954f 73bd 142a 03bd a9d8 013e
00000170: c336 713e 58a7 8ebe c938 c53d 0dd6 103d
00000180: 3095 61be 01bf 133d 2043 703e 96fb 34be
00000190: 7bb2 85bd f1e9 313e abff 7bbe f430 1ebe
000001a0: ad26 313d 8df8 84bd a02d 38bd 7e0e 6a3d
000001b0: 2c67 2abd 140c debd 21c9 93be 1a49 82bd
000001c0: dbb5 183d ed9b 6cbc 5e20 ccbd c16b dcbd
000001d0: 3553 f8bd 7352 cd3c 1946 953d 8075 8dbd
000001e0: 89e7 1f3e 1a44 0f3e 28ad 823e c751 913d
000001f0: 8f70 9d3d 7028 54ba 8ce0 aa3d 7e67 3bbb
00000200: de46 47be 37ab 9f39 6b2b 413c 7c4c 8fbd
00000210: 4a64 8cbd 599a 15be cbb2 6dbe c91f b7bd
00000220: 78af d63b 9d43 643e be7a 69be 2e22 2e3d
00000230: 7468 11bc eaa1 1bbd 19a3 c6bc 2ea0 a23d
00000240: cf66 14bd 7649 3ebd 3fdd 67bd 14cc 84bd
00000250: 6cd4 0d3d bf3e 1fbd 1858 54be 3148 59be
00000260: 4eca 34bc 6b91 78bd eb6e 163d 1fb1 14be
00000270: 3231 60bd 6557 37bd 4a0f 43bd a09f cabd
00000280: fb40 8dbd 8f3e 8dbc 4ac9 6bbd da54 103d
00000290: b368 68bd 99c6 cebd 2a84 d8bd 3381 90be
000002a0: 1292 45bd cd4c 30be 3a4f 4bbe f7c0 8ebd
000002b0: ba22 163e 99c7 1a3e 6a25 403c 6574 a43c
000002c0: 1c1d 5b3e 7c15 073e 706f c83d 5d3d 953e
000002d0: f2b4 c63c 9b08 ac3d cdd2 f83d 8c7b 9abd
000002e0: 9394 883c 174b 47be a5fd f93d 8d94 c63d
000002f0: dadd 9a3e 5c6d cebc c789 73bd 51f2 47be
00000300: 168c 233d d2ba 0b3e dd34 9b3d 9504 653d
00000310: 66b7 70bd 7b1e f33c a26c 41bd 6484 0bbd
00000320: 7e42 adbd 799f 163d 0a91 45bd bbda 9cbe
00000330: faa9 df3d 18ad df3d 0230 933d a15b 57bc
00000340: 378f 20bc 4080 123e fd2d 38be fcd9 99bd
00000350: 3d23 29bd e0c2 9abe b748 c9bd 10f5 edbd
00000360: 61c7 aab9 7e28 5cbd 37bf b2bc e01f ddbd
00000370: 009f c83d 037e e33d 7205 8cbe a645 40be
00000380: 5f57 0fbe a9ff 2fbe d225 363d e2be d53c
00000390: b279 82bd f351 2abe 6f36 73be e28a 4b3d
000003a0: 2451 f8bb f0cf 28ba 4ff0 04be f383 30be
000003b0: ba8e 84be eb9b 2b3c 791f 10bd a0f6 f2bd
000003c0: 1de3 11bd 9dc7 24be de20 13bd abdd 8cbd
000003d0: 8dc3 ca3d 948e df3d f6ee 92bd befc e03c
000003e0: 18dc 99bd c364 0bbe ded6 24be 3709 46be
000003f0: 5961 2ebe e1e4 623d 50eb 1ebe d268 a2bd
-0.057818376 -0.02958727 -0.1972911 0.042585053 0.12601373 -0.06690922 0.036673095 -0.04357381
-0.0048401654 -0.05243756 -0.08273753 -0.088743836 0.091001935 -0.10043602 -0.1494681 0.020953957
-0.042508785 -0.1485587 0.016737154 0.032652363 -0.2405472 -0.04273443 -0.064147055 0.051198665
-0.18888538 -0.17988378 -0.15430117 0.088212356 -0.05953663 -0.18692523 -0.18581012 0.020089816
-0.113418065 -0.28348756 -0.08036124 -0.056604378 -0.12292102 0.016730096 0.31165603 -0.06568783
-0.020982867 0.037090678 0.08187449 0.17732333 0.26970315 -0.10570582 -0.008062826 0.18112257
-0.20986691 0.049871616 0.16771209 -0.14541203 -0.045863297 -0.09893394 -0.13411622 0.096349224
0.035116035 0.055554155 -0.011948453 0.12715463 -0.029962534 -0.031135492 -0.064565904 -0.11525366
-0.0634528 0.022059305 -0.09047423 -0.019499782 0.0058957366 -0.018124195 -0.07486425 0.0008467257
-0.053307448 0.13409229 0.057242993 -0.009204711 -0.0031167017 0.14952777 0.07613008 -0.003940927
0.16539113 -0.1458281 -0.078599304 0.084303506 -0.09459737 0.14704649 0.081732765 -0.21159983
-0.16601859 -0.059402067 -0.03202255 0.12680306 0.23556046 -0.27862048 0.096299715 0.035360385
-0.22029567 0.036070827 0.23463106 -0.17674097 -0.06528183 0.17374398 -0.24609248 -0.15448362
0.043249775 -0.0649272 -0.044965386 0.057142727 -0.0416023 -0.108421475 -0.28864387 -0.06361599
0.037282806 -0.0144414725 -0.09967111 -0.1076274 -0.121252455 0.025063729 0.07288761 -0.06907177
0.15615667 0.13990822 0.25522733 0.07095676 0.076874845 -0.0008093184 0.0834361 -0.0028595622
-0.19460627 0.00030454408 0.011790137 -0.0699701 -0.06855066 -0.1460966 -0.23212735 -0.089416094
0.006551679 0.22291417 -0.22800729 0.042513065 -0.008875001 -0.03799621 -0.024247693 0.07940708
-0.03623086 -0.046456777 -0.05660748 -0.06484237 0.03462641 -0.0388782 -0.2073673 -0.21218945
-0.011034561 -0.060685556 0.036726873 -0.14520691 -0.054734416 -0.04476108 -0.047622003 -0.09893727
-0.0689716 -0.017241744 -0.05756501 0.03523717 -0.056740474 -0.10096473 -0.10572083 -0.2822357
-0.048235007 -0.17216797 -0.19854441 -0.06970399 0.14661685 0.15115203 0.01172767 0.020075032
0.21397823 0.1319179 0.0978688 0.2914838 0.024256203 0.08400079 0.12149582 -0.07543096
0.016672408 -0.19462238 0.12206582 0.096963026 0.30247384 -0.025198631 -0.059457567 -0.1952603
0.03992852 0.13645485 0.07578442 0.055912573 -0.058768652 0.02967762 -0.04722274 -0.034061804
-0.08459948 0.03677318 -0.048234023 -0.30635628 0.10921092 0.10921687 0.07186891 -0.013144405
-0.00979977 0.14306736 -0.17986293 -0.0751228 -0.04129337 -0.30226803 -0.098283224 -0.116190076
-0.00032573476 -0.053749554 -0.021819694 -0.10797095 0.09795952 0.11108019 -0.27347904 -0.18776569
-0.13998173 -0.1718737 0.044469662 0.026091997 -0.06370868 -0.16632824 -0.23751234 0.049692996
-0.007578032 -0.00064396765 -0.12982295 -0.17237835 -0.25890142 0.010474185 -0.035186265 -0.11863446
-0.035616983 -0.16091771 -0.035920016 -0.06878217 0.099005796 0.109158665 -0.071744844 0.027464267
-0.07512683 -0.13612656 -0.1609759 -0.19339453 -0.17029323 0.055394057 -0.15519452 -0.07930149

conv2.bias f4 [64]
00000000: a7f3 d33b fae4 58bd a697 63bc 73e7 4cbc
00000010: 5371 743b 9d7e 1dbd a848 bb3d e04c 7fbd
00000020: 8c43 11bd 17c1 8eba 832f a1bc 01ea 28bd
00000030: fcee d0bc 2a9c 6abc 714b a9bd 9b0e 58bd
00000040: ee5b 793c 307f 69bc 4a41 84bd e8ec ecbb
00000050: 76cf 21bd d128 a2bd e15f 83bd bc3e ac3c
00000060: 6443 c1bc 8096 a1bd b155 c1bc 6f73 b1bd
00000070: 6b54 e9bd 1f2e d9bd 58f0 1f3d d70f e2bd
00000080: 7a23 e8bc 8cd3 1abd 6018 fc3c 2388 3c3d
00000090: 2e98 aebd ae11 d0bc ce10 e4bc 465b 12bd
000000a0: 2733 ebbc 5d7d b23b 006d fbbd 6bb7 81bd
000000b0: 6074 c7bd f56b 07bc 01f8 b5bd 06fd 2fbd
000000c0: dc5a 74bd 15e9 cbbd 7378 34bc 3640 a0bd
000000d0: 949d eebd 5d9a 31bd c25e 2abd 9c82 e8bc
000000e0: 4ab8 aabd e246 c43b 8e98 8ebd d684 6abd
000000f0: 7860 afbd 41a7 09bd 1e60 21bd 5e4c b5bb
0.0064682546 -0.052952744 -0.013891136 -0.012506354 0.0037298992 -0.038450826 0.091447175 -0.062329173
-0.03546481 -0.0010891285 -0.019675976 -0.04123879 -0.025504582 -0.014319459 -0.082663424 -0.052748304
0.015219672 -0.014251515 -0.064577654 -0.00723039 -0.03950449 -0.07917941 -0.06414772 0.021026008
-0.023591705 -0.07890034 -0.023600431 -0.08664595 -0.113930546 -0.106045 0.03904757 -0.110381775
-0.028337229 -0.037799403 0.030773342 0.046028268 -0.0852512 -0.025399055 -0.027840044 -0.035731576
-0.028710915 0.0054470734 -0.122766495 -0.06333812 -0.09738994 -0.008265485 -0.088851936 -0.04296591
-0.059656963 -0.09956566 -0.011015045 -0.07824747 -0.116511494 -0.043360103 -0.041594274 -0.028382592
-0.083359316 0.005989895 -0.06962691 -0.05725559 -0.08563322 -0.03360677 -0.039398305 -0.0055327853

conv3.weight f4 [128, 64, 3, 3]
00000000: 4a74 0f3e 69f8 5a3d fcd5 e5bd bd0c d3ba
00000010: 70f5 733d 6f27 5cbd 4694 033e 0d4f c4bc
00000020: d20c a4be d9da ccbc 9927 523c a225 15bd
00000030: a98e 19be 6e09 eabd 378d 173d 875c 48be
00000040: eeca 6bbe 2f49 e6bd 53f1 dfbd 7da0 07be
00000050: 80bc c5bc 6d00 4b3d 0925 07be c0c3 123e
00000060: 78b8 eebd 4d6b 89bd c07a 8c3d 2be5 60bd
00000070: 1b0a c13a e199 3b3d baa6 28be 4fd1 50bb
00000080: 173a 613d 65e5 94be b04e ea3b 2000 07bd
00000090: 82ce 18be c567 90bd 13ee c6bd 25f8 273d
000000a0: b32b 5bbd 1b31 adbd d7e9 613c 08a3 f23d
000000b0: 7146 0abe 0862 20be a320 95bd 5d1c e3bd
000000c0: f26c b8bd c921 08be 090a aabd 2e45 71bc
000000d0: 917f 47bd 8e0d 8fbe 2190 27be b776 91be
000000e0: e56e 263d 3e91 c6bd c357 59be b59b 9ebd
000000f0: 3273 4cbd a8f7 8dbc afb2 073e 0256 14bc
00000100: 4be3 cd3c b058 2abe 6263 e4bd 6290 07bd
00000110: 3a65 1f3d beb6 803c 4dfc 2e3c 1ecf a73d
00000120: fa1d 803d e60b 1e3e bd53 103e 8fe1 d4bb
00000130: 8593 673d f6b1 823d 99e0 0fbe 69a9 433d
00000140: 0809 3c3e a459 a6bd 8330 79bd 78ea 6abd
00000150: 8132 40bd 7632 2d3d cf49 6cbd fcfc 4fbe
00000160: 8d06 64bd 05ec f73c 82d1 a7bc a55f 303d
00000170: bad4 24bc ad99 c3bd ff6c 24bd 2ef0 09bc
00000180: 80a4 1ebe 59ce 693d 1c7b 993d e169 6dbd
00000190: 323e b4bc 15fb edbd cbd2 e33c a757 c3bd
000001a0: af12 d43c a6dc adbc c50e 39be 5413 2cba
000001b0: 24d8 70bd 7b7a f9bd 29ff afbd cb05 24be
000001c0: 3f64 00bd 5791 0b3d 1458 9d3c 6954 99bd
000001d0: 1d0f 853b 7a70 03bc 8ed1 233d bde4 02bd
000001e0: c0c5 18be 8eab bdbc 1c5e f7ba a2bf 68bd
000001f0: d15d 523c 637d 563c 053a 1c3d 499d 92bd
00000200: b5b0 f0bd 7a98 60bd ef10 083e 9353 f7bc
00000210: 3ec4 cabd b2f0 27be fc89 a4bc afb7 d3bd
00000220: 31c2 633d c6a6 0e3d 0d7f 03be 1519 a63c
00000230: e709 123d 583f 5abe a0e9 84be 7b03 0fbe
00000240: 7a3c 0a3e 634f 653d 50b3 7ebd 248d 1a3c
00000250: a5e5 bdbc 19c0 84be a3ff debd db26 95bd
00000260: ab04 64be 4f99 0e3d 7656 923b a0ba 453e
00000270: 9dcd 913c e724 143e 86f1 503d 3aef ffbd
00000280: 2ee1 e9bd 2286 863d 05d6 063d 5c7b bdbb
00000290: b49b 983d 981c f1bc 1c68 293d f81b c73c
000002a0: 8a2e 85bc b70c 633c dc7a 903c 4b56 91bc
000002b0: 3cc6 d6bb 4a06 f8bc 0f54 8c3c 9b3a 74bb
000002c0: e27b a8bc f1e5 4cbc dd06 94bc 72f9 993c
000002d0: 1207 20bd d515 3dbd 4915 183d a439 aabc
000002e0: e5a0 e9bc bb76 8d3a 873e bfbd 1fb8 83bd
000002f0: 3ee7 55bc e275 2abb 9c21 713c ead5 4dbb
00000300: 1377 3abe 3bf3 ecbd 683a 0e3d 723e 84bd
00000310: 0d02 283c 499f a13d 1c5a 1fbe 6df2 6ebd
00000320: fe8b d03c 4325 6abd 3724 8f3d 1b59 443e
00000330: ab3b a9bd ea80 563d 80be 0c3d 4e52 e1bc
00000340: 05dd f5bd 5d76 59be 9a18 50bd a207 20be
00000350: de22 6e3c 262f afbc cf18 a13d e278 4cbe
00000360: 18a9 fb3d 0588 233e 6df6 153d 1e36 b73d
00000370: 89ad e53c 05c7 663c 47e6 223e 3cf8 ce3d
00000380: f619 e6bd 298b 123d 35a4 6e3d 43b7 32bb
00000390: f7b3 55bc 4b74 e6bc d8f5 3abb 99f1 c6bb
000003a0: 0846 65bc 5fbe 8bbd 9fc3 12bc 20f7 4f3c
000003b0: 68f4 9c3c 1bbf 16bd eb0d 043b 5ce4 c53b
000003c0: 158a 2bbc 0de1 28bd 51c7 193d 6a49 653d
000003d0: 2419 a7bd 9cc0 acbd 4bda 653c 2d56 28bd
000003e0: 87c2 bfbd 3736 453d 2638 c83d ba8c 30be
000003f0: a32c 2e3e 4b11 253e afef 973c d7ef 103e
0.14009205 0.05345956 -0.11222455 -0.0016101819 0.05956024 -0.053748544 0.1284953 -0.023963476
-0.3204103 -0.025006698 0.012826824 -0.036412843 -0.14995827 -0.1142758 0.036999907 -0.19566546
-0.2302663 -0.112444274 -0.10934701 -0.13244815 -0.024137735 0.049560953 -0.13197722 0.14332485
-0.11656278 -0.06709919 0.0685935 -0.05490605 0.0014727743 0.045801047 -0.16469851 -0.003186304
0.05498704 -0.29081264 0.0071504936 -0.032959104 -0.14922526 -0.070510425 -0.09713378 0.041008133
-0.05350847 -0.08456632 0.013788662 0.11847502 -0.13503434 -0.15662396 -0.072816156 -0.11089394
-0.09005155 -0.13294138 -0.08302695 -0.014725966 -0.04870564 -0.2794003 -0.16363575 -0.28410885
0.0406331 -0.096956715 -0.21224885 -0.077445425 -0.049914546 -0.017330006 0.13251756 -0.009053709
0.025132796 -0.16635394 -0.11151768 -0.03309668 0.038914897 0.015712138 0.01068027 0.08193801
0.062557176 0.15434226 0.14094444 -0.0064966152 0.05653717 0.063815996 -0.14050521 0.047768984
0.1836282 -0.08122566 -0.06083728 -0.057352513 -0.046923164 0.04228445 -0.057687577 -0.2031135
-0.05567031 0.03026391 -0.020485643 0.043059964 -0.010060484 -0.09550796 -0.04014301 -0.00841908
-0.1549244 0.057081554 0.074941844 -0.057962302 -0.022002313 -0.11620156 0.027810475 -0.09538203
0.025887815 -0.021223377 -0.1807204 -0.00065641594 -0.058799878 -0.121815644 -0.0859359 -0.16017835
-0.031345602 0.034074154 0.019207038 -0.07486803 0.0040606395 -0.008022422 0.03999477 -0.031956423
-0.14919186 -0.023153093 -0.0018872651 -0.05682338 0.01283975 0.013091418 0.03814127 -0.07158906
-0.11752454 -0.054832913 0.1328771 -0.030191218 -0.099007115 -0.16400412 -0.020085327 -0.10337769
0.055605117 0.034827016 -0.12841435 0.020275632 0.035653975 -0.21313226 -0.25959492 -0.13966171
0.13499632 0.055983912 -0.062182724 0.009433065 -0.023180792 -0.2592781 -0.108886026 -0.07282802
-0.22267406 0.034814175 0.0044658734 0.19309473 0.01779824 0.14467202 0.051011585 -0.12496801
-0.11419903 0.065685526 0.03291895 -0.005782528 0.07451573 -0.02943258 0.041359052 0.024305329
-0.016257543 0.013858012 0.017636709 -0.017741343 -0.006554393 -0.030276436 0.017129926 -0.0037266377
-0.020566884 -0.012505994 -0.018069679 0.018795703 -0.039069243 -0.0461634 0.037129674 -0.020779438
-0.028519103 0.0010792831 -0.09338098 -0.06431603 -0.013055621 -0.0026010205 0.014717486 -0.003140802
-0.18209486 -0.1156983 0.03472367 -0.06457223 0.010254395 0.07891709 -0.15561718 -0.058336664
0.025457378 -0.05716444 0.06989329 0.19174616 -0.08263334 0.052369036 0.034361362 -0.027505066
-0.12005047 -0.21236558 -0.050804712 -0.15627912 0.01453468 -0.021384787 0.0786606 -0.19967988
0.122881114 0.15969856 0.036611963 0.08945869 0.02803685 0.014085536 0.15908156 0.10105941
-0.112354204 0.035777245 0.05826207 -0.0027269877 -0.013043395 -0.028131625 -0.0028527882 -0.006071281
-0.0139937475 -0.0682342 -0.0089577725 0.012693197 0.01915951 -0.036803346 0.0020149897 0.0060391854
-0.010469933 -0.04123025 0.0375436 0.055978216 -0.08159092 -0.08435175 0.014029096 -0.04109781
-0.09363275 0.048147406 0.097763345 -0.17241183 0.17009215 0.16119878 0.018546907 0.14153992

conv3.bias f4 [128]
00000000: b16d 0bbe 4b41 57bd f095 6cbd f90e 96bd
00000010: dd36 24bd 9f4a de3c dea5 19bd d83f 3abd
00000020: 19c6 f4bd 38d8 dfbc 8955 3cbd 14a2 92bc
00000030: a6e6 2abd d10e 85bd 367b 14bd 94e7 51bd
00000040: e588 93bd 5bc7 bab9 3e73 b3bd bebd a13c
00000050: 1b9c dabd 9c1d 03be f730 c5bd d06c ebbc
00000060: e1c6 89bd e5c1 ccbd db69 17bc 00be babd
00000070: 7410 b7bd fe5a 88bd e613 23bd 5590 9fbd
00000080: 0a20 fbbc e5a1 6d3b 682d 16bd 3058 4dbd
00000090: 5252 afbd ae8c a4bd 3481 133c b0cd 63bd
000000a0: e8a1 b8bc 05e2 51bd dd2a 4fbd c09d 1abc
000000b0: 0064 bc3c 5a96 1e3c 7d70 02bd d8bb 753c
000000c0: ad95 cabd 889d 37bd 31a2 12bd 4428 fd3a
000000d0: 4126 a0bd e42d 29bc 8fed acbd c091 87bd
000000e0: 3813 97bd 1e14 97bc fc81 2bbd d6ee b9bc
000000f0: 5955 c4bc 89ed 103c 2ac8 57bd d331 1c3d
00000100: 33ee c7bd 4e1b 8fbd dd25 92bc b26d 913c
00000110: 3261 573a bddd 62ba 7672 45bd f16d cebc
00000120: 5ac5 003c 7b66 803c 5b5e 8bbd 30fc 033c
00000130: a442 0ebd 54b8 b6bc e6fb 73bd f443 a3bd
00000140: e388 5d3d fd01 9cbd 3bb0 543d 3085 bbbd
00000150: 514c 6bbd 0c25 e0bd ca3d 56bd 0f3e 8ebd
00000160: ec19 22bd b5fb 183c 9c01 e43b cc75 e8bc
00000170: 6b6f 34bd 70ee 10bc 46fd a4bd f49f 29bd
00000180: a876 86bd 1ce7 d7bd c44a 32bd 6977 47bb
00000190: 986a f6bd 596a 193c a97b a23c ecf8 aebd
000001a0: 3eaa 17bd 1335 433c 1b88 dabc 8b85 b6bd
000001b0: 6180 083b 9830 89bd b2da e4bd f428 bebd
000001c0: 5cf1 84bc 5643 ecbd 02d0 a0bd af20 d4bc
000001d0: 43ce fbbb ec88 2dbd 98cb 583b 14c5 27bd
000001e0: 1046 043d 915d 94bd b413 3abd a7b6 e6bc
000001f0: e545 2abd 6aeb 3b3c aa89 64bd 4e4f 193c
-0.13616063 -0.052552503 -0.05776018 -0.073270746 -0.040091384 0.027135191 -0.0375117 -0.045471042
-0.11951847 -0.02732478 -0.04598001 -0.01789955 -0.04172387 -0.06496967 -0.036250316 -0.05124624
-0.07203845 -0.00035625216 -0.08762215 0.019743796 -0.10674306 -0.12804264 -0.0962848 -0.02873841
-0.06727386 -0.0999792 -0.0092415465 -0.09118271 -0.08938685 -0.066579804 -0.0398139 -0.07791201
-0.030654926 0.0036259827 -0.036664397 -0.05013293 -0.08560623 -0.08034645 0.009002972 -0.05561608
-0.02253814 -0.05124094 -0.050577987 -0.009437025 0.022996902 0.009679401 -0.03184556 0.014998399
-0.0989183 -0.044827968 -0.03579921 0.0019314368 -0.07819796 -0.010325883 -0.08443748 -0.066195965
-0.073767126 -0.01844221 -0.04187201 -0.022696894 -0.023966478 0.008845695 -0.052681126 0.038133454
-0.0976223 -0.0698763 -0.01784032 0.017752502 0.00082160824 -0.00086542574 -0.04820486 -0.025198909
0.007859552 0.015673866 -0.06805106 0.008055732 -0.034731522 -0.022304691 -0.0595664 -0.079719454
0.054085623 -0.07617567 0.05192588 -0.09156263 -0.057445828 -0.10944566 -0.05230502 -0.069454305
-0.039575502 0.009337355 0.0069581997 -0.028376482 -0.04405157 -0.00884591 -0.080561206 -0.04141231
-0.06565601 -0.105421275 -0.043528333 -0.0030436164 -0.1203205 0.009363734 0.019834356 -0.08543572
-0.03702759 0.011914509 -0.026676228 -0.0891219 0.0020828473 -0.06698722 -0.11174525 -0.09285155
-0.01622837 -0.11536281 -0.07852174 -0.025894491 -0.0076845004 -0.042366907 0.0033080336 -0.040959433
0.03229338 -0.07244409 -0.045428947 -0.028163267 -0.041570563 0.011469701 -0.05579535 0.009357287

fc1.weight f4 [10, 128]
00000000: 9766 cdbe d921 e53d 24bc 27be ed7e be3c
00000010: 5b5b a63b f2ad 5bbe 8356 07bd a996 88be
00000020: e20d 7dbe bb81 d53d 9024 963d fb7a 34be
00000030: 9198 2abe c2da 81bd 0d32 2fbe e370 a1be
00000040: 2846 5ebe 91cf 4a3d afa1 e6bd b217 25bd
00000050: 6868 90be f099 d7bd 689c f0bc a92c 79be
00000060: 41f8 9e3d 75df a9bd 6ece cb3d 8a99 08be
00000070: 968c e93c 9bbf 8d3d dc85 da3d 66f0 0fbe
00000080: 5fb6 b03c f634 a2bd b1d0 623d 5c84 183d
00000090: 590c 38be 58d7 42be 0def 0b3d 9276 b2be
000000a0: 8ea0 4ebe 0f4e 17be f7b6 78be 6b2f 873d
000000b0: ccaf c7bb f861 2f3d 273a 82be a95e c33d
000000c0: 5429 b13c f0c5 f73d b501 a6bd 9fc7 5abd
000000d0: f6bb 1ebd f5a1 93bd 3092 a3bd 8833 13be
000000e0: c662 abbd 7041 93be daa8 b73d 3693 503d
000000f0: 5532 cf3d 1c77 323d 78df e3bc be82 d63d
00000100: 9bde 66be 5533 f83d b6c6 ccbd abdb 1dbd
00000110: 1d0d 423e 8edd 9f3d 3268 1fbe 24f6 ff3d
00000120: 5080 e63d c8ce fe3b 8795 34be 4aa8 d5bc
00000130: 896e 25be acf1 bf3d b578 28be 6aa6 95bc
00000140: 31ff c73d 8c77 003e 55ee 283e f6fd 1cbd
00000150: f4ce dbbd 7c93 6ebe 3f98 eebd 3200 fcbd
00000160: 9ff9 073e 0b8e 0fbd acbc eb3c 879c ba3d
00000170: a70a 773d 03dc 733b 108b 6ebd c8ee 19be
00000180: a8c3 8dbd 597b e2bc 8e41 cb3d fb41 abbd
00000190: 4d0f 9e3d 1d75 a0bd 46ba 503d 4224 3abd
000001a0: ae3c aa3d 0572 fdbc fb45 18be 7a38 40be
000001b0: 1bb9 d63d b285 33bd 9a41 e2bd ae7d a8bd
000001c0: bf33 b83d 381a 9cbe de27 f83b 48e2 093e
000001d0: 5ebb b23c 9044 9abe c5a8 283d 82ae e13d
000001e0: 51df 323c ec86 013e 41aa 603d fb59 b53d
000001f0: 676b 473d e20f a93c c69f 033d cbc8 11be
00000200: d80d 45bd e8e9 76be 955d 2abe 8b53 f8bd
00000210: 6493 c0bc 3fc5 e53d 4bfc 13be 57aa ae3d
00000220: 6695 d33d ae6f aabd acda 81bd e8a4 dfbe
00000230: cdea 3a3d 0c99 5b3c 0875 243e da3e f03d
00000240: 6614 8a3c b1ab f1bc c07a 0bbe 94fc e63d
00000250: 99a0 ffbd 682d 1dbe 7211 7c3d c9ab 7bbd
00000260: 453c b3bd 3f37 a93d 6847 2f3e 1f04 ab3c
00000270: 46d5 adbe 8411 77bc 6b7d 85be 3faa 48bb
00000280: bbac fa3d 3461 e8bd 60e6 f2be 72f2 a2bd
00000290: 6315 f03d 4374 09be 3f20 a0bd 13c5 19bc
000002a0: dc4a 423d 32c0 b33c 1741 1bbe 03e1 0c3e
000002b0: 1738 e1bb 4e90 cbbc 0185 5ebd 8c38 97be
000002c0: 3cb0 083e 378c ddbe d5c8 9bbe fdd2 4b3d
000002d0: 4311 c03d 0804 8d3c 97bb c33d 2db5 ddbe
000002e0: 357c e6bd 2c3e b2ba bde1 22be b8c0 e53d
000002f0: 921a 193e 9bd0 eb3c d24d 0ebd 2688 d6be
00000300: 6bc6 103e 45c5 8fbe 7d2e 373d 25be 11be
00000310: 32fc 85be e9f3 c83d 7792 1bbe b135 44be
00000320: 4a47 d33b b979 113e 5a5c d83d d696 793d
00000330: c9ba 763c 0994 a4bb 9398 debd 7e24 79bd
00000340: 6e68 a4be 8d9c 03be 7396 84be a837 6dbe
00000350: 0842 a63d f811 96bd fa44 debc fd1a f33d
00000360: a623 a7bc 0f49 ebbd b6d3 d3bc ea9b 98be
00000370: ba6e d0bd 57f5 6c3d 5c4a 203e 11a6 c83d
00000380: 37b3 7bbd 40d7 943d 4026 ac3d 6cac 8cbe
00000390: a911 11bd 9de4 a2bd 7f4c fb3b 0e64 583d
000003a0: 2685 953c c177 8cbc d1f5 26be c664 9e3c
000003b0: 4ff2 c13d 60bd 25bd 798a b2be a59f 8fbe
000003c0: 83cf 7c3d 02be 4bbe 0781 e3bd 9e01 f3be
000003d0: acf0 95bc 0861 853d faec ad3c 2218 99be
000003e0: 89ea bfbe b50a ae3d a9bd d8bd 4ffd 9abd
000003f0: 15cd e03d f2ff b2bd 7923 1abe 1258 a9be
-0.40117332 0.111880966 -0.16380364 0.023253882 0.0050768084 -0.21453074 -0.03304149 -0.26677445
-0.24712327 0.10425135 0.073311925 -0.17625038 -0.16659762 -0.06340553 -0.17108937 -0.31531438
-0.2170645 0.049514357 -0.112613074 -0.0403058 -0.28204656 -0.10527408 -0.029371455 -0.24333443
0.077621944 -0.08294574 0.09951483 -0.1333982 0.02850942 0.069213115 0.10670063 -0.14056548
0.021571336 -0.07920258 0.055374805 0.037235603 -0.1797346 -0.1902746 0.034163523 -0.34856087
-0.20178434 -0.1477587 -0.24288546 0.06600841 -0.0060939547 0.04281804 -0.25434992 0.09539539
0.021626152 0.120983005 -0.08105794 -0.05341303 -0.038753472 -0.07208625 -0.079868674 -0.14375126
-0.08368449 -0.28760862 0.08967753 0.05092164 0.10117022 0.043570623 -0.02781652 0.10474156
-0.22545855 0.12119166 -0.099988386 -0.03853957 0.18950315 0.0780593 -0.15567091 0.124981195
0.112549424 0.007776115 -0.17635165 -0.026081223 -0.16155447 0.09372267 -0.16452296 -0.018267829
0.09765471 0.12545604 0.16497166 -0.038328134 -0.107328326 -0.23298448 -0.116501324 -0.12304725
0.13278817 -0.035047572 0.02877649 0.091118865 0.060312893 0.0037209995 -0.05823809 -0.15032494
-0.06922084 -0.027646707 0.09924613 -0.08362194 0.07717762 -0.078348376 0.050958894 -0.045444734
0.08312355 -0.030938158 -0.14870445 -0.18771544 0.10484525 -0.043828674 -0.11047669 -0.082270965
0.08994245 -0.30488753 0.007573112 0.13465226 0.02181786 -0.30130434 0.041176576 0.11019613
0.010917501 0.12649125 0.054849867 0.08855053 0.04868641 0.020637456 0.032134794 -0.14236753
-0.048108906 -0.24112666 -0.16637261 -0.121253096 -0.023507781 0.11219262 -0.14451711 0.085285835
0.1033123 -0.083220825 -0.063405365 -0.436805 0.04563408 0.013403188 0.16060269 0.11730738
0.01685543 -0.029500814 -0.13621044 0.11278644 -0.124818034 -0.15349352 0.061540075 -0.061443124
-0.0875173 0.082624905 0.17117083 0.020875989 -0.33951777 -0.01507986 -0.2607225 -0.0030619053
0.12239977 -0.11346665 -0.47441387 -0.07956399 0.11722829 -0.13423257 -0.078186505 -0.009385365
0.047434673 0.021942232 -0.15161549 0.1375771 -0.0068731415 -0.024849083 -0.05432606 -0.2953533
0.13348478 -0.43271038 -0.3042666 0.04976176 0.093782924 0.017213836 0.09557264 -0.4330229
-0.11254159 -0.0013598851 -0.15906425 0.11218399 0.14951542 0.028785994 -0.034742184 -0.41900748
0.1413819 -0.28080192 0.04472207 -0.1423269 -0.26168972 0.09812147 -0.1519259 -0.19161107
0.0064477073 0.1420659 0.1056449 0.060934864 0.0150591815 -0.00502253 -0.10868945 -0.060825817
-0.32110924 -0.12852688 -0.25896034 -0.23165762 0.08118063 -0.07327646 -0.0271325 0.11870382
-0.02040274 -0.11488544 -0.025857788 -0.29806453 -0.101773694 0.05785116 0.15653366 0.097973
-0.06145021 0.07267618 0.08405733 -0.27475297 -0.035417233 -0.07953761 0.007669031 0.052829795
0.018251967 -0.017146947 -0.16304709 0.019335162 0.09470045 -0.040463805 -0.3487127 -0.28051487
0.061721336 -0.19896701 -0.111085944 -0.4746217 -0.018303238 0.06512648 0.021231163 -0.29901224
-0.37483624 0.08498136 -0.1058305 -0.07567846 0.10976616 -0.08740224 -0.15052594 -0.33075005

fc1.bias f4 [10]
00000000: d148 2f3e 8333 923e 7286 32be 8d69 263e
00000010: db25 b0bd e5cc b93d 5e0b 38be 46dc e43d
00000020: cd92 fc3b 0c18 9ebe
0.17117621 0.28554925 -0.174341 0.16251202 -0.0860097 0.09072284 -0.17973086 0.11174826
0.0077079297 -0.3087772
