models/model.pth (torch, 378536 bytes, 8 tensors)

conv1.weight f4 [32, 1, 3, 3]
000000 12 b6 9e be c7 71 59 3a a9 58 34 3e 43 c4 30 3e
       -0.30998284 0.0008294847 0.17611946 0.17262368
000010 dc f0 1a ba b5 72 23 be bc b6 47 3e 54 97 94 be
       -0.00059105246 -0.15961726 0.19503301 -0.29021704
000020 54 34 84 bd af 94 de 3d 45 68 92 3d a2 40 c2 be
       -0.06455293 0.10868203 0.07148794 -0.37939936
000030 52 13 ec 3d a6 03 97 3e 33 b1 01 bf 09 9e f9 3e
       0.115271226 0.2949497 -0.5066101 0.48753384
000040 e1 2b ab bd d3 1d 25 bf d0 11 1d 3e c1 ee 9e bd
       -0.083579786 -0.64498633 0.15338826 -0.077603824
000050 99 68 be bd 97 bb 27 3e 02 81 3c 3b d8 30 b5 be
       -0.09297294 0.16380154 0.0028763418 -0.35388827
000060 c3 5b eb bd af 8b 7a 3e 92 65 6a 3e 7b 25 7c be
       -0.114921115 0.24467348 0.22890308 -0.24623673
000070 f1 09 c4 be f4 e2 95 be b8 ab 76 3e 53 f9 1b bd
       -0.38288835 -0.29274714 0.24088943 -0.03807957
000080 40 b6 13 be ca ca c0 3e 4f 09 a6 3e d4 d7 1d 3e
       -0.14424992 0.37654716 0.32428977 0.15414363
000090 f3 48 cb be e4 3a 54 be ab 1b e6 bd 2f 0e ef 3c
       -0.39704093 -0.2072559 -0.11235746 0.029181568
0000a0 2e b9 48 be fb f9 b5 be 82 83 07 be cf 9b b0 be
       -0.1960189 -0.35542282 -0.1323376 -0.34493873
0000b0 90 f2 94 3d 77 cf 2c bd 88 f5 82 be 1f d6 a3 bd
       0.072728276 -0.04219004 -0.2557795 -0.07999825
0000c0 d9 ef 1e 3d e2 d1 39 3e b0 ae 38 3e 92 89 ce 3d
       0.038802955 0.1814647 0.18035388 0.10084833
0000d0 02 f2 bf be 10 3a 9f bd 29 7d a5 be 50 f3 83 3d
       -0.37489325 -0.077747464 -0.32322052 0.064428926
0000e0 14 1d 30 3f 70 dd 8c be e0 8d 0c be 2b 8b f3 bd
       0.6879437 -0.27512693 -0.13725996 -0.118917786
0000f0 a8 2e e1 be b8 7e 05 bf ba 63 06 bf 75 23 0e 3e
       -0.43980908 -0.5214648 -0.5249592 0.13880713
000100 05 3d 7a 3c 53 87 50 3d 1b 26 53 3e 8a 62 cb be
       0.015273337 0.050910305 0.20620005 -0.39723617
000110 b4 5d 0b be 83 77 53 3e f8 12 0c bc f8 64 1f 3e
       -0.13609964 0.20651059 -0.008549444 0.1556586
000120 1b 30 b1 bd fc c2 93 bd 68 41 1e 3e ec e3 8c 3d
       -0.086517535 -0.07214925 0.15454638 0.0687941
000130 50 75 cf 3c ee 0e 3f 3e d6 60 be bd 1c 24 f3 3d
       0.025324494 0.18658039 -0.09295814 0.11872122
000140 8e 96 6d bc 86 76 85 3e 54 d3 ec be 5c ba 10 be
       -0.014501227 0.2606699 -0.4625498 -0.1413359
000150 ad c3 81 be 9a cd 63 be 20 92 33 3e b7 d2 6f 3e
       -0.253446 -0.222464 0.17536211 0.23420225
000160 4c 74 e8 3d b3 37 c5 3e f9 3a a5 3a 78 70 0c 3d
       0.11350307 0.38519058 0.0012606076 0.034286946
000170 d9 32 14 3e 77 7c bd 3d 52 f7 98 be 1b 71 08 3d
       0.14472522 0.092522554 -0.2987619 0.03331099
000180 29 8e 05 3e 9f da 0e be f9 3b 27 3e e2 03 b0 be
       0.13042511 -0.13950585 0.16331472 -0.34377962
000190 9c a1 b8 be 0f aa 32 be da a5 7e bd b1 90 f0 bd
       -0.36060798 -0.17447685 -0.062169887 -0.11746348
0001a0 2b a2 9e be be 69 80 3e 6d 1e d8 3e d8 28 aa 3e
       -0.309831 0.25080675 0.42210713 0.33234286
0001b0 04 7c 54 3d 7c 9e 23 3e 6b 3f bb 3e 63 ef 94 be
       0.051876083 0.15978426 0.36571822 -0.29088888
0001c0 02 05 18 be 99 d6 b5 3e a9 9c bd be 6b c0 a4 be
       -0.1484566 0.35515288 -0.37033585 -0.32178053
0001d0 f1 42 ce 3d a1 9e 03 be 4c 30 48 bd 45 28 aa 3e
       0.10071362 -0.12853481 -0.048874184 0.33233848
0001e0 27 1d 13 3e 9c fe ab 3d e0 bc 6e bd c3 96 af 3c
       0.1436659 0.08398172 -0.058285594 0.021434193
0001f0 83 9a 85 bc 2e dc c0 be 10 63 e0 3e b8 03 bd 3e
       -0.016309028 -0.37667984 0.4382558 0.369169
000200 2c d9 8e be 1c d6 53 3e be 5c 92 be 58 cd 1b bf
       -0.27900064 0.20687145 -0.28586382 -0.60860205
000210 65 0a da be d5 60 1d bf df 2c 85 3d 91 22 e7 be
       -0.42586055 -0.6147588 0.06502699 -0.4514356
000220 c6 c1 03 3e 74 cd 81 be 6d be 56 3d a1 1d 81 be
       0.12866887 -0.2535206 0.052427698 -0.25217918
000230 25 49 18 bf de 06 03 3f 9e 9c 53 3e 7c b9 46 be
       -0.5948661 0.51182353 0.20665213 -0.19406694
000240 ef e4 e0 be a1 9e 23 3e 41 c9 2e 3e 28 d7 27 be
       -0.43924662 0.15978481 0.1706896 -0.1639067
000250 78 c3 26 3e 6d 53 3f 3e 76 0d 4d 3e aa 59 db 3d
       0.16285503 0.18684168 0.20024666 0.107104614
000260 16 a1 ad be a2 c0 64 3e 69 5b aa bc 34 9d 5f be
       -0.3391196 0.22339109 -0.02079554 -0.21837312
000270 9e 82 0f be 18 a7 99 3d f0 98 b6 be 53 8e 0b 3e
       -0.1401467 0.07502574 -0.35663557 0.13628511
000280 5a aa 5d 3e 8a 0e 2a 3e 49 40 fb 3c 53 59 a9 3d
       0.21647015 0.16607109 0.030670302 0.0826899
000290 bd 21 b9 be 71 70 0c be a5 9d 7f 3e 67 a3 01 3e
       -0.36158553 -0.13714768 0.2496248 0.1265999
0002a0 da 56 d5 be 71 4e c5 be 46 5e f7 3e 45 1e 97 be
       -0.41667825 -0.3853641 0.48314112 -0.2951528
0002b0 7a 75 b1 be 32 74 8f 3e 95 74 aa 3e 59 89 8c 3e
       -0.3465994 0.28018337 0.3329207 0.27448538
0002c0 7d e4 6e 3e aa 09 ed bd 91 fa 8a be cf d0 a1 be
       0.23329349 -0.11574109 -0.27144292 -0.3160462
0002d0 ce 6a 91 3e c4 d2 7e 3e 53 f0 e1 be f9 33 d4 3e
       0.28401798 0.24885088 -0.44128665 0.41445902
0002e0 36 49 91 be bb 26 a2 be 78 d1 80 3d 90 98 a4 3e
       -0.28376168 -0.31670174 0.06289953 0.32147646
0002f0 83 21 d9 be f3 38 34 3e 78 fb 9f 3e 28 55 c3 bd
       -0.4240838 0.1759985 0.31246543 -0.09537727
000300 5f bf 63 3d 52 8a 35 3e cc 23 c4 3e 56 7d 05 be
       0.055602428 0.17728546 0.3830856 -0.13036093
000310 6f 3f bf be 56 45 0d bf 53 f9 98 be 1b 75 6c be
       -0.37353083 -0.55183923 -0.2987772 -0.23091547
000320 8d 6b 7e be e7 57 db 3e 58 64 8e be b8 26 56 be
       -0.24845715 0.42840502 -0.2781093 -0.20913208
000330 ab 1e bb 3e ce 49 90 3e fb 2a f0 3d 54 ac c9 bd
       0.36546835 0.28181309 0.11726948 -0.09847322
000340 6a be d1 3e 17 3a 2b 3e 55 76 5d 3e 75 23 12 be
       0.40965587 0.16721378 0.21627171 -0.14271338
000350 83 e4 d0 3c cd 39 eb be ac d7 2e be 26 71 b1 be
       0.025499588 -0.45942536 -0.1707446 -0.34656638
000360 c4 93 c2 be 47 3c 1f 3e d1 62 c8 3d 19 67 a5 be
       -0.3800336 0.15550338 0.09784473 -0.3230522
000370 a7 36 8f 3e e8 d2 62 3d e7 cd 3d be 55 f5 6a 3e
       0.27971384 0.055376917 -0.18535577 0.22945149
000380 76 39 7d 3d 30 de 06 be dd 68 1a 3e 1c 65 8f 3b
       0.061822377 -0.13170695 0.15079065 0.004376067
000390 1d 8e 47 3e 43 84 b3 bd c3 f5 92 bd a8 4b 0a be
       0.19487806 -0.08765461 -0.071757816 -0.13505423
0003a0 92 62 1b 3e 20 10 f5 3d 7b 6d 80 be 69 25 f8 be
       0.1517432 0.11965966 -0.25083527 -0.48466042
0003b0 b5 a7 4a be 74 08 68 3e ee b2 7a 3e b7 07 83 3e
       -0.19790538 0.22659475 0.24482319 0.25591823
0003c0 9f cb 3a be d4 d9 d9 3d 56 a9 32 3b 8e 0c 1a 3e
       -0.18241738 0.106372505 0.0027261577 0.15043852
0003d0 6a fe 2c be 51 a7 a4 be 6b 14 fc be e4 d6 40 be
       -0.16893926 -0.32158902 -0.49234328 -0.18831974
0003e0 99 8b f3 bd a1 27 87 3e 53 07 ed 3d fb a0 fb 3e
       -0.118918605 0.26397422 0.115736626 0.49146256
0003f0 71 80 9b 3e 04 55 d0 3e c4 c5 67 3e 2e be 81 be
       0.3037143 0.40689862 0.22634035 -0.25340408

conv1.bias f4 [32]
000000 f4 ac df bc 15 7d 17 bc 6e 1c 37 be 33 15 87 3c
       -0.02730415 -0.0092461305 -0.17881939 0.0164896
000010 e0 ca a2 3e be 78 13 be be 27 d8 bd 7f b4 96 be
       0.31795406 -0.14401528 -0.10554455 -0.29434583
000020 c7 e6 fb bd d5 38 b5 be e9 e2 01 be fb 8b 05 be
       -0.12299877 -0.35394922 -0.12684216 -0.1304168
000030 aa c5 cb bd 94 cb 86 bd 08 cf 8d 3c 6c f2 74 be
       -0.09949811 -0.06581798 0.017310634 -0.23920602
000040 68 8b ad be 18 0f 1e be 97 e7 16 be db bb bd bd
       -0.3389542 -0.15435445 -0.14736782 -0.09264346
000050 12 8a ce bd 0a d6 26 be 8c 97 d9 bc 1b 55 4c be
       -0.100849286 -0.16292587 -0.026561521 -0.1995434
000060 07 bc 1f bd e1 20 72 be 2e af a9 be cc 87 4f be
       -0.038997676 -0.23645355 -0.33141464 -0.20266646
000070 3e e7 47 be 71 d3 68 3e ce e2 4b 3e df 6e a4 be
       -0.19521806 0.22736908 0.19910738 -0.32115838

conv2.weight f4 [64, 32, 3, 3]
000000 5b 10 64 bd be 76 9b bd cb 80 1a 3c 1f a2 b9 bd
       -0.05567966 -0.07591008 0.009430121 -0.09064125
000010 f6 6a 10 bd 0a 5b 1f be 52 f8 f7 bd 6b b1 93 be
       -0.035258256 -0.15562072 -0.1210791 -0.28846297
000020 da f0 f4 bd d7 ef 8f 3d 90 f4 0d 3e 25 c1 eb 3d
       -0.11960001 0.07028168 0.13862824 0.11511449
000030 7d 88 cd 3c 7d 7e 75 3c 3e 59 47 be 31 f1 1e bd
       0.025089497 0.01498377 -0.19467637 -0.038804237
000040 2f 46 45 bd 01 fc 78 be 71 fd 71 3d 33 7e 23 3d
       -0.048162635 -0.24314882 0.05907959 0.039915275
000050 0e 30 44 bc 18 80 84 3d e0 e3 b6 bd 08 72 90 bd
       -0.011974348 0.064697444 -0.089301825 -0.07053
000060 2e b7 ed bd 69 b7 32 be 7c 46 35 be a1 9d 81 be
       -0.116072044 -0.17452778 -0.17702669 -0.25315574
000070 67 73 b4 be 03 6c c7 bc 4d a1 07 3d f1 bb 58 bd
       -0.35244295 -0.024343496 0.033112813 -0.05291361
000080 22 c1 5f be 89 99 89 be d6 25 49 be c0 34 55 be
       -0.21851018 -0.2687495 -0.1964334 -0.20820904
000090 38 48 fc bd 03 8b 1d bd 18 16 88 bd 05 15 ca 3c
       -0.12318462 -0.03846265 -0.06644839 0.024668226
0000a0 46 a0 e6 bd 03 c6 c7 bc 4e 8d c6 3b c0 e0 1f bc
       -0.112610385 -0.024386412 0.0060593253 -0.009758174
0000b0 58 38 6d bd 9a 76 ae bd 82 bb 30 bc 0f 77 f4 bd
       -0.05791506 -0.08518715 -0.010786893 -0.11936771
0000c0 16 35 38 3c b7 05 13 bd 85 80 f9 bd d6 9c af bd
       0.011243125 -0.035894122 -0.12182716 -0.08574836
0000d0 65 7c 6a be 8e 06 e1 bd 54 ea d8 3d 26 59 a6 3d
       -0.22899015 -0.10987578 0.105915695 0.081224725
0000e0 3a e3 0a 3e 13 af f6 bc b5 d1 ae bd ab e7 91 bd
       0.13563243 -0.030112779 -0.08536092 -0.07124265
0000f0 b8 1c d1 3d c7 b3 73 bd ac 36 a2 3d 28 21 94 3d
       0.10210556 -0.05949762 0.07920584 0.072328866
000100 4b 0c d4 bc ea b0 a5 3b 45 3b 55 bd 37 bc 0b bd
       -0.025884768 0.00505649 -0.052058477 -0.034115043
000110 a6 49 72 be f3 9e be bd 06 ad 3b be 3b b1 9a be
       -0.23660907 -0.09307661 -0.18327722 -0.3021334
000120 73 43 05 bd 8c 47 a5 3c 6b f0 9e bc ac d5 85 bd
       -0.032535028 0.020175718 -0.01940175 -0.06534895
000130 6a 74 42 be bf c2 3b be 48 38 3b bc e6 47 65 be
       -0.18989721 -0.18336008 -0.011426993 -0.22390708
000140 4b 25 1f be 5e e7 05 be a1 91 10 be fd 2a 81 3b
       -0.1554157 -0.13076541 -0.14118053 0.003941892
000150 8d 4d 9b bd 8a f0 32 be 78 d8 82 be ef fc fc bd
       -0.07583151 -0.17474571 -0.25555778 -0.12352931
000160 e3 e6 7c be 7c 03 39 be d3 90 e8 3c f0 e1 01 3d
       -0.24697451 -0.18067735 0.02838937 0.03170961
000170 9e 27 9f bc b2 21 1e 3d 5a d8 c1 bd 43 3b fa bd
       -0.01942807 0.038606353 -0.09465094 -0.122183345
000180 c3 0c 36 be f7 81 70 be 51 46 4b bd 94 e7 04 be
       -0.17778306 -0.23487078 -0.049627606 -0.12978965
000190 06 24 63 be 2a 71 d4 bd 23 42 95 3d 03 4f 05 be
       -0.2218171 -0.10373147 0.07288005 -0.13018422
0001a0 e6 33 6c be 49 0c e4 bd 64 d5 b4 be f4 f6 8f be
       -0.23066673 -0.11135156 -0.35319054 -0.28118098
0001b0 2c 46 54 bd ae 26 06 3e 0f cc 10 3e fd 71 11 3d
       -0.051824734 0.13100693 0.14140342 0.0355091
0001c0 23 22 16 3d 00 61 ab bd 61 40 36 3e 7e ff 2b be
       0.03665365 -0.08368111 0.17797996 -0.16796681
0001d0 c9 6a e8 bc a2 c8 77 3d 34 1b 19 3d 54 9c 67 3d
       -0.028371232 0.060494073 0.03737946 0.05654557
0001e0 c3 93 44 bd e2 c8 85 bd 2d fd 8b be 1e 35 c1 3b
       -0.04799248 -0.06532456 -0.27341595 0.0058962246
0001f0 ed 18 4a be db 2c aa bd d0 14 32 3e bf 23 14 3e
       -0.19736071 -0.08309337 0.17390752 0.14466761
000200 75 b4 c3 3d f3 0a f4 bd ff 9a 07 be 54 a1 8b bc
       0.09555904 -0.11916151 -0.1324272 -0.0170447
000210 2b c1 2f 3e 65 52 42 3e d2 99 e2 bc 06 e7 94 bc
       0.17163531 0.18976744 -0.027661238 -0.018176567
000220 59 cb e9 ba 8f 9d bd be 46 1b 49 3e 42 b5 41 3e
       -0.0017837092 -0.3703427 0.1963931 0.189168
000230 ab 49 e2 bd 49 de 56 be a2 40 8a be 9f af 5b be
       -0.11049207 -0.20983233 -0.27002436 -0.21453713
000240 31 c1 41 bc 71 65 6c bd 4d d6 28 3d ab 58 ee bd
       -0.011825846 -0.05771393 0.04122 -0.11638006
000250 e8 77 3e bd ec 51 39 be 2d d5 14 bd bb c2 c0 be
       -0.04650107 -0.18097657 -0.036336113 -0.37648568
000260 eb 76 2e be 05 d0 42 bc a7 47 64 3c fc 2d 54 3d
       -0.17037551 -0.011890416 0.013933099 0.051801667
000270 d4 36 65 3d 07 ee 12 bd e8 2b 30 be 95 59 db bd
       0.05596049 -0.03587153 -0.17204249 -0.10710446
000280 ea 70 f0 bd 00 2c 8a be 4f 26 1c be 86 15 0f 3d
       -0.11740287 -0.26986694 -0.15248989 0.034932636
000290 a4 aa b2 bd 28 32 a1 3d 4e 52 89 bd b6 15 e6 bd
       -0.08723953 0.07870895 -0.067051515 -0.1123461
0002a0 14 3b ad 3c 11 7a 61 be bc 71 86 bd 60 34 c2 bd
       0.021146335 -0.22019221 -0.06564662 -0.09482646
0002b0 5e 0b 05 be 7c 99 5a 3d 42 80 e2 bd ca b6 da bd
       -0.12992617 0.05336903 -0.110596195 -0.106793955
0002c0 d7 ef cb bd 10 5a 46 3d b1 94 6c be f9 43 34 bd
       -0.09957855 0.048425734 -0.23103596 -0.044010136
0002d0 19 35 f6 3d f9 20 51 3e 5e 26 50 3e 87 09 a7 3d
       0.12021846 0.20422734 0.20327136 0.08156114
0002e0 5f 13 90 3d 93 db d4 bc fe c7 10 bc 91 22 9b 3a
       0.07034945 -0.025983607 -0.008836744 0.0011835863
0002f0 85 f5 77 be c4 9c 70 3d 18 61 9e 3d a8 3a a1 3c
       -0.24214752 0.058743253 0.07733363 0.01968129
000300 23 76 c0 bd 38 d7 be bd 59 c7 57 bd 3c d3 0b 3e
       -0.09397533 -0.093183935 -0.052680347 0.13654798
000310 a2 f1 c9 3d ae 8a 6a be 30 79 05 be a1 7d 98 be
       0.09860541 -0.22904465 -0.1303451 -0.29783347
000320 ce 10 f1 bc b9 89 97 3d 8a a7 4f 3c a4 49 4c be
       -0.029426958 0.073993154 0.012674222 -0.19949967
000330 6d b1 09 be 01 f4 29 be ca db 22 be dd ae 71 3d
       -0.13446589 -0.16596986 -0.15904155 0.059004653
000340 04 1d ae 3d ed 9d d8 3d 0e de 05 bd 99 a2 33 bd
       0.08501628 0.10576997 -0.03268247 -0.043856237
000350 05 e8 c8 bc 59 3a f4 3d 4e 6a 8a bd bb 85 16 be
       -0.024524698 0.119251914 -0.06758557 -0.14699452
000360 ed a4 d0 bc 66 ff c8 bd 58 a6 6c 3d c9 31 14 be
       -0.025469268 -0.098143384 0.057775825 -0.14472117
000370 63 1d 52 be d4 8b 17 be 63 c7 f0 bd 97 6e b1 be
       -0.20519023 -0.14799434 -0.1175678 -0.34654686
000380 5c 15 29 be 12 5f 65 3d f0 41 98 bd 89 c6 ed bd
       -0.16512054 0.05599887 -0.074344516 -0.11610133
000390 8c c8 af bc 99 fb 3c be 6d 40 52 be dc ac 29 be
       -0.021457933 -0.18455352 -0.20532389 -0.16569847
0003a0 31 1d b8 be aa 57 d2 bd 44 87 4c bd f6 4d ff bd
       -0.3595977 -0.10270627 -0.049933687 -0.12466042
0003b0 e1 f7 03 be b1 0d 69 3b 69 3e 53 be cb 85 b2 bd
       -0.12887527 0.003556114 -0.20629276 -0.08716925
0003c0 72 6e b1 3c 9d a3 63 be 08 16 8d bd 4b 34 2c be
       0.02165911 -0.22230382 -0.06888968 -0.16816823
0003d0 bb db 27 be 0d e9 ec bb 10 d5 2f bd bb 49 d6 bd
       -0.16392414 -0.0072299303 -0.0429278 -0.10463282
0003e0 6a 7d 01 be 11 27 4f be 6b 1b 82 be a1 cc 90 be
       -0.12645498 -0.20229746 -0.25411543 -0.2828112
0003f0 c2 02 7d 3d 9f e2 6c 3d 85 e6 09 3e 60 c3 9c bd
       0.06177021 0.05783331 0.13466842 -0.07654452

conv2.bias f4 [64]
000000 d1 cf ac bd a7 c5 66 bd 4f f0 14 bd 4b d0 a4 bb
       -0.08438075 -0.05634084 -0.03636199 -0.0050297133
000010 60 07 14 3d 4b 05 c1 bd 64 af dc bd a6 97 b2 bd
       0.036139846 -0.09424838 -0.107756406 -0.08720331
000020 fa 87 04 3d 32 99 6a bd 56 ff b1 bd 1e 1f fc bd
       0.03235624 -0.057275005 -0.086912796 -0.12310623
000030 53 5e 45 3d aa 26 09 bd e3 6b 9b bd 52 e3 3d bd
       0.048185658 -0.03348414 -0.07588937 -0.046359368
000040 d8 d4 b2 3b 5e bf 8b bd 75 61 af 3c bf 70 9b bd
       0.005457502 -0.0682361 0.021408776 -0.07589864
000050 48 e4 a8 3b ba f1 f7 bd 60 15 ca bd e6 50 b5 bd
       0.0051541664 -0.121066526 -0.09867358 -0.08853321
000060 bf c3 84 bd a3 dd 7f bd a6 b8 4e bd f2 fa c8 3d
       -0.06482648 -0.06246723 -0.050469063 0.09813489
000070 b3 31 3c bc 31 ca ac bd 06 ea 84 bd 2f c9 d4 bc
       -0.011486459 -0.084370025 -0.06489949 -0.025974838
000080 0a 54 c4 bd a8 2b f5 3c 20 2d e2 bc 7b 59 3c bc
       -0.09586342 0.029928043 -0.027609408 -0.011495943
000090 4b c2 0b bd 54 27 e1 bd 3e 47 bf bd 4b 07 41 3c
       -0.03412084 -0.10993829 -0.0933976 0.011781524
0000a0 3e 27 db bb 26 68 82 bd b8 8b 41 bd 25 b5 94 bd
       -0.0066880276 -0.06367521 -0.047252387 -0.07261113
0000b0 46 15 f9 bb b6 5e e1 bc fb 0f 08 bd 8d b6 02 bb
       -0.007601413 -0.027510982 -0.033218365 -0.0019945235
0000c0 58 d9 70 bd fb cf 69 3c cd f0 5d bd e6 69 52 bd
       -0.058801025 0.014270778 -0.054184724 -0.051370524
0000d0 8d 60 6c bd ee ae c5 bd 70 43 b6 bd 6a 11 8c 3d
       -0.057709266 -0.09652506 -0.088995814 0.06839259
0000e0 f5 2b 0f 3c 3b de 48 bd 0f 25 b2 bd dc 74 a4 bd
       0.0087385075 -0.04904006 -0.086984746 -0.08030102
0000f0 a6 d6 96 3c 96 18 ac bd f5 34 a7 bd 73 e1 88 bd
       0.0184129 -0.08403127 -0.081643976 -0.06683626

conv3.weight f4 [128, 64, 3, 3]
000000 03 5d 53 3e bc dc 79 bd 33 bb 82 bc 16 45 c6 bc
       0.2064095 -0.061001524 -0.015958404 -0.024202865
000010 0c 3b 83 bd d0 87 2d 3e f3 a4 59 3e d3 0c ac bd
       -0.06407747 0.1694634 0.2125433 -0.084008835
000020 f2 be e7 bb 88 16 8d 3c 40 7d 6e bb a1 71 e9 bc
       -0.007072323 0.017222658 -0.0036390573 -0.028496565
000030 96 a7 f2 bb 0b ee 94 bb 22 c2 03 3c 14 bf 0b bd
       -0.0074052317 -0.0045449785 0.00804189 -0.034117773
000040 ab 00 37 bc 30 d7 fe 3c 48 4b a6 bd 45 94 aa bd
       -0.011169593 0.031108469 -0.081198275 -0.083290614
000050 a6 ad ad 3d 45 88 b7 3d fb 57 bd 3c 97 03 41 3e
       0.084803864 0.08961538 0.023113241 0.18849026
000060 7c a2 3d 3e be 80 4e bd 30 8d b9 3d e2 59 01 be
       0.18519014 -0.050415747 0.090601325 -0.12631944
000070 61 6f 51 be da 38 ec 3c 52 d1 d5 bd 03 5a 45 be
       -0.20452644 0.028835703 -0.10440315 -0.19272618
000080 05 ac ef 3d e6 26 77 3c 6e 8f 27 be be 3e 2e be
       0.11702732 0.015084958 -0.16363308 -0.17016122
000090 9b 73 f5 3d 5a 4e 23 bc a7 b2 8a 3a a5 b1 55 3b
       0.119849406 -0.009967411 0.0010581807 0.0032607105
0000a0 6b 1d 5a 3d b7 43 00 be 42 7f 05 3c ec f1 81 3d
       0.05325071 -0.12525831 0.008148016 0.06344971
0000b0 39 58 4b be d3 e4 4d bb 32 09 84 bd d2 c5 21 3e
       -0.19857873 -0.0031416907 -0.06447066 0.15798119
0000c0 b1 5c 05 bd e5 75 a7 3c 54 20 6c bc 87 c6 9d bd
       -0.0325591 0.020441959 -0.0144120045 -0.07703882
0000d0 1a b2 cb 3b 9d 51 08 be 91 02 d3 3d f4 f1 df bc
       0.0062162997 -0.13312383 0.10303224 -0.027337052
0000e0 f3 e6 56 3d 27 01 9f 3d 14 dd 46 be 03 b4 ca 3d
       0.052466344 0.07763892 -0.19420272 0.09897616
0000f0 cf be ac 3d 97 04 ce bd 97 5a 1a bd 7f a7 d7 3b
       0.08434831 -0.10059469 -0.03768405 0.0065812464
000100 6e e4 93 bb 5f e4 85 3c fd 2a 35 bc d5 35 25 bb
       -0.004513315 0.016344247 -0.0110576125 -0.0025209088
000110 4a 7b 04 3d f3 85 15 bd 89 8b 60 bc c3 e0 96 bc
       0.03234414 -0.036504697 -0.013705143 -0.018417722
000120 8b 6d f8 bc ea e2 32 3d 44 91 bf 3c 9b dc 41 be
       -0.030325672 0.043673433 0.023384698 -0.1893181
000130 f1 9a 06 3d e9 29 89 be b6 21 35 be de 93 20 be
       0.032862607 -0.26789787 -0.17688641 -0.15681407
000140 99 c2 09 3e 6b e1 8f 3d 63 dd 16 be f7 dd d8 bd
       0.1345314 0.07025417 -0.1473289 -0.105892114
000150 e0 e0 9f 3c 2f f8 74 3b e7 81 59 3d 4e 55 8a 3e
       0.019516408 0.0037379374 0.0531024 0.27018207
000160 a7 81 f1 3c 7d 13 45 bd b2 23 51 bd b4 d6 b3 bc
       0.029480768 -0.04811429 -0.051059432 -0.021952964
000170 3b 5f 7d bd d5 2b 22 3c 6a a1 ab 3d 17 b9 b9 bc
       -0.061858397 0.009898146 0.08380397 -0.022671266
000180 cd 18 dd 3c 84 04 00 3e 54 da 73 3d 65 2d 45 3e
       0.026989365 0.12501723 0.059534386 0.19255598
000190 03 1f f4 3c 1d 2e 9a 3d 18 bb 3c 3e 2b 2a cc bd
       0.029799944 0.07528327 0.18430746 -0.099689804
0001a0 8b ed 26 be ce ac 3b 3e e2 51 3d bd 8f de 3b be
       -0.16301553 0.18327639 -0.046220668 -0.18346618
0001b0 81 24 7b 3c 87 60 56 3d 9b 9e a0 3d 0c 58 4d 3d
       0.015328527 0.05233815 0.078427516 0.050132796
0001c0 ac ed 70 bd 4e 0b 1f be 8c cc 91 bc f7 4e cc 3d
       -0.05882041 -0.15531656 -0.01779773 0.09975999
0001d0 15 09 56 be 95 27 4b bd 60 d0 58 bc f2 b5 8f 3d
       -0.20901902 -0.049598295 -0.013233274 0.07017125
0001e0 3b cc e6 3b 6e 30 6a bc 7a af b6 bd 66 4b 1a 3e
       0.007043389 -0.014293773 -0.08920188 0.15067825
0001f0 a0 3c 0f bd 12 1f 8f 3c 9a 92 91 3e 02 29 06 bd
       -0.034969926 0.01747087 0.2843216 -0.03275395
000200 c5 ce b0 3d ec 0c 89 3e 03 99 1d 3d b2 4f a7 3c
       0.08633188 0.2676767 0.038476 0.020423744
000210 20 70 e1 3d c0 90 ce 3c 60 95 97 3d 24 6c 2c 3d
       0.11007714 0.025215507 0.07401538 0.04209532
000220 7e eb 68 3d a8 6e 35 3e 99 83 60 bd 94 64 83 bd
       0.056865208 0.17717993 -0.054813 -0.06415668
000230 37 d9 ce 3d aa e9 e2 bd 61 5d 04 be 1c 13 c2 bd
       0.10100024 -0.11079724 -0.12926246 -0.09476301
000240 1a 3d 41 3d 0b e5 b7 3d 60 92 0d 3e 65 7a 8b 3d
       0.04717741 0.08979233 0.13825369 0.06810454
000250 9a e5 65 3e f9 c0 02 3e ef 77 b2 3d 5b 54 df bd
       0.22450867 0.12768926 0.08714282 -0.109047614
000260 c4 f6 36 be 03 c9 3d 3e fa d8 aa 3d a9 a1 9b 3c
       -0.17867571 0.18533711 0.08342166 0.018997984
000270 9f 17 58 3d a0 0f 71 be 69 44 c7 3d b9 ae 4d 3e
       0.0527569 -0.23541117 0.09729845 0.20086183
000280 b6 28 8c be 58 7b 5d bd cf 7a 46 3d fc 37 9d bc
       -0.2737481 -0.054072708 0.048456963 -0.019191734
000290 aa 4d e3 bd dc db ec 3d 54 2e c5 ba 59 cf ca bc
       -0.110987976 0.11565372 -0.0015043714 -0.024757074
0002a0 c0 4e c4 3d d9 5d 37 bd f4 ce 54 be 90 bd e0 3c
       0.09585333 -0.044767234 -0.20782071 0.02743414
0002b0 1f ae b1 bc de 0b 31 3d 89 93 38 bc e0 bb e6 bb
       -0.021689473 0.043224208 -0.011265644 -0.0070414394
0002c0 ef db fa bb 33 46 5c 3c 32 38 8a bc a3 58 65 bd
       -0.0076556127 0.013444471 -0.0168725 -0.055992734
0002d0 4c 97 0a be 33 22 3d 3d ab f8 80 3c 11 ad a8 bc
       -0.13534278 0.046175193 0.015743574 -0.020590337
0002e0 34 04 a1 3d bb 16 09 3e f6 7e 5b 3c 26 f9 d1 bd
       0.0786213 0.13387577 0.013396969 -0.102525994
0002f0 55 b0 1c 3d 96 8e 14 3e 63 ea 3b 3e 38 e9 4c 3e
       0.0382541 0.14507517 0.1835113 0.20010841
000300 0e 35 74 3d dc 7b e0 3b 24 c6 a2 3b 40 08 7e 3c
       0.05962091 0.0068507027 0.004967468 0.015504897
000310 90 c1 b2 bd 46 ba 98 bd e7 29 b6 3d 83 77 04 be
       -0.08728325 -0.07457404 0.08894711 -0.12936215
000320 07 19 1a be d7 90 8a 3d 58 88 ad bc f4 83 49 be
       -0.1504861 0.06765907 -0.021183178 -0.19679242
000330 a9 7c 0e be 05 b0 cc bd 4a 5c df bd 0c 4f be 3d
       -0.13914742 -0.099945106 -0.109062746 0.09292421
000340 c3 04 7b 3d 8a 6e d3 3d 76 7d dd 3d 7f 0d da 3d
       0.061283838 0.10323818 0.108149454 0.106471054
000350 2d ca c8 bd 01 7d 7f 3e 4f 89 b4 bd 47 9b ac bd
       -0.09804187 0.24950029 -0.08815252 -0.08428054
000360 a3 3e 46 bd 17 82 58 3d 4e be 33 bd 61 b2 8b bc
       -0.04839958 0.05285844 -0.04388266 -0.017052831
000370 70 8c 69 bd ca 6c a2 bc 19 48 9e bc 1e df 05 3e
       -0.057018697 -0.019827265 -0.019321488 0.13073394
000380 73 b1 84 3d a0 77 35 3d d1 90 c7 3a a9 bc 68 bd
       0.06479158 0.044303536 0.0015225654 -0.056820545
000390 dc 05 3c 3d 7a d5 6c bb c9 60 50 bd 55 ab a4 3d
       0.045904025 -0.0036137984 -0.05087355 0.080404915
0003a0 2b 80 11 3e ae ab eb 3d cd 5c d5 3d 4f 46 69 bb
       0.14209048 0.11507355 0.10418091 -0.0035594886
0003b0 a4 ab 91 bd fb b5 e1 bd a8 63 96 bd b6 92 2d be
       -0.07112816 -0.11021038 -0.07343227 -0.16950497
0003c0 8e b3 35 bd 13 6c 16 be 17 ba 8f 3c 2e 75 cf bd
       -0.04436069 -0.14689665 0.01754479 -0.10129772
0003d0 28 8b 76 be d1 e6 78 be 4c 5c cb bd 29 1c 58 be
       -0.24076521 -0.243068 -0.099297136 -0.21104492
0003e0 5f 93 0b be 79 45 12 be 00 f9 51 be 72 e0 11 be
       -0.13630436 -0.14284314 -0.20505142 -0.14245775
0003f0 53 78 aa bd e8 65 50 bd eb 4d 15 bc f7 be 42 bc
       -0.08323731 -0.050878435 -0.009112815 -0.01188635

conv3.bias f4 [128]
000000 b0 31 63 3c 98 b5 74 bd 36 4a 84 bd 09 a9 81 bc
       0.013866827 -0.059743494 -0.06459467 -0.015827673
000010 ba 46 6c bd ee cb 86 bd 4e c4 76 bd e9 70 34 bd
       -0.057684638 -0.06581865 -0.060245804 -0.044052992
000020 04 5f 7d bd 62 11 ed bd c9 3d b8 bd fc 9d aa bb
       -0.061858192 -0.11575581 -0.089961596 -0.0052068215
000030 c0 39 89 bc 37 f6 e8 bc 42 89 81 bd e7 3f 3c 3d
       -0.01675117 -0.028437717 -0.06325008 0.04595938
000040 37 12 b2 bd 02 bc 4a bb a1 7e 93 bd 3e 2d 97 3c
       -0.086948805 -0.0030934815 -0.07201887 0.01845419
000050 75 5d 59 bc 06 c2 4f 3d 8a df ac bc 92 0d 1e bd
       -0.013266911 0.050722145 -0.021102685 -0.03858716
000060 27 22 92 3c af f1 b2 bd 10 ee 16 bd eb 54 11 3d
       0.01783855 -0.08737504 -0.036848128 0.035481375
000070 49 49 5e bd 5f 97 80 bd 72 89 31 bb 5e 7c 17 3c
       -0.05426911 -0.06278872 -0.002708998 0.00924596
000080 b8 18 a2 bd f6 d3 dc bc 07 5b 75 bb 2d 13 30 3b
       -0.07914871 -0.02695654 -0.003743829 0.0026866898
000090 85 62 b6 bd dc 0d b0 bd 89 2f 97 bc e5 a2 ae bd
       -0.0890551 -0.085963935 -0.018455284 -0.085271634
0000a0 27 b2 e6 3b 7e 77 27 bd 7b e2 00 be 3a 34 89 bd
       0.0070402804 -0.04088544 -0.12586395 -0.066994146
0000b0 73 3f 15 bd 3a 3e fd bc ae 36 7d bc 1e 23 ab bc
       -0.036437463 -0.030913461 -0.015454931 -0.020890769
0000c0 fa 97 12 bd 0a 77 b9 bb f6 a3 77 bd 50 59 a5 3b
       -0.035789467 -0.0056599425 -0.0604591 0.0050460473
0000d0 1c 18 43 bd 40 ac 78 bd 0f 6c 8c bd 38 4d d3 bc
       -0.047630414 -0.060711145 -0.06856548 -0.025793657
0000e0 51 97 9b bc 93 be a7 bc 58 73 b4 3c 8e d7 bc bc
       -0.018993052 -0.020476615 0.022027656 -0.023052003
0000f0 f4 5d 07 bc 5d 70 64 bd a0 21 cc bd 78 0e b3 bd
       -0.008262146 -0.05577122 -0.09967351 -0.08742994
000100 db 87 97 bd 91 6a a3 bc fd b2 a8 bd 71 cb 56 bc
       -0.07398959 -0.019948276 -0.08237264 -0.013110028
000110 46 92 c5 bc 15 77 a7 bb 96 bd 29 bd f9 71 63 bd
       -0.0241176 -0.005110631 -0.04144057 -0.055528615
000120 5e 6b d4 bd 3b d1 fa bc 03 14 ef 3c bf 61 51 bd
       -0.10372041 -0.030617347 0.029184347 -0.05111861
000130 09 54 37 bc ad 0a ef bc f7 e8 4b bd c4 ad 2a bd
       -0.011189469 -0.029179895 -0.04978272 -0.041669622
000140 2c d6 29 bb 7f aa c8 bd b8 8d c6 bd 62 e2 ed bb
       -0.002591501 -0.097981445 -0.096949995 -0.007259653
000150 40 c3 c5 3b f5 16 2f 3b 31 de 67 bd db d7 04 be
       0.0060352385 0.0026716564 -0.056608383 -0.12972967
000160 aa 60 55 bd d8 bf f8 bc 84 d4 f0 bd ed 2a 82 bd
       -0.05209414 -0.030364916 -0.11759284 -0.06355844
000170 52 38 5a bd de 49 83 3c c8 67 8b 3c 69 08 a5 3c
       -0.053276367 0.016026434 0.01701726 0.020145612
000180 86 c4 be bd da 3b a5 bd 0c 0e 19 3d a1 de a3 bd
       -0.093148276 -0.080680564 0.03736691 -0.080014475
000190 c9 7d 85 3c e2 81 9a bc b5 e5 51 bc 34 5e 1a bc
       0.01629533 -0.018860761 -0.012811114 -0.009421874
0001a0 6d c2 c6 bd 5a 13 35 bc b4 40 a5 bd 47 a1 89 bc
       -0.097050525 -0.011051977 -0.08068982 -0.016800536
0001b0 d8 77 34 bd 4c 64 12 bd 1a 3c ca bc 46 21 a9 bd
       -0.044059604 -0.03574018 -0.024686862 -0.082582995
0001c0 fb 49 eb bd dd ee 8f bd 79 47 14 be 95 4d bc bd
       -0.1148872 -0.070279814 -0.1448039 -0.09194485
0001d0 0d 22 a8 bd 1c 14 c1 bb b6 f0 e9 bc e8 ac f7 bc
       -0.0820962 -0.00589229 -0.028557163 -0.030233815
0001e0 75 50 2f bd e8 21 ab bd 61 cb 48 bd ad 45 0f bd
       -0.04280134 -0.083560765 -0.049022082 -0.034978557
0001f0 b0 62 25 bd 47 9e 92 bb 9b 49 18 bd d2 c9 73 bd
       -0.04037732 -0.0044744345 -0.03717957 -0.059518643

fc1.weight f4 [10, 128]
000000 c9 2b 18 be 3f 2e 7a bd 28 7c 98 bd 15 b0 cb 3d
       -0.14860453 -0.06107926 -0.07445556 0.09945694
000010 ec c7 d1 bc ef 76 16 be a3 ba 63 be 02 ff 8b be
       -0.025608025 -0.14693807 -0.22239165 -0.27342993
000020 14 e4 16 be 7a 70 f3 3d 22 64 ed bd 8c be aa bd
       -0.14735442 0.118866876 -0.115913644 -0.08337125
000030 b8 7b 6c 3c 61 c4 6b be 06 f7 3f 3c a9 ee 5a be
       0.014433794 -0.23024131 0.01171661 -0.21380104
000040 a6 c0 9c bd 30 49 26 be c3 8d 46 be b7 4e 22 be
       -0.07653932 -0.16238856 -0.19390015 -0.1585034
000050 71 2c d9 3d 09 b0 f0 3d c7 3e 44 bd 17 2b 00 3e
       0.1060418 0.11752326 -0.04791143 0.12516437
000060 17 28 8c bd 82 f7 04 be 5e 1b 3d be 99 db 1c 3e
       -0.06843584 -0.12985042 -0.18467471 0.15318145
000070 bb 6b 7d be 27 09 76 3d 8a a4 4b 3d 61 db 2d 3e
       -0.24748127 0.060067322 0.049717464 0.16978218
000080 16 b4 f5 bd ad 1f 80 be 83 95 72 3d a4 6c 83 3d
       -0.11997239 -0.25024167 0.059224617 0.06417206
000090 b1 77 14 3c 9c 47 43 bc ab 87 5a 3d 3d 0e 2f 3d
       0.00906174 -0.0119189285 0.05335204 0.042738188
0000a0 3e 2f 10 3d 48 27 06 be 21 a3 b4 3d ca 03 ba 3b
       0.035201304 -0.13100922 0.08820177 0.005676721
0000b0 e0 97 10 bd d8 3f 5b be 43 11 ab 3d 69 5f 22 be
       -0.03530109 -0.21411073 0.08352902 -0.15856709
0000c0 cb 69 d8 3d ef a3 50 3d 3d 26 8a be 7f 4b 9f be
       0.105670534 0.05093759 -0.26982298 -0.31112286
0000d0 f2 ea 0c 3d f4 9b 81 be de 39 cf bd 11 46 e4 bd
       0.03440375 -0.25314295 -0.10118459 -0.111461766
0000e0 de b9 b9 3c 99 4d 80 3d 55 db 5d bd 8f 88 18 bc
       0.022671636 0.062648006 -0.05416425 -0.009309902
0000f0 ff 72 81 3d fd bb 8e 3d 19 f5 46 be e8 79 ea 3d
       0.06320762 0.0696945 -0.19429435 0.11449033
000100 30 87 6c bd ce 9e f5 3d 8b cd d5 bd b4 81 a8 3d
       -0.057746112 0.1199318 -0.10439595 0.08227864
000110 9c e9 a5 bd 61 f9 b1 be 5d d0 17 3e f7 f9 d7 bd
       -0.08101198 -0.34760574 0.14825578 -0.10545724
000120 18 7e 0a be 36 6f 9f 3c e2 52 a9 3b 58 85 43 3d
       -0.13524663 0.01946221 0.005167351 0.04773459
000130 e9 a9 d9 3d 7b 47 3d 3e 09 47 ef bd e2 30 0b be
       0.10628111 0.18484299 -0.11683471 -0.13592866
000140 32 61 f8 3d e6 2b 59 bd 05 fc 83 bb ad 9a 5b 3c
       0.121279135 -0.05302038 -0.004027846 0.013403577
000150 30 23 c4 bc ec 18 4e 3d 90 1f 4f be 56 45 10 bc
       -0.02394256 0.050316736 -0.20226884 -0.0088055935
000160 2f 99 f2 bd fe bd ab bc f9 0f 61 be dd 6d ce bc
       -0.11845624 -0.020964619 -0.2197875 -0.025198871
000170 52 22 00 3e b7 ad 95 bb f0 ee 78 3d 2c b7 28 3d
       0.12513092 -0.0045678276 0.060774744 0.04119031
000180 fb 40 cc b9 8d db d4 3c a2 c6 25 be 20 aa 75 3d
       -0.00038958326 0.025983596 -0.16189054 0.059976697
000190 55 83 31 3d 01 6c 01 be cd c4 5d bd dc db 58 bd
       0.04333814 -0.12638856 -0.054142762 -0.05294405
0001a0 13 da 98 bd cf 23 1c be 25 ea cc bd 9e a5 fc 3d
       -0.07463469 -0.15248035 -0.10005597 0.123362765
0001b0 a2 06 5d 3d aa 9b eb bd 89 a4 6f be 95 52 ae bc
       0.053961404 -0.115043 -0.23402609 -0.021279613
0001c0 23 c9 f4 bd f0 41 1b 3e 72 e3 65 be 2d 5e 4e be
       -0.11952426 0.15161872 -0.22450045 -0.20153113
0001d0 0c 0c 05 3d 60 ba c4 3d ca 96 8e 3d 98 4b 4e 3e
       0.032482192 0.09605861 0.069623545 0.20146024
0001e0 e2 1a 40 be 6e 91 b4 bd ab 6e 9d b9 44 55 f9 bc
       -0.18760255 -0.08816801 -0.00030027828 -0.030436166
0001f0 18 bd 8f 3d ed 83 13 3e 33 ff ec bd 33 36 6d bd
       0.07018489 0.14405794 -0.11572113 -0.057913017
000200 81 68 80 bd ad a3 2c 3d c5 2f 8d be 2e c6 ab bd
       -0.062699325 0.04214828 -0.27575508 -0.08387409
000210 3b e9 51 3b 80 ed af be 9b d0 9a bd a0 e1 c4 3d
       0.0032029885 -0.34360886 -0.075593196 0.09613347
000220 ab 7f 8c 3d 83 dd 98 bd 16 2e 82 bd f6 97 dd 3d
       0.06860288 -0.07464125 -0.063564464 0.1082
000230 07 36 d5 3a 05 04 0a 3d 65 2f 96 be 7a 16 ff 3d
       0.0016266712 0.03369524 -0.29333034 0.12455459
000240 08 85 02 3e 6a f8 2c be d5 13 b7 3d eb cb 12 be
       0.1274606 -0.16891637 0.089393295 -0.14335601
000250 b5 12 37 be 1d b1 72 3c c1 3d 6c 3d 45 61 b4 be
       -0.1787823 0.014812735 0.05767608 -0.3523046
000260 b6 67 96 3d ff 9c a0 bd 04 4c 01 3e f9 a7 a6 be
       0.07344 -0.07842445 0.12626654 -0.32550028
000270 00 f9 88 be 52 5b 23 3e 62 89 02 3e 70 b4 02 be
       -0.26752472 0.15952805 0.1274772 -0.12764144
000280 08 5a c5 bd 53 d5 89 bd 1e fe c2 bd 63 72 72 3d
       -0.09636313 -0.067301415 -0.09521125 0.05919112
000290 c5 99 0c 3e d6 08 69 3d d2 25 89 ba 8c f2 15 be
       0.13730533 0.056893192 -0.0010463542 -0.14643306
0002a0 53 cb a9 bd ca 01 eb bc fb 26 9e bd a1 98 83 3d
       -0.08290734 -0.028687377 -0.07722279 0.06425596
0002b0 33 48 3c 3e 96 8b 5e 3d f1 24 51 3d 38 2a a4 be
       0.18386917 0.05433234 0.05106062 -0.3206346
0002c0 05 7e c0 3d f3 b5 b1 bd 80 85 d3 bd 99 1d 82 3e
       0.09399036 -0.08677282 -0.103281975 0.25413206
0002d0 50 64 11 3e ba 13 66 be fa 23 44 bd f6 46 87 3d
       0.14198422 -0.22468463 -0.047885872 0.066053316
0002e0 cd 19 84 3d 8b 97 c6 3d e6 27 57 be 53 1d 5f bd
       0.064502336 0.09696873 -0.21011314 -0.054471325
0002f0 9b ca 95 3c 2e 8b 05 bd 97 73 6e be cd 9c 4e 3d
       0.018285086 -0.032603435 -0.23286282 0.050442506
000300 98 67 3d be 43 bc 13 be 93 01 d3 bd 92 ee 56 be
       -0.18496549 -0.14427285 -0.10303035 -0.20989445
000310 e7 eb 63 bd 29 20 9d 3b a6 6b 4a be 8e 84 96 be
       -0.055644896 0.0047950936 -0.19767627 -0.29398006
000320 fc 2a 1e be b9 18 4e 3e 1c e9 0b be 06 39 74 be
       -0.15446085 0.20126618 -0.13663143 -0.23849878
000330 39 1f e7 bd 1f 41 05 be e6 b7 22 bd 7d e6 ab 3d
       -0.11285252 -0.13013123 -0.03972616 0.083935715
000340 46 8d a3 be 1b d2 f6 bd d7 0a 76 bd 21 80 8f bd
       -0.3194372 -0.12051793 -0.06006893 -0.070068605
000350 a3 df 38 3b fa 79 93 bd 4f c4 97 bd 00 57 3a 36
       0.002820947 -0.072009996 -0.0741049 2.77668e-06
000360 a7 0d 18 3e 17 5e ae bc 24 da e4 bd c8 4c 20 bd
       0.14848958 -0.0212851 -0.111744195 -0.039135724
000370 b8 57 8c be 8d a2 0c bd f6 a1 db be 68 e7 1b bd
       -0.27410674 -0.034334708 -0.42897004 -0.038062483
000380 0d cf 0d bb fa c3 5b bc e5 0e c6 3d 48 57 9a be
       -0.0021638304 -0.013413424 0.0967081 -0.30144715
000390 80 3a 4c bd c5 63 18 3e b5 7a a6 bd f6 7d bd be
       -0.049860477 0.14881809 -0.08128873 -0.37010163
0003a0 14 2c d6 bb 4b 82 75 bd 2f 59 35 3d 4c 48 65 be
       -0.0065360162 -0.05993871 0.044274505 -0.2239086
0003b0 8b e0 98 bd 29 a7 89 be fa 56 7b 3d 24 47 38 3d
       -0.07464703 -0.26885346 0.061362244 0.04498972
0003c0 c1 f0 83 bd 64 08 5e 3d 48 9f e5 3c 18 56 10 bc
       -0.064424045 0.05420722 0.028030053 -0.008809589
0003d0 dd 06 32 3e 95 5e c3 bd 88 78 f0 bd 8a 71 d4 be
       0.1738543 -0.095395245 -0.117417395 -0.41492873
0003e0 d3 2b f0 3d 9a ea ca be 8c d9 af bd 65 35 c2 be
       0.11727109 -0.39632112 -0.08586416 -0.37931362
0003f0 bc ef cd be e5 90 38 be 5c 48 03 3e a2 84 c5 bd
       -0.40221965 -0.18024023 0.12820572 -0.09644438

fc1.bias f4 [10]
000000 83 a4 91 3e 1d 53 aa 3e ed 9e 8e be 5b 22 23 3d
       0.28445825 0.33266535 -0.27855626 0.039827686
000010 42 94 66 3c 47 1c d5 bd da 2f ba bc 5b 0f b7 3d
       0.014073433 -0.10405784 -0.022727896 0.08938476
000020 a3 ff 47 bb 69 23 87 be
       -0.0030517362 -0.26394203
